eval_runs/ml/ml_20250831_192423/model.pt (torch, 2825 bytes, 3 tensors)

net.0.weight f4 [16, 6]
0	0xbe24c645	-0.16091259
1	0xbc583ee1	-0.013198585
2	0x3e6a2384	0.2286511
3	0xbe5a6004	-0.2132569
4	0xbe1fb924	-0.1559797
5	0x3df71b39	0.12065739
6	0xbede9066	-0.43469542
7	0xbecc6a13	-0.39924678
8	0xbdc34415	-0.0953447
9	0x3d30d0e3	0.04316796
10	0x3e8bbe09	0.27293423
11	0xbe9c602c	-0.30542123
12	0x3e0cf83e	0.13766572
13	0xbe5271ec	-0.2055127
14	0x3f094de2	0.53634465
15	0x3f04be9f	0.51853365
16	0xbf01b4e7	-0.5066666
17	0x3ece2e9d	0.40269938
18	0x3e215506	0.1575509
19	0xbd6c92d8	-0.05775723
20	0x3e0a4da7	0.13506185
21	0xbec4353b	-0.38321862
22	0x3d81dccb	0.06340941
23	0x3dd75baa	0.105155304
24	0xbe28c770	-0.1648233
25	0x3e018fd2	0.1265252
26	0x3e5e6d37	0.2172135
27	0x3ec27dc1	0.37986568
28	0x3e6ab9fd	0.22922511
29	0xbd465f07	-0.04843047
30	0xbecb5103	-0.39710245
31	0xbdc68b3b	-0.09694525
32	0xbef2454b	-0.4731849
33	0xbe8bab01	-0.27278903
34	0x3d92eeeb	0.07174476
35	0xbe8aca3f	-0.27107427
36	0x3d762c9b	0.060101133
37	0xbcfa1ad4	-0.03053037
38	0x3d31c1bd	0.043397654
39	0xbc859c41	-0.01630986
40	0x3e2114f2	0.15730646
41	0xbc9ca1ff	-0.019120215
42	0xbf15a3e4	-0.584532
43	0xbe1e64b0	-0.15468097
44	0xbcac329d	-0.021020228
45	0x3eec38c5	0.46137062
46	0xbaaff540	-0.0013424531
47	0x3e31aed2	0.17351845
48	0x3d3de5e6	0.046361826
49	0xbd6adc0d	-0.057338763
50	0x3e3fd913	0.18735151
51	0xbe8d0611	-0.2754369
52	0x3c719682	0.0147453565
53	0xbd132e26	-0.035932682
54	0x3db0ad7d	0.0862684
55	0xbe8edd8d	-0.27903405
56	0xbe6d30f0	-0.231632
57	0xbebc6d64	-0.36802208
58	0x3d4f97ca	0.050681867
59	0xbe4bd0a0	-0.19903803
60	0xbe8811b2	-0.26576
61	0x3e8c5810	0.27410936
62	0xbd899e0c	-0.06719598
63	0x3d75ee29	0.06004158
64	0x3ec170ee	0.3778147
65	0xbeb3fb41	-0.3515263
66	0x3d2c647c	0.042088017
67	0x3e7e025b	0.24805586
68	0x3e45afcc	0.19305342
69	0x3ddc664d	0.107617
70	0x3e0e2d84	0.1388455
71	0xbe37845f	-0.1792159
72	0xbef5a2e0	-0.47975826
73	0x3e78aaec	0.24283952
74	0xbe08ea9f	-0.13370751
75	0x3e719b87	0.23594485
76	0x3c654d6b	0.013995509
77	0xbdacb897	-0.08433645
78	0x3dbbf769	0.09178049
79	0xbec46fa0	-0.38366413
80	0xbe47e217	-0.1951984
81	0x3c016985	0.007898693
82	0x3e93c056	0.28857678
83	0x3e538b4f	0.20658611
84	0xbe8f518e	-0.2799191
85	0xbec73152	-0.38904816
86	0x3ea1f9f2	0.31636006
87	0x3eb1da36	0.34736794
88	0xbeda38a3	-0.42621335
89	0xbb94406b	-0.004524281
90	0x3ab03793	0.0013444297
91	0x3dbe0234	0.09277764
92	0x3e6c36bb	0.23067753
93	0x3ede43c6	0.43411082
94	0xbed4cc83	-0.4156228
95	0x3e384877	0.17996393

net.0.bias f4 [16]
0	0xbeb9a225	-0.3625652
1	0x3c346ce6	0.011012292
2	0x3efd35e4	0.49455178
3	0xbe85a1f5	-0.26100126
4	0xbe703b7e	-0.23460194
5	0xbeadb291	-0.33925298
6	0x3eef0269	0.46681526
7	0x3e938f15	0.288201
8	0xbbeba711	-0.0071915467
9	0x3e360ffa	0.17779532
10	0xbe7ffbe0	-0.24998426
11	0xbefc457a	-0.49271756
12	0x3e94ab2a	0.29036838
13	0x3e72248c	0.23646754
14	0x3c0d78d8	0.008634768
15	0x3e4dab70	0.2008493

net.2.weight f4 [1, 16]
0	0x3e3dd160	0.18536901
1	0x3e1d7e94	0.15380317
2	0xbeb699a7	-0.35664102
3	0x3e452b87	0.19254886
4	0xbe0f0c7a	-0.13969603
5	0x3e1243ab	0.14283626
6	0xbec859d1	-0.39131024
7	0xbed0862b	-0.40727362
8	0x3db22d17	0.087000065
9	0xbc61f580	-0.013791442
10	0x3dcf0fae	0.101104125
11	0x3e0e4ad4	0.13895732
12	0xbee05140	-0.4381199
13	0xbda674de	-0.081277594
14	0xbdbac78a	-0.0912009
15	0xbedcefa3	-0.43151578
