eval_runs/ml/ml_20250831_184632/model.pt (torch, 2825 bytes, 3 tensors)

net.0.weight f4 [16, 6]
00000000: 936d da3e ebbe 403b 857d 5e3e f513 f2be
00000010: 9982 843e f508 513e 8258 5d3d a313 1ebe
00000020: 8cf9 b3be 5f3c ccbc 35d4 953e 067e dfbb
00000030: a67e c93e b706 303e 548b 3bbe cdd9 a53e
00000040: f84f 073e 5d24 683e 1ea4 a2be d8c1 f3be
00000050: 2ccd 183e 23a3 6ebe 9062 c33e fd58 8c3d
00000060: 8d34 1abc 093f 423e 5ef6 663e 4f1e d7bd
00000070: eb8d cd3e ed7b b7bc b917 5abd 9e34 bcbe
00000080: e719 61be d3c4 9ebe 2f97 933d 8d88 e73d
00000090: aef5 1fbe 7c2b 7d3e 9031 ce3d 9278 813e
000000a0: 6640 58be e7a9 b93c fba9 86bd b72e 3abe
000000b0: 2535 86be 05cc cfbe c1bd 96be 7a3d a3be
000000c0: a551 ca3a 8d25 19be 050b 733e 6559 8dbd
000000d0: 57b5 91bd ebcc a6be 2aac 28be 4452 7abe
000000e0: f552 4abe dced 063f 7fc8 dbbe 3ee9 f03e
000000f0: 8aea 9b3e d9fd 67be 26de 8c3e 6f48 6b3d
00000100: 193f c03e 8d73 a5be 3d08 f5be 4f58 58be
00000110: b528 db3e 09bb c53d ed0e b53e 533b ae3c
00000120: 4c6a 873e 7099 063f 49da 0bbe 51e9 b63e
00000130: 0f29 b53e 21d2 26be 1d97 cebe 33d7 ed3b
00000140: 10c7 2ebd 883a 01be b2c5 84bb f1ec 0e3f
00000150: 78c2 eabd 6e01 75be 648e 163e 520d 7e3e
00000160: 3796 d5bd bdd2 7f3d fe85 9d3e 42f5 293e
00000170: e6d6 babe 1fe1 393e 69c0 dbbe 7384 9a3d
0.42661723 0.002941067 0.2172757 -0.4728085 0.25880888 0.20413573 0.054039486 -0.15437178
-0.35151327 -0.02493113 0.29263464 -0.006820443 0.39354438 0.17190062 -0.18314868 0.3239273
0.132141 0.22670121 -0.31765836 -0.4760883 0.14922017 -0.23304419 0.38161135 0.06852911
-0.009411943 0.18969359 0.22554919 -0.10503828 0.40147337 -0.02239796 -0.05324528 -0.36758894
-0.21982537 -0.3100954 0.0720657 0.11305342 -0.15621063 0.24723619 0.10068047 0.252873
-0.21118316 0.022664024 -0.0657539 -0.18181883 -0.2621242 -0.40585342 -0.29441646 -0.3188284
0.0015435709 -0.1495573 0.23734672 -0.06901816 -0.07114666 -0.32578215 -0.16471925 -0.24445444
-0.19758208 0.52706695 -0.42926404 0.4705295 0.30452377 -0.22655429 0.27513236 0.057442125
0.3754814 -0.3231472 -0.47857848 -0.21127437 0.42804495 0.09654815 0.3536295 0.021268522
0.26448286 0.5257788 -0.13657488 0.3572488 0.35382888 -0.16291095 -0.40349665 0.0072583198
-0.04267031 -0.12619984 -0.0040518874 0.55830294 -0.11462873 -0.23926327 0.14702755 0.24809769
-0.10429042 0.062456835 0.3076629 0.16597465 -0.3649208 0.18152283 -0.42920235 0.07544794

net.0.bias f4 [16]
00000000: 795e 9abb ed40 083e 4942 8cbe b49e aabe
00000010: 7fa3 63be 5b7b d2be 2cb1 93be bcd2 a0be
00000020: 2403 c3be 4470 553e 6147 debd 6b53 c73e
00000030: 5711 213e 105e 283f cc1a 0ebe 2200 9dbc
-0.004710969 0.13306017 -0.27394322 -0.33324206 -0.22230338 -0.41109738 -0.2884611 -0.31410778
-0.38088334 0.20843607 -0.10853458 0.3893083 0.15729271 0.6576853 -0.1387741 -0.019165102

net.2.weight f4 [1, 16]
00000000: 1e29 163d 12f5 d93d 07a9 793e 1c56 813e
00000010: 30f2 e3bc ee3d 6f3e 82fc 73be 9b9a 483e
00000020: 4e97 6fbe 99e1 a9be b508 663d 1994 b5be
00000030: de64 54be 2fae 6abe 2610 043e 776d f9bd
0.036660306 0.106424466 0.24380885 0.2526101 -0.027825445 0.23363468 -0.23826793 0.19590227
-0.23397562 -0.3317993 0.056160647 -0.35464552 -0.20741603 -0.22918008 0.12896785 -0.12179082
