eval_runs/ml/ml_20250831_075014/model.pt (torch, 2825 bytes, 3 tensors)

net.0.weight f4 [16, 6]
00000000: dfc7 193e f8b6 ee3e 753f 0cbe a9a5 a03e
00000010: 9c07 b63d 61f4 b0be 1c29 26b9 7c57 993e
00000020: 6eea b0be 7f9f 7d3e 81f3 b5bb 82bf fbbc
00000030: 576a 5a3e 9aa4 fd3e ad71 8a3d 2102 c6bc
00000040: f76c 623d a793 f8be de53 ca3e ff22 ab3d
00000050: d944 39bd 86d1 73be 02ad 583e d427 6e3e
00000060: 3d83 1b3e 52fb 35be 1444 f23e f0a5 7e3e
00000070: d1b4 01bf 5b7d 5f3d 62ce 233e a754 c03e
00000080: 5ffd cebe 87b6 9abd 5f21 3ebe f274 ca3d
00000090: bba7 afbd 56bf d8be 716c 30be 7bb1 79be
000000a0: 5728 8e3e 9721 1bbe eff0 31bd 95f8 23be
000000b0: c503 0d3f 81d3 fd3e daf5 c83d 0115 633e
000000c0: daf6 a5be d23e d23d e1ce 023f 58cc 0bbd
000000d0: 97ff babe 63ac 9cbd 7953 9b3e ec77 c93e
000000e0: 5d1b 933e 364a a5be 51ac f93e a54f 483e
000000f0: c057 9cbe e439 1e3e cf7f a03e 86d5 5d3e
00000100: 395e a1be b6d2 203e c518 a43e 9df7 463e
00000110: 0f66 52bd 2f35 923e e7c4 cf3e b000 613e
00000120: 345b 973e f284 f6bd 2817 8fbe 5af7 d43e
00000130: 3710 36bd 8f68 653e d61d 44be 758a a3be
00000140: 7a79 8b3e a4fe 94bd b6b8 4e3e bbc5 7e3e
00000150: a370 3abe 8304 13bd 3bff 28bd 0651 f53e
00000160: 8e5b 0dbf d459 163e 4b8f 1ebf 0615 9dbe
00000170: b17d 67be 027a a63e a557 16bf 128d ae3e
0.15017651 0.4662397 -0.13696082 0.3137639 0.0888817 -0.34561446 -0.00015846308 0.29949558
-0.34553856 0.24767874 -0.0055527096 -0.030730966 0.21329628 0.49539644 0.06759963 -0.024170937
0.0552797 -0.4855015 0.3951711 0.08356284 -0.045231674 -0.23810396 0.21159747 0.2325738
0.15186782 -0.17771652 0.47317564 0.24867988 -0.5066653 0.054562908 0.15996698 0.37564585
-0.40427682 -0.075543456 -0.18567418 0.09885587 -0.08576914 -0.42333478 -0.17228867 -0.2438411
0.27765152 -0.15149532 -0.043442663 -0.16012795 0.55083877 0.49575427 0.098125175 0.22175981
-0.32414895 0.10265888 0.5109692 -0.034130424 -0.36523125 -0.07650068 0.30337122 0.39349306
0.28731814 -0.3228318 0.4876428 0.19561632 -0.30535698 0.15451771 0.3134751 0.21663484
-0.315172 0.1570538 0.32050148 0.19430394 -0.051366862 0.285562 0.40579912 0.21972919
0.2956177 -0.12037076 -0.27947354 0.41594964 -0.044449057 0.22403167 -0.19152007 -0.31941572
0.27241117 -0.07275131 0.20187649 0.24880116 -0.1820703 -0.035892975 -0.04125903 0.47913378
-0.55217826 0.14682704 -0.619374 -0.30680102 -0.22606541 0.3251496 -0.58727485 0.34092003

net.0.bias f4 [16]
00000000: dff8 ae3e 6064 c8be 775c f63e 23c8 73be
00000010: 146e 963e 97d8 9dbe 97b7 7cbc 836a 133f
00000020: eca4 103f 308e b4be 865c 0f3f c0c5 eb3d
00000030: a392 8abe 0685 2f3e 0356 bd3e 0421 713d
0.3417425 -0.3913908 0.4811742 -0.23806815 0.29380858 -0.30829307 -0.015424631 0.575844
0.5650165 -0.3526473 0.56000555 0.11512327 -0.27065 0.17140588 0.36979684 0.058869377

net.2.weight f4 [1, 16]
00000000: ef22 d5be bf41 a4bc 1517 82be 8e64 83bd
00000010: faca c2be 4c0b a33d 9351 8d3e bc32 a0be
00000020: 46d6 5cbe 852d 963d 882b 86be 2853 69bd
00000030: ee41 2a3d 1757 df3c 48a9 89be 352d 42be
-0.41628215 -0.020050881 -0.25408235 -0.06415664 -0.38045484 0.07961139 0.276013 -0.31288707
-0.21566114 0.07332901 -0.26205087 -0.05696407 0.04156678 0.027263207 -0.26886964 -0.18962558
