eval_runs/ml/ml_20250830_224054/model.pt (torch, 2825 bytes, 3 tensors)

net.0.weight f4 [16, 6]
00000000: b22c 28bf ffdf fa3e 5907 183f 3ef8 b93e
00000010: 0557 ffba 90a9 ba3e c95e f9bd 92f0 e63e
00000020: b977 cb3e 5c76 59be 15d2 703e e30f 963d
00000030: e2e5 a4be 67e4 c83e 0edb 23bd 6e4d c1be
00000040: 79f4 33bd 9b59 263e 7b43 b6bd 1095 813e
00000050: ed25 263d d7d5 25be eb60 87be f20d b73d
00000060: 3809 2d3c 6050 c53e 66df 4a3d 8260 133e
00000070: 45ec a6be b822 4b3e c3c1 0a3c 4d3f dfbe
00000080: 1f9f fdbe 95cb b1bd f3c4 2a3e 09ae 6ebe
00000090: 7dd6 be3e 610a b03e 4c4f 19be 91e5 c3be
000000a0: dc1c e4bc 3f78 953e 3d08 9cbe 7824 f43d
000000b0: 9398 75be e215 c7be 8be8 8bbe 3f6c 733c
000000c0: b71e 8fbb 0080 76bd f8d6 6fbe 8ce5 9b3c
000000d0: 98b6 e1bc 52ab 643e 64dd 02bf 5889 5c3e
000000e0: a012 0d3f 258d 2f3e 979c 193d 2733 133f
000000f0: d875 83be 61f0 34be 6315 17be 4b12 6fbe
00000100: 671b 43be e64a 573e 667a 633e 7f86 753e
00000110: 6c01 693d d20c 27bd d7ff 203e 7e8b 103d
00000120: 36e1 723d 9737 6dbe be4b c2be e3ed d8bd
00000130: 82df 663d ff1f f7bd b4d3 62be 99e3 a3bd
00000140: b885 e53e dd9e 263c c65f 94be 15f8 e4bd
00000150: 96d9 f8be 4cf5 5abe d8b2 f53e 86d3 c4bd
00000160: ca6c bebe 912f 04be 88e5 e0be 35ec c4be
00000170: 1564 ea3d 40a2 a2bb 3272 963d 59c7 cdbe
-0.656932 0.4899902 0.5938621 0.36322206 -0.001948089 0.3645749 -0.12176282 0.45105416
0.3973978 -0.21236557 0.2351764 0.07327249 -0.32206637 0.39236757 -0.04000383 -0.37754387
-0.04393432 0.1624512 -0.0889959 0.25309038 0.040563513 -0.16194855 -0.2644113 0.08938207
0.01056128 0.38537884 0.049529456 0.14392284 -0.32602134 0.19837463 0.008469048 -0.43602982
-0.49535462 -0.08681408 0.16676693 -0.23308577 0.37273017 0.34382918 -0.14971656 -0.38261083
-0.027845792 0.29193303 -0.30475035 0.11921018 -0.23983984 -0.38883883 -0.27325854 0.014857351
-0.004367675 -0.060180664 -0.23421848 0.019030355 -0.027552888 0.22330979 -0.51119065 0.21536767
0.55106544 0.17143686 0.03750285 0.5749993 -0.25675845 -0.17669822 -0.14754252 -0.23346822
-0.19053422 0.21024665 0.2221466 0.23977087 0.05688612 -0.04078371 0.15722595 0.03528928
0.05929681 -0.23165737 -0.37948412 -0.10592248 0.056365497 -0.1206665 -0.22151071 -0.08002395
0.44828582 0.010169712 -0.2897932 -0.111801304 -0.48603505 -0.21382636 0.4798801 -0.096106574
-0.37192374 -0.1290877 -0.43925118 -0.38461462 0.114448704 -0.0049631894 0.07346 -0.40191153

net.0.bias f4 [16]
00000000: f4bf a53e 0869 21be e9b9 8ebe 9dee 0a3d
00000010: c772 e33e afef 233e ebb9 aebe a5c6 9ebe
00000020: d742 7ebe 6a33 773e a7cf 82be 9352 093e
00000030: 0931 fcbe 66bb d13e 57df 023f e599 26bf
0.3237301 -0.15762722 -0.27876213 0.033918966 0.44423506 0.16009401 -0.3412622 -0.3101093
-0.24830185 0.24140707 -0.2554905 0.13410406 -0.4925616 0.40963286 0.5112204 -0.65078574

net.2.weight f4 [1, 16]
00000000: 97fb c8be 8e86 04be c041 81bc f89c efbc
00000010: b62f 1fbe ea34 b8bc 7c97 45be a819 e43d
00000020: 43ac d43c 595c bdbe ae45 5b3d ebe1 a13d
00000030: 9736 a73e 4b6a 87be b9b5 bbbe 8f89 6e3e
-0.39254448 -0.12941954 -0.015778422 -0.029249653 -0.15545544 -0.022486169 -0.19296068 0.11137706
0.025961047 -0.36984518 0.05353325 0.079044186 0.32658836 -0.26448283 -0.3666208 0.23294662
