eval_runs/ml/ml_20250831_141718/model.pt (torch, 2825 bytes, 3 tensors)

net.0.weight f4 [16, 6]
00000000: 1297 0dbe 555e 77bd 17a5 1c3e f74c ef3e
00000010: 5a0c 7a3c c3a9 bbbe 9f75 cbbe 5f05 0d3f
00000020: 3fdc 083f 75b7 013e 28a1 30bb c8cb a7bd
00000030: 9bcc 873e b725 483e 271e a03e 16b0 d73e
00000040: fc2a 80bd 8c40 6f3e 948f d7bd e8be 123e
00000050: 2326 9ebe 5aea 9eba 0a85 f5be 4520 ac3e
00000060: 63e5 b7bd 62df 753d 133d 8dbd fba1 83bd
00000070: 3fec 423e 4eb0 cebe feae bcbd c23a a43e
00000080: d10d 8e3e 10f4 d93e ab69 0ebf 1ffd 863e
00000090: 8d82 a43e 0a65 5cbd 3376 a2be c99a 333e
000000a0: 66ad 94bd 0ef1 a1bd 0918 bd3e e575 69be
000000b0: a8cd 2d3e 5490 d6bd 790d dbbd b68d 003e
000000c0: e1dc 24bf 6a78 2fbe 25a9 843e 746f 883e
000000d0: bf4e 0abf 22a5 d33e 64ff 643e 4d05 963e
000000e0: dedd d6bb bedf 14bd fe36 d7bb d788 52be
000000f0: 0e99 86bc 7440 d2be 4fac c4be 9078 903e
00000100: 04ef 5bbd eea4 b73e e940 22be 43ea b63e
00000110: a7c4 35be 3100 043e d6f1 d1ba 5323 093f
00000120: bfed 04bf a8dc 61bd 5126 dbbe 1b0d 3ebe
00000130: a496 c63d 2b9a af3e 088e d93d 5fd7 a7bc
00000140: e777 b23d c3b5 8f3e a227 a63d 0f62 a13e
00000150: f088 283a dbee dbbe 8ba2 a33e 78bb 8a3e
00000160: ec7c 8dba 3327 d43c 7b08 cf3e 550c 263e
00000170: a704 ddbc 38dd 73bc fb13 353d 6443 513e
-0.1382716 -0.060392696 0.15297352 0.46738407 0.015261734 -0.36652955 -0.39738175 0.5508632
0.5346107 0.1266764 -0.0026951525 -0.08193165 0.2652329 0.19545637 0.31273004 0.4212653
-0.062581986 0.23364466 -0.10525432 0.14330637 -0.3088847 -0.0012124286 -0.47953063 0.3361837
-0.08979299 0.060027488 -0.068964146 -0.0642738 0.19035433 -0.40368885 -0.092130646 0.3207608
0.27744916 0.42569017 -0.55629987 0.2636499 0.32130852 -0.053807296 -0.31730804 0.17539515
-0.072596356 -0.07907306 0.369324 -0.2279888 0.16972983 -0.10476747 -0.10695929 0.12554058
-0.64399534 -0.17135778 0.25910297 0.26647532 -0.54026407 0.41336924 0.22363049 0.2930092
-0.0065572103 -0.03634619 -0.006567835 -0.20560013 -0.016430404 -0.410648 -0.3841271 0.28216982
-0.05369474 0.3586802 -0.15845074 0.35725603 -0.17750798 0.12890698 -0.0016017507 0.53569525
-0.5192527 -0.055142075 -0.4280267 -0.18559687 0.09696701 0.34297308 0.106227934 -0.02048844
0.08714276 0.2806836 0.08113028 0.31520125 0.00064290967 -0.4295567 0.31959948 0.27096152
-0.0010794676 0.025897598 0.40436158 0.16215642 -0.026979757 -0.014884286 0.044208508 0.20435864

net.0.bias f4 [16]
00000000: 87d7 683e 0729 de3e 1c26 09be 8f55 9cbd
00000010: 892a dfbd 48ec f5bd 60d1 f8bd 18c6 babe
00000020: 5216 b53e 8a81 3fbd 9689 e0be 507e e03e
00000030: 17fd 0dbf cf8e 803e 5ee9 b63e 40b5 43be
0.22738467 0.43390676 -0.13393444 -0.076335065 -0.10896785 -0.12007958 -0.1214931 -0.3647926
0.35368592 -0.046754397 -0.4385497 0.4384637 -0.5546431 0.25108954 0.3572492 -0.1911211

net.2.weight f4 [1, 16]
00000000: e449 29be 2196 78be ba0a b43d bba7 fbbe
00000010: f87f 27be 5002 f0be 6c1e 503e ac4d cdbd
00000020: 9420 a9be 8c05 5dbd dd38 e53d 0f6b 78be
00000030: efd6 aa3e a69c 37bd ecf8 99bd c813 b23d
-0.16532093 -0.2427602 0.087911084 -0.49151406 -0.1635741 -0.46876764 0.20324105 -0.1002458
-0.33032668 -0.053960368 0.111924864 -0.2425959 0.33367106 -0.044827126 -0.07518181 0.08695179
