eval_runs/ml/ml_20250831_161723/model.pt (torch, 2825 bytes, 3 tensors)

net.0.weight f4 [16, 6]
-0.39267263 -0.09855186 0.3052172 0.015841274 -0.4752163 -0.15074582 -0.3354058 0.3394911
-0.12265039 -0.12243514 0.014077441 0.520423 -0.20410618 0.18873361 -0.29898542 -0.2524025
0.09946001 -0.27741563 0.058949113 0.11072456 0.26537466 0.25863117 0.21133733 0.33827433
0.17348614 -0.0043437723 0.28383645 0.2082772 -0.012452374 -0.0630585 -0.35771593 0.19295347
-0.12665607 0.60138744 0.03625334 0.5537547 -0.46395445 0.11616432 -0.19451079 -0.15906385
0.029550519 -0.23567681 -0.31338426 0.32867977 -0.177088 0.5663298 -0.31412202 0.12616158
-0.52657366 -0.41639256 -0.24626178 0.14555591 0.35505694 -0.08871472 -0.59468806 0.38983393
-0.013869674 0.4112074 -0.0018864617 0.50575036 -0.12407868 -0.12802173 0.08876879 -0.3077372
-0.3119316 -0.39703178 -0.094925106 0.12438255 -0.028657528 -0.057391472 -0.003117536 0.12496611
0.27781805 -0.3594517 0.07573808 -0.1828764 -0.008207454 -0.30657893 -0.03206562 -0.45246512
0.1043574 0.27591473 0.06282076 0.20110285 -0.04573753 -0.1424605 0.35261118 -0.27293995
-0.08074681 -0.08726279 -0.020338519 -0.39321104 0.20346445 -0.32848138 0.24644043 0.20043685
00000000: 630c c9be 8fd5 c9bd 6e45 9c3e 8fc5 813c
00000010: 8d4f f3be 1d5d 1abe 4fba abbe c7d1 ad3e
00000020: 2130 fbbd 46bf fabd 11a5 663c 713a 053f
00000030: 3601 51be 6243 413e 9e14 99be e73a 81be
00000040: b1b1 cb3d 6c09 8ebe a074 713d 8fc3 e23d
00000050: 30df 873e 4e6b 843e d068 583e 4b32 ad3e
00000060: 5aa6 313e 3456 8ebb 0353 913e 9e46 553e
00000070: 0b05 4cbc d124 81bd 8b26 b7be 9895 453e
00000080: 21b2 01be 87f4 193f 627e 143d dec2 0d3f
00000090: 708b edbe 8fe7 ed3d d62d 47be a2e1 22be
000000a0: ee13 f23c 4355 71be e773 a0be b748 a83e
000000b0: 8f56 35be fdfa 103f 9ad4 a0be 8030 013e
000000c0: 88cd 06bf 6831 d5be 0c2c 7cbe 9c0c 153e
000000d0: 06ca b53e 10b0 b5bd 7a3d 18bf 5098 c73e
000000e0: a13d 63bc c789 d23e 2743 f7ba db78 013f
000000f0: f71c febd 2118 03be 69cc b53d bb8f 9dbe
00000100: 80b5 9fbe c047 cbbe 1868 c2bd 47bc fe3d
00000110: 31c3 eabc 5213 6bbd 934f 4cbb 3bee ff3d
00000120: 2b3e 8e3e 0e0a b8be 911c 9b3d f343 3bbe
00000130: 8f78 06bc eaf7 9cbe 3d57 03bd 82a9 e7be
00000140: 55b9 d53d b244 8d3e 2ca8 803d e8ed 4d3e
00000150: 4757 3bbd 2ae1 11be 7489 b43e c9be 8bbe
00000160: 955e a5bd d5b6 b2bd f79c a6bc f552 c9be
00000170: fc58 503e b62e a8be e15a 7c3e 513f 4d3e

net.0.bias f4 [16]
0.50331146 0.36287162 0.22812621 0.4773824 -0.40149707 0.43775988 0.6115648 0.19893326
-0.49382824 0.32719672 -0.36468142 0.47776705 -0.2794037 0.21918193 -0.22010347 -0.6083703
00000000: 05d9 003f 4fca b93e eb99 693e 776b f43e
00000010: 0691 cdbe 1022 e03e 838f 1c3f 29b5 4b3e
00000020: 0ed7 fcbe 5486 a73e 86b7 babe e29d f43e
00000030: 000e 8fbe 3a71 603e ce62 61be 28be 1bbf

net.2.weight f4 [1, 16]
-0.31812346 -0.24607721 0.023615113 -0.4078052 -0.054748207 -0.23304491 -0.2678532 -0.46907288
0.1284752 -0.2190003 0.03604904 -0.17621633 -0.16366947 -0.02882413 0.17796871 0.2591468
00000000: 14e1 a2be aafb 7bbe 7b74 c13c d8cb d0be
00000010: a83f 60bd 53a3 6ebe 0e24 89be 522a f0be
00000020: 018f 033e 9d41 60be 28a8 133d 0e72 34be
00000030: f898 27be 9520 ecbc 6e3d 363e e4ae 843e
