eval_runs/ml/ml_20250901_001304/model.pt (torch, 2825 bytes, 3 tensors)

net.0.weight f4 [16, 6]
000000 b2 cf 0f be 74 5b 00 be 45 5b 10 3e 3e 2b b5 bd
       -0.14044073 -0.12534887 0.14097317 -0.088461384
000010 a6 8b 07 bf 90 7e a1 3d 08 a1 f9 be e9 ce bb 3e
       -0.5294746 0.07885468 -0.4875567 0.36681297
000020 ee 60 88 bd 36 70 54 3c 8b 1d e1 be a2 7f f5 3d
       -0.06659113 0.012966206 -0.43967852 0.11987235
000030 55 71 8b 3e c4 64 35 bd 75 9b 3e 3e cf 93 af bd
       0.27234903 -0.04428555 0.1861399 -0.08573114
000040 01 eb 10 be 74 71 05 3e eb b5 90 be 14 51 9d 3a
       -0.14152147 0.1303156 -0.28263792 0.0012002313
000050 25 cd 88 bd e4 c0 dc 3e c2 d6 f9 ba 44 33 0b be
       -0.06679753 0.43115914 -0.0019061195 -0.13593775
000060 9a ec 05 3e f9 5f 2f be f1 2b a7 be 2e 2f 05 3a
       0.13078538 -0.17126454 -0.32650712 0.00050805777
000070 f8 cd e7 3e 15 13 32 be 59 f4 48 3e f7 0b 8b 3e
       0.4527433 -0.17390092 0.19624461 0.27157566
000080 71 84 2e be 24 af 44 3d 2b c5 a4 be 07 d9 b6 bd
       -0.1704271 0.04801859 -0.32181677 -0.089281134
000090 cc 4b 2a bf f7 7d a1 3e 81 b5 5c 3e 40 d5 11 3e
       -0.66521907 0.31541416 0.21553613 0.14241505
0000a0 5e 30 3e be 53 fc 08 3f ee dc a1 3e 5f da 56 bd
       -0.18573138 0.53510016 0.31613868 -0.05245435
0000b0 c4 f1 ea bc db 54 9d 3e 7d e9 50 3e 7a fe c2 be
       -0.028679736 0.30728802 0.20401569 -0.38084775
0000c0 14 31 b3 3d 6a 2f a4 3e 0a a3 53 bd 08 89 0c 3e
       0.08749595 0.32067424 -0.051669158 0.13724148
0000d0 ce b7 c2 be b5 ad 3e bd 17 ee 9a 3e 16 c6 04 3e
       -0.38030857 -0.04655238 0.30259773 0.12966189
0000e0 ce c2 77 3e 37 60 f4 3d 67 48 2c be 6c 3f 57 3e
       0.24195406 0.11932414 -0.16824494 0.21020287
0000f0 bf cf 2a be e1 07 1a 3d 1b 5a e3 3e 5f 69 0b 3e
       -0.16680811 0.03760517 0.44404683 0.13614415
000100 36 eb dc be 55 d8 c6 3e 86 09 9f be 9c d7 05 3f
       -0.43148202 0.38836923 -0.31061953 0.5228212
000110 7a 09 f4 3e 98 bd c7 bd b7 b0 59 3c 16 c6 78 be
       0.4766348 -0.09752959 0.013286761 -0.24294314
000120 5e cb 93 be 60 59 8e 3e 08 9c 03 be 8d 74 4d 3e
       -0.28866094 0.27802563 -0.1285249 0.20063992
000130 55 ba 08 3e a1 90 4f 3e 97 d1 25 be e4 f4 a3 3d
       0.1335233 0.20270015 -0.16193233 0.080056936
000140 da 78 7c be 27 10 19 be 4a 0d 49 be 82 f3 09 bc
       -0.24655476 -0.14947568 -0.19633976 -0.008419873
000150 ad b7 15 be 06 01 68 be dd be 40 3e fb 39 9e be
       -0.14620848 -0.2265664 0.18822809 -0.3090361
000160 e8 ea 88 3e 65 96 9d 3e c1 53 ad bc 58 ce 94 be
       0.2674172 0.30778804 -0.021158101 -0.29063678
000170 fa b5 2b be 9e ba d8 3e f1 31 15 be c7 1c a6 3e
       -0.16768637 0.42329878 -0.14569832 0.3244383

net.0.bias f4 [16]
000000 b9 69 e7 3e 77 50 ce bc 98 14 c6 be 0b 66 c6 3e
       0.45197847 -0.025184853 -0.38687587 0.38749728
000010 5c ab f4 3d ee 13 9d 3e 00 99 12 3f 29 27 c0 3e
       0.11946747 0.30679268 0.5726471 0.37529877
000020 1b 2f 41 3e 97 e7 7f 3e 7a 7c 63 3e 53 47 19 3f
       0.18865626 0.24990688 0.22215453 0.5987446
000030 f0 83 bb 3e ea 4f 22 bc d7 fd e0 be 34 4b 94 3e
       0.36624098 -0.009906748 -0.43943664 0.28963625

net.2.weight f4 [1, 16]
000000 ab f1 7c be 8f 5d b2 be 2c 88 97 3d e9 4f af be
       -0.24701564 -0.34837005 0.073990196 -0.34240654
000010 3a 58 14 3e 07 55 70 be d9 d6 41 be fa 70 e2 be
       0.14486781 -0.23469935 -0.18929614 -0.4422682
000020 a7 56 cd be 4b 84 03 3d 72 08 76 be 88 8a 8b be
       -0.40105173 0.032108586 -0.24026659 -0.27254128
000030 69 75 06 be f7 a9 6a 3d dc b6 2c 3e f1 5f c3 be
       -0.13130726 0.057290997 0.1686663 -0.38159135
