eval_runs/ml/ml_20250831_131715/model.pt (torch, 2825 bytes, 3 tensors)

net.0.weight f4 [16, 6]
0	0xbe3e8d42	-0.18608573
1	0xbcef47b8	-0.029209003
2	0x3e757f88	0.2397443
3	0x3d61c495	0.055119116
4	0xbe4d0883	-0.20022778
5	0xbdccd6e8	-0.100019276
6	0xbe99e176	-0.30054826
7	0xbe734be4	-0.23759419
8	0xbda159dd	-0.07878468
9	0xbeae29cf	-0.34016272
10	0x3e968e10	0.2940526
11	0x3d9ebc2b	0.07750734
12	0xbf22d6d0	-0.6360903
13	0x3d0d7fa9	0.034545574
14	0xbdd0fb26	-0.10204153
15	0x3e791e58	0.24327981
16	0xbe838b00	-0.25691986
17	0x3db231d1	0.08700908
18	0xbc63549c	-0.013875153
19	0xbd41d338	-0.047320575
20	0x3ddf262c	0.108959526
21	0xbe497831	-0.19674756
22	0x3dfd8cd4	0.123803765
23	0xbe4448a1	-0.1916833
24	0x3eb12d93	0.34605083
25	0x3e7906f7	0.24319063
26	0x3e2399d8	0.15976655
27	0x3d2516a8	0.04030481
28	0x3e34bf8d	0.17651196
29	0xbec92d24	-0.39292252
30	0xbf13d414	-0.5774548
31	0x3f0d4c5a	0.5519463
32	0x3eb48662	0.35258776
33	0x3ec1575a	0.37761956
34	0xbf15752f	-0.5838193
35	0xbd2a432b	-0.041567963
36	0xbe27a036	-0.1636971
37	0xbe91ce5f	-0.2847776
38	0xba6d186a	-0.00090444705
39	0x3e6442bb	0.2229108
40	0x3d3f22e3	0.04666413
41	0x3e06ae29	0.13152374
42	0xbe8d9015	-0.27648988
43	0xbeab6772	-0.3347736
44	0xbe593f38	-0.21215522
45	0xbeb548e2	-0.35407168
46	0xbe25a3fc	-0.16175836
47	0x3c849351	0.016183527
48	0xbf0e2cff	-0.5553741
49	0x3c60a8f1	0.013712154
50	0xbe543f30	-0.20727229
51	0x3d1df024	0.038559094
52	0xbe8bef71	-0.27331117
53	0x3e95dc03	0.29269418
54	0xbe31f4ce	-0.17378542
55	0x3f15e3b8	0.58550596
56	0x3ee1fe8f	0.44139525
57	0x3f2a6047	0.6655316
58	0xbac1293b	-0.0014737019
59	0xbec3433d	-0.38137236
60	0xbe8ef41d	-0.2792062
61	0xbeb5e0c8	-0.35523057
62	0xbe9a2f7b	-0.3011435
63	0x3ebc59b4	0.36787188
64	0xbd8c4395	-0.06848828
65	0xbd5a88d1	-0.053353135
66	0xbee0eb64	-0.4392959
67	0xbe408da6	-0.18804035
68	0xbe73ef11	-0.23821665
69	0xbebb0843	-0.3652974
70	0x3eb6517e	0.3560905
71	0xbe685d81	-0.22691919
72	0x3f139f1d	0.5766466
73	0xbe1aee20	-0.151299
74	0x3e627105	0.22113426
75	0x3dd6608c	0.104676336
76	0xbe0a7b6a	-0.13523641
77	0x3d67d6d3	0.056601357
78	0x3d0f00c4	0.03491284
79	0xbe8e4800	-0.27789307
80	0xbe9412b9	-0.28920534
81	0x3e90675e	0.28203863
82	0xbe8c7a3e	-0.27437013
83	0xbe94f12c	-0.2909025
84	0xbc04a9c6	-0.008097118
85	0x3e7af0ae	0.24505875
86	0x3c12d01d	0.008960751
87	0x3cb31776	0.021861773
88	0xbedf3930	-0.43598318
89	0x3eec08d5	0.46100488
90	0xbe6f9898	-0.23398054
91	0xbe9ca6f1	-0.30596116
92	0x3e614931	0.22000577
93	0xbe3bb78a	-0.18331733
94	0x3e9958d9	0.29950598
95	0x3cff972f	0.03120002

net.0.bias f4 [16]
0	0xbec02add	-0.37532702
1	0xbe8fcb3c	-0.28084743
2	0x3ee2277c	0.4417075
3	0xbc02aed5	-0.0079762535
4	0x3e5d3b7c	0.21604723
5	0xbe11d9fc	-0.1424331
6	0x3e6134cf	0.21992801
7	0xbe83badc	-0.257285
8	0x3ede862a	0.43461734
9	0x3e8c4050	0.27392817
10	0xbec53048	-0.38513398
11	0xbedcb02b	-0.43103155
12	0xbcb6c511	-0.022310765
13	0xbe4121c5	-0.18860538
14	0x3ee7f744	0.45305836
15	0x3e447c80	0.19188118

net.2.weight f4 [1, 16]
0	0x3e158e90	0.14605165
1	0x3d38c646	0.045110963
2	0xbeb9ac4a	-0.3626426
3	0xbe101ae1	-0.14072753
4	0xbe574d74	-0.2102564
5	0xbea8b16b	-0.3294786
6	0x3c5e5f67	0.01357255
7	0x3bccf580	0.006254852
8	0xbebc16c9	-0.36736134
9	0xbe7dc9f0	-0.24784064
10	0xbc0831e0	-0.008312672
11	0x3d5c2add	0.053751815
12	0x3df0a3c2	0.11749984
13	0x3d71d7de	0.059043758
14	0xbe96f283	-0.29481897
15	0x3d8271c6	0.06369357
