eval_runs/ml/ml_20250831_151720/model.pt (torch, 2825 bytes, 3 tensors)

net.0.weight f4 [16, 6]
-0.06377603 -0.1591342 0.3871875 0.29219696 -0.4249765 -0.022163004 0.13657196 -0.21607728
0.13770844 -0.05022512 0.20489469 0.02094019 0.15436503 -0.18727782 0.17091249 -0.1360385
-0.04195377 -0.27627456 -0.33223024 -0.2487073 -0.43874633 0.23760949 0.040285584 0.06359248
0.037696954 0.20855783 0.027978862 0.22272643 -0.30542803 0.007964998 -0.13823512 -0.43511432
0.15976493 -0.14202702 0.10233906 -0.12327592 -0.025504185 -0.17629696 -0.06942788 0.5956889
-0.56803817 0.3991182 0.21376912 0.37246752 -0.35693106 0.29626703 -0.35244006 -0.35460585
0.17063934 0.12918848 0.38689598 0.046583254 0.1951531 0.31452432 -0.28118733 -0.54139876
-0.1263283 -0.16578749 0.21573655 0.3930636 0.026637169 0.08117687 -0.37274063 0.04898145
0.36046353 -0.26540387 -0.5119193 0.39000827 0.14395677 -0.1293521 0.09843067 -0.15885185
-0.2813503 -0.47085267 0.2277663 0.15586354 0.06398534 -0.30488175 -0.11400819 -0.072338894
-0.28407463 0.2388697 0.16995402 -0.36027 -0.55644107 0.22812662 0.28395078 0.25978205
-0.51400214 0.21939598 0.08209151 -0.022672735 -0.086167 -0.2463894 -0.086892195 -0.013851398
00000000: 029d 82bd 13f4 22be 713d c63e d79a 953e
00000010: 8596 d9be 308f b5bc 85d9 0b3e 5d43 5dbe
00000020: 7103 0d3e dbb8 4dbd eacf 513e c38a ab3c
00000030: de11 1e3e c2c5 3fbe af03 2f3e ad4d 0bbe
00000040: b7d7 2bbd dc73 8dbe 151a aabe 20ad 7ebe
00000050: 5ca3 e0be e74f 733e 7f02 253d c63c 823d
00000060: 1f68 1a3d 2f90 553e ed33 e53c 6612 643e
00000070: 1061 9cbe 9f7f 023c 828d 0dbe 4ec7 debe
00000080: 6b99 233e 886f 11be 2497 d13d 1678 fcbd
00000090: 27ee d0bc 3187 34be 3430 8ebd 117f 183f
000000a0: f36a 11bf 3959 cc3e 4be6 5a3e 10b4 be3e
000000b0: abbf b6be 50b0 973e 0673 b4be e68e b5be
000000c0: 14bc 2e3e fc49 043e 3b17 c63e 15ce 3e3d
000000d0: 37d6 473e 5509 a13e c9f7 8fbe 1c99 0abf
000000e0: 355c 01be 32c4 29be 0bea 5c3e a23f c93e
000000f0: 3136 da3c 0f40 a63d dcd7 bebe c6a0 483d
00000100: ad8e b83e 04e3 87be 250d 03bf 2aaf c73e
00000110: 6769 133e e074 04be 0596 c93d 0faa 22be
00000120: 260d 90be 9a13 f1be 923b 693e b19a 1f3e
00000130: bf0a 833d 7619 9cbe 207d e9bd 6a26 94bd
00000140: 3b72 91be 429a 743e 6d08 2e3e 4f75 b8be
00000150: ec72 0ebf 069a 693e ff61 913e 2702 853e
00000160: a595 03bf 57a9 603e 981f a83d 2cbc b9bc
00000170: 5378 b0bd 814d 7cbe 89f4 b1bd f9f0 62bc

net.0.bias f4 [16]
0.4478462 -0.38657042 -0.31422505 -0.25123012 0.20609649 -0.013436429 0.17942345 -0.38334763
-0.3803937 0.045916207 -0.26056606 0.56383735 0.08219314 0.16873756 0.44554722 0.1707093
00000000: 194c e53e 8fec c5be 1be2 a0be 3ca1 80be
00000010: f50a 533e 7824 5cbc c8ba 373e 2446 c4be
00000020: f7c2 c2be a212 3c3d ea68 85be a557 103f
00000030: e154 a83d 8ac9 2c3e c41e e43e 6bce 2e3e

net.2.weight f4 [1, 16]
-0.40786958 0.020636776 0.009362817 0.24692234 -0.44255516 0.11175666 -0.3564353 -0.010954708
0.20927092 -0.19173078 0.032808974 -0.39788672 0.09259212 -0.016801061 -0.17403226 0.048757784
00000000: 48d4 d0be 750e a93c 8066 193c 36d9 7c3e
00000010: 9796 e2be ade0 e43d b07e b6be 607b 33bc
00000020: 1e4b 563e 1355 44be b462 063d cfb7 cbbe
00000030: f0a0 bd3d 61a2 89bc 8335 32be 3eb6 473d
