eval_runs/ml/ml_enhanced_20250901_120321/model.pt (torch, 25572 bytes, 19 tensors)

net.0.weight f4 [64, 26]
000000 35 af 0c be fd 3c cd 3c 93 9b 08 3e 23 e8 73 3c
       -0.13738711 0.025053496 0.13340597 0.014886889
000010 6e 6f 8b bd c8 99 02 be cd ed 1e 3c bc 0d 92 3c
       -0.06808363 -0.12753975 0.009700251 0.017828815
000020 9b f4 45 bd 8d 64 45 3e ec cb a9 3d 9d 0d 2a 3d
       -0.048328977 0.19276638 0.08290848 0.04151689
000030 67 46 e6 3d 99 a0 4b bb c8 6e 49 3e ab 59 40 3e
       0.11243897 -0.0031071065 0.19671166 0.18784206
000040 46 b6 d2 3d 9e 32 3d 3e 8b d6 90 bd a8 ca 8c 3d
       0.10288672 0.1847634 -0.07072171 0.06874591
000050 e7 61 13 3e 54 31 0d be 0e 18 ba 3d d6 48 fc 3d
       0.14392816 -0.13788348 0.09086619 0.1231858
000060 4e de 33 be 35 52 0a bc 4a e8 af 3d 42 67 03 3e
       -0.17565271 -0.008442451 0.085892275 0.12832358
000070 a4 b6 08 be 86 18 d2 3d 72 f3 c9 3d 22 d0 ad bd
       -0.13350922 0.10258584 0.09860887 -0.08486964
000080 f7 2f d0 bd 45 a8 3a bd 33 f8 46 be 95 14 98 bd
       -0.101653986 -0.04557063 -0.19430618 -0.07425801
000090 5a 31 1e 3e e5 20 e8 bd 5a d2 3d be ff 8b 03 3e
       0.15448514 -0.11334399 -0.18537274 0.12846373
0000a0 53 6b 2e 3c b9 07 eb 3d 72 8a 1e be 4e 87 5f bd
       0.010645705 0.11476082 -0.154825 -0.054572396
0000b0 4f 04 01 3d 22 fa 2a 3b b5 cc a2 bd 62 e1 02 3e
       0.03149825 0.0026089032 -0.07949201 0.12781289
0000c0 40 b3 c8 bd a2 dd 31 be aa 7a 4d bc 8a cf 21 3d
       -0.09799814 -0.17369702 -0.012541452 0.039504565
0000d0 f0 b7 0d 3e 90 71 26 3e 84 4b 80 bd 63 b1 a5 bd
       0.13839698 0.16254258 -0.062644035 -0.080904745
0000e0 22 d5 ff 3c 63 da 33 be 16 d6 03 be cc 9a 3a 3e
       0.03122956 -0.17563777 -0.12874636 0.18223113
0000f0 96 a1 54 3e da 50 05 be 22 4c 92 bd 9c a3 01 bd
       0.20764765 -0.13019124 -0.071434274 -0.03165017
000100 4e 74 8c bc 55 06 22 be 4e 6f c3 bd 5c 62 0f be
       -0.017145302 -0.15822728 -0.09542714 -0.14002365
000110 08 61 45 3e e8 dc db 3d 77 2a c7 3d 2b e6 b0 bd
       0.19275296 0.10735494 0.097248964 -0.08637651
000120 86 2b e1 bd 21 65 5a be e4 62 aa bd b8 e1 93 3d
       -0.109946296 -0.2132764 -0.08319643 0.07220787
000130 3e a6 53 3e 38 d3 e1 3d 74 8a 3b be bb d2 d9 3d
       0.20668885 0.11026615 -0.18314534 0.10635897
000140 b5 9b e9 3d 8d 5b d2 3c 43 4d 20 bc fb a4 c7 bd
       0.11406652 0.02567842 -0.009784046 -0.097482644
000150 48 1d a4 3d 9e f8 e1 3c 48 80 90 3d df 2e 3f 3e
       0.080133975 0.02758437 0.07055718 0.18670224
000160 8f b6 91 3d 17 d4 0a be ee b9 e1 3d c6 91 2a 3e
       0.071148984 -0.13557468 0.110217914 0.1665717
000170 08 e9 07 be b4 df 1a be fe 01 ca 3d 17 28 f1 3d
       -0.13272488 -0.15124398 0.09863661 0.11775225
000180 44 7d a2 bd af 70 6b bd cf 46 20 be ec 88 b1 3d
       -0.07934049 -0.05748051 -0.15652011 0.08668694
000190 84 ea 80 bc fe 6d d2 3d 0e 99 e0 3d 96 d5 29 bd
       -0.015736826 0.102748856 0.10966693 -0.041463457
0001a0 8b f0 03 be 5f 7d 8a bc a6 ab db 3d a2 ad 1a be
       -0.12884729 -0.016905485 0.10726099 -0.15105298
0001b0 07 62 20 be f2 f7 26 3e df 84 94 3d 0f ef 97 bd
       -0.15662394 0.16305521 0.07251906 -0.07418644
0001c0 79 74 14 3d f6 cd 16 be c4 dd 36 3d 2c 60 b1 3b
       0.03624389 -0.14727005 0.044645086 0.005413076
0001d0 7a 08 08 3e c3 95 35 3e 49 4f 45 be 73 57 5b 3c
       0.13284484 0.17732911 -0.19268526 0.013387549
0001e0 58 a1 5b bc 8c 87 a6 bd 2f f1 34 be 42 72 a9 bd
       -0.013405167 -0.08131322 -0.17670129 -0.08273746
0001f0 f3 1f 80 3c 43 9c 49 3e b7 2b d9 3d 80 73 aa bd
       0.015640235 0.19688515 0.10604041 -0.08322811
000200 de 86 2c be b7 59 d8 3d 2b 17 10 bd c1 7f 27 3e
       -0.16848323 0.10563987 -0.035178345 0.16357328
000210 61 40 3a be 89 07 4b 3d 96 84 b4 3c ed e1 88 3d
       -0.18188621 0.049567733 0.022035878 0.06683717
000220 a3 0a 72 3d 1a 26 89 3d a6 ad 0b 3b e9 88 a4 bd
       0.059092175 0.066967204 0.002131322 -0.08033926
000230 d9 3d 06 3e 0a c0 2b be 8b 30 a1 3d 76 e1 3c be
       0.1310953 -0.16772476 0.07870587 -0.18445382
000240 02 ca 3e be e1 99 02 3e 8f 04 5e bd ba 09 02 3c
       -0.18631747 0.12754013 -0.054203566 0.007936889
000250 9a d5 17 be 15 49 44 bb e3 70 f2 bd 71 5e 02 be
       -0.14827576 -0.0029950787 -0.11837938 -0.12731339
000260 24 e7 17 bd 85 10 0b be 0f e5 0f be be c6 14 be
       -0.037085667 -0.1358052 -0.14052223 -0.14528939
000270 11 c1 7f bd b7 f8 dd bd 51 ed 80 3d 44 23 1e 3e
       -0.06243998 -0.10838454 0.062952645 0.1544314
000280 d1 df 21 3e 98 cd d9 bd 25 37 66 bd 92 17 15 be
       0.15808035 -0.10634917 -0.056204934 -0.14559773
000290 c0 7b 13 3e 51 b9 14 bd 7a eb 0d 3e 37 0a 2b 3e
       0.14402676 -0.036309544 0.13859358 0.16703115
0002a0 7d 6a 47 3e 8e 79 82 3d 5c 3c 56 3e 67 89 f4 3d
       0.19474216 0.06370841 0.20921463 0.1194027
0002b0 db ae 1e 3e f9 15 21 be 5b 0b 50 3c 91 ab 0b bc
       0.1549639 -0.15731038 0.01269802 -0.008524791
0002c0 9e a0 17 3e 42 0c c3 bd 4a 8d e7 ba 4a cc 4a be
       0.14807364 -0.09523822 -0.0017666009 -0.19804493
0002d0 b8 02 c8 3d 0f 0d 01 3b b2 ab ea 3d f6 90 0b be
       0.097661436 0.0019691621 0.114585295 -0.13629517
0002e0 27 70 f8 3d cd df 1e 3d df 54 24 be 26 0a d1 bd
       0.12130766 0.03878765 -0.16048001 -0.10207014
0002f0 e6 53 5b 3e c3 a9 a5 bd 7e d6 11 3d 39 90 37 bd
       0.21418723 -0.0808902 0.035604946 -0.044815276
000300 92 2d d1 ba fa 4a 14 be af 2f 23 3e a6 43 e1 3d
       -0.0015959016 -0.14481726 0.15936159 0.10999231
000310 a1 b2 ae bd 42 fe 16 3e 64 ed 36 be bc 8c bb bd
       -0.085301645 0.14745429 -0.17863995 -0.09157702
000320 72 62 2d 3c 04 d8 30 be 2b 4b b7 bb de 7f 16 bd
       0.010582553 -0.17269903 -0.0055936775 -0.036743037
000330 1e b5 f5 bc b2 f4 9b bd f9 2c ae 3c e8 dd 94 bd
       -0.02999359 -0.07615031 0.021261679 -0.07268888
000340 3c 0e e1 bd ef c4 7d 3c 23 12 07 3d 7b 62 ac bd
       -0.10989043 0.015488847 0.03297628 -0.08417221
000350 df 78 1e bd f4 39 33 be 99 07 b8 bb 68 f7 26 be
       -0.03868949 -0.17502576 -0.00561614 -0.16305315
000360 78 d8 59 be 80 75 3a 3c 43 09 07 3e 26 4b 95 3d
       -0.21273983 0.011380553 0.13187127 0.07289724
000370 d0 81 96 3c 75 18 f5 3d 73 7d 23 bd ba 22 e6 bd
       0.018372446 0.119675554 -0.03991456 -0.11237092
000380 a2 90 27 be 76 fe 9c bd 2c bd 48 be 85 3d 26 3e
       -0.16363767 -0.07665722 -0.19603413 0.16234405
000390 e0 b6 0c 3e de 66 0b be 4f c9 9a 3d 87 b4 31 3e
       0.13741636 -0.1361346 0.07557928 0.17354022
0003a0 5b 1e 0b be 1e 64 29 3e f9 07 6a 3d 06 ca 4b be
       -0.13585798 0.16542098 0.05713651 -0.19901285
0003b0 ee 23 1e be 06 64 93 3d ed e6 5f 3d d5 2d 07 3e
       -0.15443394 0.07196812 0.054663587 0.13201077
0003c0 2c 5e 41 bd 59 db 7d 3d 3d 06 5e 3d 14 d7 65 3d
       -0.04720895 0.061976764 0.054205168 0.056113318
0003d0 1c 80 00 3c 8c cd f6 bd 4e c9 c6 bb b7 19 84 bc
       0.007843044 -0.12050924 -0.006066478 -0.016125543
0003e0 0c cd 2e 3e 46 8e 59 3d d8 0a 4b 3d 5b e7 53 3d
       0.17070407 0.0531142 0.04957089 0.05173431
0003f0 f2 04 21 3e 0f c2 13 be e0 de 47 3e 75 d9 f9 3d
       0.15724543 -0.14429496 0.19518614 0.1219968

net.0.bias f4 [64]
000000 22 50 35 3e db e5 23 be 5f 50 2a 3e c8 b4 40 3e
       0.1770635 -0.16005652 0.16632222 0.18818963
000010 63 4e 1f 3e 3e 3d df 3d 88 a0 de bc 71 19 d3 bd
       0.15557246 0.10900353 -0.027176157 -0.10307587
000020 94 c2 00 3e 1b db 7b 3c 1e 13 b5 3d cc b7 93 3a
       0.12574226 0.015372063 0.08841537 0.0011269986
000030 ac cd 2b 3e 29 76 58 3d 55 87 1c 3e 85 b0 6c bc
       0.16777676 0.05284706 0.15286 -0.014446382
000040 e7 56 07 bb c3 46 e3 bd 69 68 e4 bd 5a 2e 35 be
       -0.0020651163 -0.11097481 -0.11152727 -0.17693463
000050 8c e0 4c 3d 23 0d 33 bd ce 0d 05 3e 47 eb 31 be
       0.050018832 -0.0437137 0.12993547 -0.17374907
000060 e9 cd 30 bd 93 59 8b 3d ca 1b 54 bd 26 e6 f3 3d
       -0.04316512 0.06804194 -0.051784314 0.11909132
000070 1d 01 4c bb 77 e2 3a bd 66 7f e1 bb 42 57 fb bd
       -0.0031128593 -0.04562613 -0.006881642 -0.122725025
000080 7b 2a 42 3e c7 3c 0b 3e 86 d3 24 be c3 26 32 3e
       0.18961518 0.13597403 -0.16096315 0.17397599
000090 d2 47 12 3e 6c 55 12 be 81 ba 55 bc 51 02 bd 3d
       0.1428521 -0.14290398 -0.013044954 0.092289574
0000a0 2e df cb 3d 97 93 35 be 20 7d 48 be 0a fa 0a be
       0.099546775 -0.17732082 -0.19578981 -0.13571945
0000b0 b5 26 1f 3e 3e da 28 3e c6 b5 13 3e bc be 29 3e
       0.1554211 0.16489503 0.1442481 0.16576666
0000c0 99 ea d0 3d c0 fb e7 bd 7f 2d 59 3b 04 bd 22 bb
       0.10200996 -0.113273144 0.003313869 -0.00248319
0000d0 34 53 1f be 7f 86 cc bb b9 a5 38 be 38 98 2d 3e
       -0.15559083 -0.006241619 -0.18031968 0.16952598
0000e0 71 33 41 3e 16 d1 98 bd 07 e7 39 be a1 e2 ae 3c
       0.1886728 -0.07461755 -0.18154536 0.0213483
0000f0 92 52 ff 3a 7a 99 fc 3b 14 09 53 bd 78 d6 12 3d
       0.0019479564 0.0077087255 -0.05152233 0.035849065

net.1.weight f4 [64]
000000 60 8d 7b 3f fc ac 82 3f 77 eb 79 3f e5 57 7c 3f
       0.98262596 1.0209041 0.97624916 0.98571616
000010 78 25 7b 3f 89 3e 7e 3f 56 ca 79 3f 86 48 82 3f
       0.9810405 0.9931417 0.97574365 1.0178382
000020 c4 9c 81 3f fc 8b 7f 3f 50 54 7d 3f e3 ec 83 3f
       1.0125966 0.99822974 0.98956776 1.0306667
000030 68 f2 81 3f b6 41 82 3f b6 23 7d 3f 7c 69 7d 3f
       1.0152102 1.0176303 0.98882616 0.9898908
000040 f2 6d 79 3f 16 e0 7a 3f 1d 22 83 3f 67 de 78 3f
       0.9743339 0.9799818 1.0244786 0.9721436
000050 c5 45 80 3f 64 96 7e 3f b8 e7 7c 3f 08 19 82 3f
       1.0021292 0.9944823 0.98791075 1.0163889
000060 27 e6 80 3f c8 f4 80 3f 51 f7 79 3f 70 9e 80 3f
       1.0070237 1.0074701 0.97643 1.0048351
000070 f3 7a 80 3f 09 77 80 3f 46 22 80 3f 8a 04 80 3f
       1.0037521 1.0036327 1.001046 1.0001385
000080 37 42 7c 3f bc 14 81 3f 2c 48 7c 3f 4f 61 80 3f
       0.98538536 1.0084453 0.98547626 1.0029696
000090 d2 d2 81 3f ed af 7d 3f e5 90 81 3f 77 e4 7a 3f
       1.0142462 0.99096566 1.0122343 0.9800486
0000a0 24 e7 82 3f 74 fb 81 3f 4e f8 80 3f b3 33 82 3f
       1.0226789 1.0154862 1.0075777 1.0172027
0000b0 72 20 7e 3f 7d 8d 7b 3f ea 68 7e 3f 05 1b 82 3f
       0.9926826 0.9826277 0.99378836 1.0164496
0000c0 64 6d 83 3f e8 c4 7a 3f d5 a8 82 3f 96 4b 82 3f
       1.0267758 0.97956705 1.0207773 1.0179317
0000d0 72 a5 7a 3f 1d 55 83 3f e5 a6 7b 3f 90 75 7d 3f
       0.979087 1.026035 0.98301536 0.9900751
0000e0 46 37 7d 3f 02 6e 80 3f 70 8c 7c 3f f0 3c 82 3f
       0.98912466 1.0033572 0.9865179 1.0174847
0000f0 d1 29 7a 3f 51 d6 7f 3f 07 7f 79 3f aa 0c 81 3f
       0.97720057 0.99936396 0.97459453 1.008199

net.1.bias f4 [64]
000000 4b dd b9 3b ef 01 ae 3c bd 5b ae bc b5 81 b9 bc
       0.005672132 0.021241156 -0.021283979 -0.022644857
000010 fb ae f6 bc 88 b6 f1 3c 2d d7 9d bc db 34 85 3b
       -0.030112734 0.029505983 -0.019267643 0.0040651388
000020 ba f2 30 bc 7d 6e 0f 3c 37 3d cd bc 12 0e e6 3c
       -0.010800058 0.00875437 -0.025053604 0.028082881
000030 5b 09 e5 3c 19 ee 8b 3a 6a fe d9 bc 74 77 16 bc
       0.027958563 0.0010675817 -0.026610572 -0.009183753
000040 52 6a 1d 3c 40 c2 b9 bb d2 4b 2f bb 16 a1 bb 3c
       0.009607868 -0.0056689084 -0.0026748073 0.02290396
000050 ef c5 bf bc 8c cc 25 3b 30 21 92 3c 0d 6d be bc
       -0.023409812 0.0025298921 0.01783809 -0.023245359
000060 1a c3 1f 3c 83 6f 09 3c bf 64 c4 bc ea 0e fd 3c
       0.009751106 0.008388403 -0.02397382 0.0308909
000070 29 30 9b 3c 49 54 86 bc 15 4a ae bc 55 db ad bb
       0.018943863 -0.016397612 -0.02127556 -0.0053056874
000080 31 57 12 bb 4c 77 75 39 ee 1f f6 bc 96 00 af bc
       -0.0022329802 0.00023409462 -0.030044522 -0.021362584
000090 fa fa 81 bb 6f 84 8d bc 49 5d 24 3c 60 7f a7 bc
       -0.0039666863 -0.017275063 0.010032007 -0.02044648
0000a0 4d fa ba bc 5d 03 90 3c 60 28 ed 3c 9d 55 13 bc
       -0.02282443 0.017579729 0.028949916 -0.00899258
0000b0 c9 41 4c bc b9 d7 a7 bc 7e 66 af bc 2b eb 97 bc
       -0.012466856 -0.020488607 -0.021411177 -0.018544754
0000c0 6a 36 e4 bc 9b 9b c6 bc 43 e9 e6 3c c2 83 ee 3c
       -0.027857978 -0.02424412 0.0281874 0.029115561
0000d0 93 43 b3 bc ff 72 a2 3c 5e 10 ac bc bb 99 34 ba
       -0.021882808 0.019830225 -0.021003898 -0.00068893627
0000e0 c9 35 c5 bb 63 63 0b 3c 39 91 6b bc 79 52 44 bc
       -0.0060183746 0.008507582 -0.0143778855 -0.011982554
0000f0 34 26 cb bc f3 08 c6 bc f2 a6 f3 bc c1 7c 8a 3c
       -0.02479849 -0.02417419 -0.029742692 0.01690519

net.1.running_mean f4 [64]
000000 9e 68 42 3f e8 db b2 c0 27 40 be c0 0b c0 8d 40
       0.75940883 -5.589344 -5.945331 4.4296927
000010 5d 6d 79 40 47 56 4f 40 d4 fa 56 c0 8f 7a 28 41
       3.8973 3.239641 -3.3590593 10.529922
000020 13 19 80 be da 68 09 c0 73 a3 c8 be 76 2a 27 41
       -0.2501913 -2.1470246 -0.39187202 10.447866
000030 23 30 5a c0 1c 98 10 c1 40 04 d1 c0 34 9d 18 c1
       -3.409188 -9.037136 -6.531769 -9.53838
000040 22 99 d6 c0 b0 49 49 40 6e 2d 3c 40 9b 24 39 40
       -6.706193 3.1451225 2.9402728 2.8928592
000050 f5 73 d3 40 af 98 b8 c0 56 16 04 c1 87 2b 70 40
       6.607905 -5.768638 -8.255453 3.7526567
000060 4e 84 e9 c0 14 75 a5 40 9f 54 09 41 c8 55 1e 41
       -7.2974005 5.170542 8.583159 9.895943
000070 e9 66 18 c1 dc 0d 51 c0 73 cd 1b 40 93 93 28 c0
       -9.525125 -3.266471 2.4344146 -2.6340072
000080 4b 90 2a 40 2e 5b 23 c0 fa 13 2f 41 25 34 d3 40
       2.665057 -2.5524402 10.942377 6.6001153
000090 d5 d4 bd 40 8b 57 ea c0 e2 e4 0a c1 a1 07 40 40
       5.9322305 -7.3231864 -8.68088 3.0004656
0000a0 5b 02 b0 40 5e c6 e5 c0 e4 fb 8a c0 56 97 3b c0
       5.5002875 -7.1804647 -4.3432484 -2.9311118
0000b0 a4 2d 10 c1 21 c1 b9 40 a8 4d c1 3f bc 85 06 40
       -9.011143 5.8048253 1.5101824 2.1019125
0000c0 e4 d1 7e bf 8a 44 13 c1 40 f3 24 c0 d0 99 f3 c0
       -0.9953902 -9.204233 -2.5773468 -7.612526
0000d0 85 8e 06 c1 34 58 e3 40 7e f2 33 c0 d1 38 dc c0
       -8.409795 7.104517 -2.8116755 -6.8819356
0000e0 94 f0 2c bd 34 ec 4c c0 b5 c4 81 c0 4c 77 0f 41
       -0.04222162 -3.2019167 -4.055262 8.966625
0000f0 0d 1d 61 40 5b 46 48 40 58 bc 80 c0 fb 8c 11 41
       3.517398 3.1292942 -4.022991 9.096919

net.1.running_var f4 [64]
000000 eb e8 f8 40 5d 2a 4d 42 9d 2c 7b 42 be 67 23 42
       7.7784324 51.29137 62.793568 40.85131
000010 a6 85 4d 41 ee 1d 17 41 34 89 0d 42 87 14 54 42
       12.845129 9.444807 35.383987 53.020046
000020 8c 12 53 42 9e d2 06 41 01 45 c7 41 40 eb da 41
       52.768112 8.42642 24.908693 27.364868
000030 d9 e5 bb 40 17 78 0f 42 20 45 9f 42 90 8d a6 42
       5.8718076 35.867275 79.63501 83.27649
000040 09 ca 71 41 0f 3a 52 42 c3 cd 80 42 c8 1c d3 41
       15.111825 52.556698 64.40188 26.389053
000050 7b 14 39 42 2c 96 86 42 c3 b4 ef 41 7c 2c 16 42
       46.27 67.293304 29.963263 37.54344
000060 00 90 08 42 10 4a 67 42 08 5c 69 41 92 c7 94 41
       34.140625 57.822327 14.584969 18.597446
000070 39 5e 7e 42 d5 8e 07 42 78 2b 79 41 de 3f 82 41
       63.592014 33.889484 15.5731125 16.281185
000080 fa 0d d1 41 d9 2d 3b 42 04 39 f0 42 bf 0c 4f 41
       26.131824 46.794773 120.11136 12.940612
000090 c1 93 57 42 b8 a8 52 42 59 69 82 42 7e a7 80 41
       53.89429 52.664764 65.20576 16.081783
0000a0 ad 52 9c 42 42 80 34 42 5e b8 27 41 2d d0 2c 42
       78.161476 45.12525 10.4825115 43.203297
0000b0 86 34 88 42 5e 2a 7c 41 de 8f 40 42 b0 eb e9 3f
       68.102585 15.760344 48.140495 1.8275051
0000c0 36 12 eb 41 4c e5 0f 43 e9 59 4b 42 2b b0 11 42
       29.383892 143.89569 50.837803 36.42204
0000d0 d1 bd 62 41 0a 8a 2a 42 af 1c 32 42 63 b6 5b 41
       14.171342 42.634804 44.52801 13.732028
0000e0 39 b4 19 42 af c0 18 42 d0 11 6e 41 d4 2d d2 41
       38.426 38.188168 14.879349 26.272377
0000f0 f9 0b 9a 41 bf 4d d2 41 bd 97 fb 41 69 8c 25 42
       19.255846 26.287962 31.449091 41.38712

net.4.weight f4 [32, 64]
000000 f6 f0 ac bd 98 dc 29 3d 28 df 04 bd 7b 49 d5 bb
       -0.08444397 0.04147014 -0.03243938 -0.0065090037
000010 ba 10 ad 3d ad 82 fb bc 36 c6 bd bd e5 5d 64 bd
       0.08450456 -0.03070196 -0.09266321 -0.055753607
000020 08 5f b5 3d e0 0f a2 3d a7 1c 34 bd 8b 9f 98 bd
       0.088560164 0.07913184 -0.043972638 -0.074523054
000030 b2 8b 15 3d c0 0a fc 3d 98 eb 0f bd 7e e0 a5 3d
       0.036510177 0.12306738 -0.03513679 0.08099459
000040 ee 92 d5 3d 96 dc 0f 3d d6 1a 52 3d c2 9e e6 bc
       0.10428415 0.035122477 0.051295124 -0.028151873
000050 ca d0 04 3d e4 8d 8a 3d f0 f6 78 3d b1 b1 40 3d
       0.03242568 0.06765345 0.060782373 0.04704446
000060 18 3c 30 bd 56 9d d9 3d 20 9c c8 3d 83 73 f5 bd
       -0.04302606 0.106257126 0.097954035 -0.11984923
000070 b6 e2 60 3d 31 8a a0 bd 36 c3 a0 bd 19 2d f1 3d
       0.05490371 -0.07838858 -0.078497335 0.1177618
000080 b9 a5 57 3b 88 5f 26 bd e7 0c 87 bd b0 15 9e bd
       0.0032905175 -0.04061845 -0.06594258 -0.0771898
000090 64 d1 84 3d 9b 13 a7 3d 66 94 35 bc 8a e0 a3 bd
       0.064852506 0.08158036 -0.011082744 -0.08001812
0000a0 04 6b 8d 3d b7 07 24 3d cf ad 0f bd 98 92 5d bd
       0.06905177 0.04004642 -0.035077866 -0.05409488
0000b0 3a 33 47 3d f6 96 42 3c 0c b0 d8 bd 5e 44 cd bd
       0.048632838 0.011876812 -0.10580453 -0.10022806
0000c0 c6 74 28 3d 13 aa f3 bc 51 6a 29 3d 2e ad 0a 3e
       0.04112699 -0.029744184 0.041361157 0.13542625
0000d0 6c cf b8 3c 8a 5d d8 bd e7 79 6b bd a1 01 9f bd
       0.022559844 -0.10564716 -0.057489302 -0.077639826
0000e0 0b 8e 26 3c c3 11 b0 3d 61 e0 7a 3d 6f 3d 36 bc
       0.010165702 0.08597138 0.06124914 -0.011123045
0000f0 64 6a b3 3c 5d ad bf bd b3 ff ba 3c 03 f8 90 bd
       0.021901317 -0.09359238 0.022827005 -0.070785545
000100 32 51 8c 3c 35 ab 12 3d 36 ca 7f bb f8 c6 be bd
       0.01712856 0.035807807 -0.003903044 -0.09315294
000110 21 04 30 bd c7 73 5c 3c 06 87 9c bd d3 6d a4 bd
       -0.042972688 0.013455338 -0.07642941 -0.0802876
000120 b4 12 ce bd 90 39 9c 3c 0f e4 39 bb 3d 4d a5 bc
       -0.10062161 0.019070417 -0.0028364693 -0.020178432
000130 c8 66 34 3d c4 31 d8 bd 39 43 87 bd 0c 26 77 bd
       0.044043332 -0.10556367 -0.066046186 -0.06033902
000140 2e 85 63 bc df 5e b6 ba 55 6f 10 be f4 e2 89 bd
       -0.013886733 -0.0013913772 -0.1410497 -0.06732741
000150 ac bc 11 bc 19 b5 20 3d de 16 97 3c 14 25 a0 bd
       -0.008895081 0.03923521 0.018443521 -0.07819572
000160 a0 bd 3b 3c 30 60 74 bd 7e 74 c7 3c 5c 94 08 be
       0.011458784 -0.059662044 0.02434754 -0.13337845
000170 f6 71 82 3d 43 68 9c bd 62 9b d5 b9 a6 8a 04 be
       0.063693926 -0.07637074 -0.00040742295 -0.12943515
000180 89 a1 21 bd 63 ba 32 3d 59 ee b3 3d 8f 5a dd bd
       -0.039460693 0.043634783 0.087856956 -0.10808288
000190 06 cf cb 3d df 6a 16 bd 6a af b3 3d 16 39 11 bd
       0.09951596 -0.036723014 0.08773692 -0.035454832
0001a0 87 81 02 bc 03 62 64 bc 52 7d 4a 3d b1 02 e5 bc
       -0.007965452 -0.013939383 0.04943592 -0.027955385
0001b0 a0 11 73 bd da 88 4f bc ce 7a 69 bc f5 a1 a0 bd
       -0.05934298 -0.012666905 -0.01425047 -0.07843391
0001c0 0f f9 64 bd 69 44 d3 bd 42 bb a9 3d 2c 54 a4 bc
       -0.055901583 -0.103157826 0.0828767 -0.020059668
0001d0 f8 39 f7 bd d2 84 a0 bd 82 5a 09 be 6e 49 8f bd
       -0.120716035 -0.078378335 -0.13413432 -0.069964275
0001e0 f5 30 76 3d 2b 4a a7 bd d1 4b fc bd ce de ff bd
       0.060105283 -0.08168443 -0.12319148 -0.124936685
0001f0 39 d9 03 bd 84 e7 e3 3d b0 f5 01 3e ab ca af 3c
       -0.03218958 0.111281425 0.12691379 0.021458944
000200 ce 1a a2 bd b1 6f 0c 3e 50 2f 94 3d 13 ed ec bc
       -0.07915269 0.13714482 0.07235587 -0.02892164
000210 b3 dd ec bd f1 e4 54 bc 9f 3c 17 3d bb 2f a2 3c
       -0.11565723 -0.012994037 0.036923047 0.01979815
000220 85 1e 35 bd 78 83 82 bd da 00 9d bc 4c 39 df bb
       -0.04421856 -0.06372732 -0.019165445 -0.0068122502
000230 7c 21 57 3d df 43 c8 3d 42 e6 6b 3d b9 e2 e3 3d
       0.052522168 0.097785704 0.057592638 0.11127228
000240 20 92 af 3d f9 a0 0e bd 09 cc a5 3c e1 ba cb bd
       0.08572793 -0.034821484 0.020238893 -0.09947754
000250 53 db cb 3d 84 7d eb 3d 94 eb bd 3d 4d b9 37 3d
       0.09953942 0.114985496 0.092734486 0.04485445
000260 66 08 8b 3d e3 d2 58 bc 04 6e 37 bc 86 e6 ab bd
       0.06788711 -0.013233873 -0.011195663 -0.08393578
000270 65 f0 30 3d a6 7c 47 3d fa 06 b6 3a 64 d0 25 3d
       0.043198008 0.04870286 0.0013887577 0.04048194
000280 33 7b ac bb 1a e2 89 bc 5e 33 ce bc 05 49 7f bd
       -0.00526371 -0.016831446 -0.025170978 -0.062325496
000290 6d 11 5b bc e0 14 cd 3d 3d e9 8a 3d 9c 60 06 be
       -0.013370854 0.10013747 0.06782768 -0.13122791
0002a0 c0 24 b9 bd 7f c7 75 3d d1 cc 06 bd 3e 0a 90 3d
       -0.09040213 0.060004707 -0.032910172 0.070332035
0002b0 77 db b6 3d 27 bb a3 3d a7 9d eb bd 03 02 98 bc
       0.08928578 0.07994681 -0.11504679 -0.018555647
0002c0 8c 6d ce bd 9e d9 3d 3d 8b 3a 04 be 6c d5 09 be
       -0.10079488 0.046350114 -0.12912957 -0.1346032
0002d0 62 3c a0 3d 4d 47 fc bd cd a4 ac 3d 0c 96 99 bd
       0.07824017 -0.12318287 0.08429871 -0.07499322
0002e0 31 c4 4e 3d 87 fa 56 3b a1 6e 19 3d 85 d7 60 bd
       0.05048007 0.0032803135 0.03745902 -0.054893035
0002f0 26 19 3d 3d 35 2e 40 bd f1 8f d3 bb 8c 2a 60 3d
       0.04616656 -0.046919066 -0.006456368 0.054728076
000300 9b dd c8 bc 9d 87 81 bc 38 c5 95 3c 5e c6 a1 bb
       -0.024519732 -0.015811736 0.018282518 -0.0049369773
000310 97 43 68 3d 8b 54 fd 3c c5 03 31 3d 35 de 74 3d
       0.056705084 0.030924102 0.043216486 0.059782226
000320 c5 f8 a4 3d 23 74 b7 3d 1d ea 8e 3b a0 65 ed bd
       0.080552615 0.08957698 0.0043614046 -0.11591649
000330 04 4b 46 3d 2f 0a bb bd 2e f3 07 bd 4f 95 3b 3d
       0.048411384 -0.09132802 -0.0331909 0.04579669
000340 fe 21 30 3d b0 3f 24 3d cb 73 ca 3c c1 51 7c bc
       0.043001167 0.0400998 0.024713418 -0.015400351
000350 df c2 d6 bd 37 99 35 3d 80 17 54 3b 5b bd 71 3d
       -0.104863875 0.04433557 0.003236264 0.059018474
000360 fd 4b 84 bd e7 20 92 bd fe af c3 bd 52 11 a5 bd
       -0.06459806 -0.07135182 -0.09555052 -0.08059944
000370 5d 06 85 3d 0a e7 72 3c ec 0b 03 bb f1 00 45 bd
       0.06495354 0.014825592 -0.001999612 -0.0480966
000380 08 ec 0a 3d 6a ed 9c 3d 7f 43 9b 3b b2 05 88 bd
       0.033916503 0.07662471 0.004738271 -0.06641711
000390 1f ff bc bd 3f fe f0 3d d2 64 43 bd 9c 2c 94 3d
       -0.09228348 0.117672436 -0.04770357 0.07235071
0003a0 04 d6 59 3d 73 16 79 bc e5 a3 de 3c 17 93 2b 3d
       0.053182617 -0.015203106 0.02717776 0.041888323
0003b0 90 77 75 bd db 38 c1 bd de ec df bd 78 cc 29 3d
       -0.059928477 -0.094346724 -0.10933851 0.041454762
0003c0 ac 6e e8 bd be d5 db bc 8f 8a 74 bc 3f 53 cb bd
       -0.11349234 -0.026835319 -0.014925613 -0.09927987
0003d0 5f f0 cf bd a0 8c 04 be d2 8c c0 3d 91 1a 68 3d
       -0.10153269 -0.12944269 0.09401859 0.05666596
0003e0 23 dc 9b bd dc 9e 18 bd db 00 ff 3d 7a fb e3 3a
       -0.07610347 -0.037260875 0.12451335 0.0017393671
0003f0 47 f2 ac 3d 57 9d a6 3d 98 d4 c9 bd 70 84 87 bd
       0.08444648 0.08135479 -0.09855002 -0.06617057

net.4.bias f4 [32]
000000 10 89 30 bd a1 e2 2f 3d e3 d1 bc bc 11 16 f1 bc
       -0.043099463 0.04294074 -0.0230493 -0.029429467
000010 ac 78 23 bd 7c 2e d9 bc a0 c7 e7 bd 0f 7a 9e 3d
       -0.039910004 -0.026511423 -0.11317372 0.077381246
000020 f4 64 17 bc 3a d2 2c 3d 37 87 df bb 71 2e 28 bd
       -0.009240378 0.042192675 -0.006821539 -0.041059915
000030 91 2f d9 3d 35 28 df 3d 34 98 cc 3d 54 55 a0 bd
       0.10604776 0.10896341 0.09989968 -0.07828775
000040 fa 7e c4 3d 3a 39 74 bd 47 e4 b3 3d fd 0e 88 3d
       0.09594531 -0.059624888 0.08783775 0.06643484
000050 9b 7d cb bb 51 da 87 3b 42 84 36 bd e2 8d b3 bc
       -0.0062100417 0.0041458984 -0.044559725 -0.021918241
000060 7e e6 87 bd d9 90 87 bc f9 c9 cb bc 38 c3 41 bd
       -0.0663576 -0.016548561 -0.024876582 -0.047305316
000070 8d 69 19 3d d1 48 db bd 29 e1 b5 3d 5b 68 de 3d
       0.037454177 -0.10707248 0.088808365 0.10859748

net.5.weight f4 [32]
000000 79 09 80 3f 8f 8a 78 3f 85 f5 7b 3f f6 6b 80 3f
       1.0002891 0.97086424 0.9842151 1.0032947
000010 b1 bc 83 3f b5 db 79 3f 37 49 79 3f 0b 00 79 3f
       1.0291959 0.9760087 0.9737734 0.9726569
000020 16 fc 7b 3f 82 d1 82 3f 2c d2 84 3f 2b 4f 7a 3f
       0.9843153 1.0220187 1.0376639 0.9777705
000030 53 68 82 3f 92 9c 7a 3f 83 99 80 3f f8 68 79 3f
       1.0188087 0.9789516 1.0046848 0.97425795
000040 7b 0d 7a 3f a8 32 7d 3f 86 b7 7c 3f a4 c6 79 3f
       0.9767682 0.9890542 0.98717535 0.97568727
000050 e4 f9 82 3f 90 92 82 3f 93 11 84 3f 22 00 85 3f
       1.023251 1.0200977 1.0317863 1.0390666
000060 75 48 7a 3f 5f de 7b 3f 8d 27 84 3f be 34 79 3f
       0.9776681 0.98386186 1.032457 0.97346103
000070 90 16 84 3f 21 0b 83 3f 8a 3b 7a 3f 51 4a 78 3f
       1.0319386 1.0237771 0.977471 0.969884

net.5.bias f4 [32]
000000 21 40 e2 3c 70 06 cd bc 60 8e a0 bc 07 7f 12 3d
       0.02761847 -0.025027484 -0.01959914 0.035765674
000010 d4 4a c0 3c d7 06 04 bd cb a0 b4 bc f9 be 9d bc
       0.02347318 -0.032233085 -0.022049328 -0.019256102
000020 82 23 e2 3c e1 93 b7 3c 93 0d 0c 3d b4 38 17 bd
       0.027604822 0.022409381 0.034192633 -0.03691931
000030 4b 27 e2 3c b2 3f 61 bc 82 47 d9 bc a3 27 09 bd
       0.027606627 -0.013748096 -0.026523355 -0.033485066
000040 67 e8 9c bc 7c 52 81 3c ec 7a 1b 3b 80 3a 84 bc
       -0.019153787 0.015786402 0.002372439 -0.016141176
000050 9e dd c2 bb c0 a5 18 3d bb 51 be bc e5 ec 0f 3d
       -0.005946829 0.037267447 -0.023232331 0.03513803
000060 93 6d 0a bc 88 ec c7 bc 58 35 1d bc 17 ea 0e bd
       -0.008448976 -0.02440478 -0.009595238 -0.034891214
000070 8b 6b 91 3c b7 ca a4 bc 26 6a bd bc 32 43 0a bd
       0.017751476 -0.020116193 -0.023121905 -0.03375549

net.5.running_mean f4 [32]
000000 08 cc c8 3c a1 ac d2 be 50 9f 00 3e 95 c7 18 be
       0.024511352 -0.4114733 0.12560773 -0.14919885
000010 0c 71 54 be 27 ad 27 3e 9f 06 89 be 67 04 cf bc
       -0.20746249 0.16374646 -0.26762864 -0.025270654
000020 fd 0f f5 be 15 53 10 be d5 66 66 be 74 80 5d 3e
       -0.4786376 -0.14094193 -0.22500165 0.21631032
000030 72 ff 2b be 67 6a 79 3e 71 12 67 3e 19 6f e2 bd
       -0.16796663 0.24356996 0.22565629 -0.110563464
000040 4f 7f 09 3e 21 54 0b be 84 61 72 3e 9e 01 aa bd
       0.1342747 -0.13606311 0.23670012 -0.0830109
000050 e6 b0 3a 3e 3a 42 39 3d 73 fd 1e 3d cf 61 0b bf
       0.18231544 0.045229174 0.038815927 -0.5444612
000060 f7 a0 aa bd df d1 31 3e b4 29 38 3d f2 5d 45 be
       -0.08331483 0.17365216 0.044961646 -0.19274119
000070 a4 18 aa bd 3f 09 4f be 6b 03 35 be ab cb 17 be
       -0.08305481 -0.20218371 -0.17677085 -0.14823787

net.5.running_var f4 [32]
000000 df ab 96 3e a1 b8 a1 3e ea 3e c6 3e a2 0c 2e 3e
       0.29428002 0.31586173 0.38719875 0.16997007
000010 4c ee d6 3e 92 0d 29 3e de 5f b6 3e 85 32 de 3d
       0.4197868 0.16509083 0.35620016 0.108494796
000020 cd 46 68 3f 3a 2a a2 3e e3 8f b8 3e 9a 5a 81 3f
       0.90733033 0.3167284 0.36047277 1.0105774
000030 de 3f 30 3e 98 f7 c4 3e cb 4b c1 3e 76 76 a8 3d
       0.17211863 0.3847015 0.37753138 0.0822572
000040 52 2c 6f 3e 23 11 82 3e c4 6e 1a 3e 23 84 9d 3e
       0.2335675 0.254037 0.15081316 0.30764875
000050 52 58 f8 3e 04 00 75 3e 28 2e 57 3f f4 9c 76 3e
       0.48504883 0.23925787 0.84054804 0.2408331
000060 73 03 91 3e 6b e8 0d 3e 68 7e 4c 3f ff 47 d0 3e
       0.28322944 0.13858192 0.7988038 0.4067993
000070 ed 07 88 3e 1f 7a b7 3e 82 dd 04 3f 26 36 a5 3e
       0.26568547 0.35835359 0.51900494 0.32267874

net.8.weight f4 [16, 32]
000000 96 3f 4a be fa 34 d2 bd 1f 52 c2 3d e6 3d 35 3c
       -0.19750819 -0.10264011 0.094883196 0.011062121
000010 ee 23 eb 3d 65 64 31 be cd e0 0d be fe ad 61 3c
       0.114814624 -0.17323454 -0.13855286 0.013774393
000020 7e e5 6b bd 4a 67 c3 ba 65 d8 a7 3d 91 1d b6 3c
       -0.057591908 -0.0014908102 0.08195571 0.022230895
000030 4a b9 c4 bd 72 60 00 3e ff af 0b bd cf 57 c9 bc
       -0.096056536 0.12536791 -0.03410339 -0.024578003
000040 b6 3a a2 3d 64 ef 03 3d 25 93 e0 bd de a6 3a be
       0.079213545 0.032210723 -0.109655656 -0.18227717
000050 28 27 e2 bd 0d db d5 3b 6b c9 97 bd dc 77 ad bd
       -0.11042625 0.006526357 -0.07411464 -0.08470127
000060 96 7d f8 3d 01 bf d3 bd 5b 36 29 be e4 a6 20 3a
       0.121333286 -0.103391655 -0.16524641 0.0006128384
000070 8a da c4 3d ca 7f 0a be 54 c2 4f 3d d2 1b 10 3e
       0.096119955 -0.1352531 0.050722435 0.14073113
000080 8d ff cb 3d b2 7e d7 3d a3 90 cb bd f8 05 bf bd
       0.09960852 0.10522212 -0.09939697 -0.0932731
000090 2a d3 57 be 76 ae 04 3e 6b 8c c2 bd 70 6f 13 be
       -0.21076646 0.12957177 -0.09499439 -0.14397979
0000a0 38 ae d9 3b 35 e1 2a 3e 16 f8 72 3d 3e dc 09 3e
       0.006643083 0.16687472 0.059318624 0.13462922
0000b0 e3 fb 35 3c d2 a8 04 3e 38 fc 37 be ce 1d b9 bc
       0.011107418 0.12955025 -0.17967308 -0.02259722
0000c0 d1 60 04 3e d1 1e b8 bd a0 41 9a bd da 6d 01 3e
       0.12927558 -0.08990253 -0.07532048 0.12639561
0000d0 0f 42 f2 bd ec 67 00 3c 29 72 a6 bd 62 1c 93 3d
       -0.11829006 0.007837277 -0.08127243 0.07183148
0000e0 78 5d 86 bd 0f 6a db 3d 40 6c 4a 3b 50 bd e5 3c
       -0.065607965 0.107135884 0.0030887276 0.028044373
0000f0 d9 30 83 3c c0 c6 31 be 33 ce 10 3e 41 8c 0c be
       0.016014503 -0.17360973 0.14141159 -0.13725378
000100 a2 56 c6 bd d9 70 99 3d 39 b3 91 bd 8e 15 35 3d
       -0.09684493 0.07492227 -0.07114262 0.04421001
000110 aa 90 11 bd f9 e5 60 bd 01 a9 f3 bc b7 d9 58 bd
       -0.035538353 -0.05490682 -0.029743673 -0.052942004
000120 54 8a 22 3e 41 ed f4 3d 06 d2 08 be 6b 84 a6 3d
       0.1587308 0.11959315 -0.13361368 0.081307255
000130 3b d5 df bd a8 e1 fc 3b dd 29 ed bc ba 75 b0 3d
       -0.10929342 0.00771733 -0.028950626 0.086162046
000140 3b 84 e1 3d 80 0b cf 3d 2f d5 ba bd d3 80 aa 3c
       0.11011549 0.10109615 -0.09122693 0.020813381
000150 6f d3 cb bd e4 e9 31 3e d7 1f 30 3d b7 e9 82 bd
       -0.09952437 0.17374378 0.042999115 -0.06392234
000160 4e 6b 07 bd d4 91 0f 3e 73 3f ce 3c d8 a8 f0 3d
       -0.033061318 0.14020473 0.02517674 0.117509544
000170 6c 2b 17 be 42 47 5b 3c 71 40 47 3e df d8 2e 3e
       -0.14762658 0.013383688 0.19458176 0.17074917
000180 ce 9f 11 3e ed 9f ca bd 94 c7 47 3d 1e 82 02 3d
       0.14221117 -0.09893785 0.048774317 0.03186237
000190 95 ab 19 be e9 03 30 be dd b9 f6 bd 98 65 2c be
       -0.1500686 -0.17188992 -0.12047169 -0.1683563
0001a0 73 59 01 be 1e d5 e5 3d 07 66 9d 3c a0 12 c3 bd
       -0.12631778 0.112222895 0.01921369 -0.09525037
0001b0 4a 51 3e 3d 05 c6 cc 3d ee 6e 66 bd 7e 44 b6 3d
       0.046464242 0.09998707 -0.056258135 0.088997826
0001c0 9c 91 de bc e2 de a8 3d 64 b3 92 3d 8a 8b 53 be
       -0.027169041 0.082456365 0.07163122 -0.20658699
0001d0 d8 35 02 3e 06 4e 08 be 5f aa 07 be 71 98 62 3d
       0.12715852 -0.13311014 -0.13248585 0.05532116
0001e0 85 ad 49 be 9d 54 7e bc ef 5c b2 3d e7 69 a4 bd
       -0.19695099 -0.015523103 0.08709132 -0.08028012
0001f0 77 f3 05 3d 8c d0 e4 3c 9b 9d cd bd db fc ad bc
       0.03270289 0.027931474 -0.100398265 -0.021238735
000200 15 b0 60 bd aa 39 13 3c 63 5c 1d bd 1e d8 c8 3d
       -0.054855425 0.008985916 -0.038418185 0.09806846
000210 95 39 13 3d 51 7a 2d bd a4 8a 79 bd e7 13 26 bc
       0.035943586 -0.04235298 -0.060923234 -0.010136581
000220 9a cd a8 bb 71 27 17 be a9 da b0 3d 9f 97 23 3e
       -0.0051514627 -0.1476114 0.08635456 0.15975808
000230 95 f2 44 3d 19 95 ae 3c 56 66 d2 3d 44 72 9d bd
       0.048082907 0.02131133 0.10273425 -0.0768781
000240 77 c6 0e bb 2a 09 ef bc 29 eb 01 be 3c af cf 3d
       -0.0021785775 -0.029179174 -0.12687363 0.10140845
000250 8e 3b 07 3e 8b b7 08 3e 11 e5 46 3e e1 79 12 3d
       0.13206312 0.13351266 0.1942332 0.035760764
000260 87 61 66 3d cf 64 4b 3d 70 0d 4c 3e 21 53 15 bc
       0.056245353 0.049656685 0.19927001 -0.009114058
000270 53 53 b5 bd 0f 01 07 3e 3b 61 af bd 30 f6 d3 bc
       -0.088537835 0.13183998 -0.08563467 -0.025874227
000280 e3 56 bd bd 18 37 bb bd c8 65 83 3d ae 7d 22 3e
       -0.09245088 -0.09141368 0.064158976 0.15868255
000290 20 a5 1e 3d 9a ca bf bd 53 0a 00 be f4 c9 20 3e
       0.038731694 -0.09364815 -0.12503938 0.15702039
0002a0 a4 bb 26 bd 2c 2d 8a 3d 88 53 f9 bd 31 0d d3 3c
       -0.04070629 0.06746897 -0.121741354 0.025763126
0002b0 48 03 80 bb 5b 70 3f be da 25 93 bd 39 d6 e3 bd
       -0.003906641 -0.18695204 -0.07184954 -0.11124844
0002c0 c7 06 a5 3d c3 97 87 3d 48 e6 0e 3e f3 e8 a1 bd
       0.08057933 0.06620743 0.13955033 -0.0790576
0002d0 f2 bc 23 3d 15 42 d0 bc 20 7f 6a 3d 52 62 05 3e
       0.039975114 -0.025422135 0.057250142 0.13025787
0002e0 19 06 59 3d a2 21 8a bd 20 28 d8 3c 46 ab fb 3d
       0.05298433 -0.06744696 0.02638632 0.12288527
0002f0 df 08 34 3e 05 71 ce 3d 2b ad 07 3e 6c 4e ca 3d
       0.17581509 0.100801505 0.13249652 0.09878239
000300 46 2f 0a 3d 82 5a f1 bd b3 38 2e bd 1b 14 c6 bc
       0.03373649 -0.11784841 -0.04253454 -0.024179509
000310 b2 b1 48 3b 91 39 a9 bd 02 29 c4 3c 44 fd 97 3c
       0.0030623493 -0.08262933 0.023945335 0.018553384
000320 27 25 dc bd 23 22 fe 3d 42 ea 56 3c 07 25 0e be
       -0.10749274 0.12408855 0.013117375 -0.13881312
000330 8c 09 a3 3d 71 b7 86 bc ca 02 47 be e2 f7 0c 3d
       0.07960805 -0.016444894 -0.19434658 0.034416087
000340 a1 eb 09 3e 31 fe c6 bb 26 21 12 3e 82 8c 9d 3d
       0.13468792 -0.0060727824 0.14270458 0.07692815
000350 16 46 58 bd af 47 1a be 46 b3 e0 3b a4 13 13 3e
       -0.052801214 -0.15066408 0.0068573086 0.14362961
000360 78 ff 36 be 06 37 8e 3b b6 57 e5 bd 21 f9 d3 3d
       -0.17870891 0.0043400554 -0.1119837 0.10350252
000370 98 74 8d bd a5 f0 86 3d c4 4a a0 3d 60 9b 0b 3e
       -0.06907004 0.06588868 0.078267604 0.1363349
000380 bd e8 e3 3d 6d 35 28 be 36 17 1c 3e 93 e7 e4 bc
       0.11128376 -0.1642663 0.1524323 -0.027942454
000390 0f ab 14 be b4 d7 2e 3b 0a ff b9 bd cd d8 12 3b
       -0.14518379 0.0026678862 -0.09081848 0.0022407055
0003a0 f0 8a 20 bc d4 d0 3b 3e 91 89 18 be 4e d9 b2 bd
       -0.00979875 0.1834138 -0.14896227 -0.08732854
0003b0 39 7d 91 3d 16 3d ac bd 32 0e 48 3d 60 83 0c bd
       0.071039625 -0.08410089 0.048841663 -0.034304976
0003c0 64 54 1e 3e 9c ed 1d 3e 65 70 7b 3d 6c f9 81 3b
       0.1546188 0.15422672 0.061386485 0.003966501
0003d0 a4 48 1b 3d 8d 7d c9 3d c8 da d1 3c 8b 84 09 bd
       0.037911072 0.098384 0.025617018 -0.03357367
0003e0 8e eb 1f 3e 14 db f8 bd 1f 82 d8 3c be 04 bb 3d
       0.156172 -0.12151161 0.026429234 0.09131764
0003f0 98 7b 4b be dd 0b 09 3d cf 2b fd bd 7f 4a 86 bb
       -0.19871366 0.03345858 -0.123618715 -0.004098236

net.8.bias f4 [16]
000000 df f4 ca bd 63 7c e3 bc 4f 05 da 3d 07 7b ca 3d
       -0.09909987 -0.027769273 0.10645544 0.09886747
000010 ae d1 03 3e a9 4e f1 bb 87 17 1a be aa 37 fb bd
       0.12872955 -0.0073641133 -0.15048037 -0.122664765
000020 e8 ed 0f be 5f 36 eb bd 61 ec 4f 3c 62 19 00 3e
       -0.14055598 -0.1148498 0.0126906345 0.12509683
000030 cd df 2f 3e 95 35 f8 bd ea 72 bb 3c df 57 2b be
       0.17175217 -0.12119595 0.022881944 -0.16732739

net.9.weight f4 [16]
000000 0c af 77 3f e2 e1 76 3f 31 6e 85 3f 33 9f 77 3f
       0.96751475 0.9643842 1.0424253 0.96727294
000010 bf fb 76 3f b6 0e 80 3f 2b 54 78 3f 08 73 85 3f
       0.96477884 1.000449 0.9700343 1.042573
000020 66 f8 77 3f ce 36 77 3f bc 3b 85 3f 0d e4 7a 3f
       0.968634 0.96568 1.0408854 0.9800423
000030 b4 69 77 3f 5b 7b 85 3f 4a 75 85 3f 18 53 85 3f
       0.96645665 1.042827 1.0426419 1.0415983

net.9.bias f4 [16]
000000 84 76 1b bd 00 d7 19 bd 46 50 2b 3d 17 c4 0b bd
       -0.037954822 -0.037558556 0.0418246 -0.034122553
000010 25 46 0d bd 5c 0a 15 ba 5b 85 0d bd 6b e2 28 3d
       -0.034490723 -0.00056854426 -0.034551006 0.041231554
000020 5c 1b 06 bd 25 d9 07 bd d2 24 23 3d 7b 12 a1 bc
       -0.032740936 -0.03316607 0.039830036 -0.019662132
000030 dc 7e 1c bd 36 cd 24 3d 73 05 23 3d f1 9c 23 3d
       -0.03820692 0.040234767 0.03980012 0.039944593

net.9.running_mean f4 [16]
000000 c1 a7 7b be 06 d2 f4 bc 34 a4 57 3e b0 7e 19 bc
       -0.24575712 -0.029885303 0.21058732 -0.009368584
000010 a9 11 64 3e 7d 7b 48 3e 4a 48 ae bd 07 8a 7f bd
       0.22272362 0.19578357 -0.08509882 -0.062387493
000020 f9 b3 09 bf ed 74 a9 bd 51 33 b5 3e de 83 61 3e
       -0.5379024 -0.08274255 0.35390714 0.2202296
000030 5f b0 af bc a7 47 0a 3e bc 86 4c be 0a a3 db bd
       -0.021446405 0.13503896 -0.19973272 -0.107244566

net.9.running_var f4 [16]
000000 00 09 09 3f f6 fe 41 3e 31 a2 71 3e 8c ff b7 3e
       0.5352936 0.18944916 0.23597027 0.35937154
000010 82 b4 81 3f 06 56 ab 3d dd 1c 96 3e 80 39 79 3e
       1.0133212 0.08366017 0.29318896 0.24338341
000020 4a 9b 25 3f 09 25 ed 3e cd d7 5e 3e 64 58 82 3e
       0.6469008 0.46317318 0.21762009 0.25458062
000030 40 c9 22 3f 30 db a6 3e 32 4d 27 3e 74 c2 0e 3e
       0.63588333 0.32589102 0.16338041 0.13941365

net.12.weight f4 [1, 16]
000000 9c 32 24 3e 45 30 fe 3d c2 f6 e7 bd 55 92 cb 3c
       0.16034931 0.124115504 -0.11326362 0.02485005
000010 23 5e 79 3d 4a 0f cf bc c0 b4 6a 3c e6 65 b8 bd
       0.06088079 -0.025275845 0.014325321 -0.090038106
000020 d2 95 09 3c a2 97 08 3e a9 9d 80 be 34 d3 4c bc
       0.008397536 0.13339093 -0.25120285 -0.012501527
000030 ba 76 e1 3d 2d 96 8a be 60 e4 48 be a8 00 0f be
       0.110089734 -0.270677 -0.19618368 -0.13965094
