eval_runs/ml/ml_20250830_224052/model.pt (torch, 2825 bytes, 3 tensors)

net.0.weight f4 [16, 6]
00000000: 6580 94be b3f7 ae3e d209 39bd 4223 8c3e
00000010: d531 063e 99cc 003f 6ec7 09be 6d1b 1bbd
00000020: 6093 ee3d 99cd 0b3e 03fd 263e 64da 23bd
00000030: 0019 99be 49db eb3d ed6a 1c3e f26b 92bd
00000040: 8a72 8a3e 1a13 d33e 1c52 b6be e7a7 a03e
00000050: 16ab a33e a475 21be d360 81be 537a 423e
00000060: 2fa7 09bf 46c9 8fbc 86a1 373e dcbc d73d
00000070: b2c9 0c3f bbd3 b5bd 6a66 61be 18ce 33bd
00000080: 0c6e c93e 90da 993d 8b42 aebe be45 c13e
00000090: 03ee 683e 3fa2 ddbd 61e6 00be d11e 5dbe
000000a0: 120d 94be 4672 86be d837 01be fae2 8bbe
000000b0: 918b 65be 8cf2 06be 248b 633e 60e0 b5bd
000000c0: fe65 c3be 7d30 60be 38e4 e7be 05c9 ba3e
000000d0: 9035 fabe f93d cd3e 41e8 033e 62c0 51be
000000e0: bcfe 2b3e 1ad0 7ebe c776 d63e 336c a0bd
000000f0: 2207 d23e e8ce dcbe 878e f3be b943 f4be
00000100: d23d a73d db36 73be c2b1 0f3e 3ebf 15be
00000110: daf4 1c3f 2b41 cdbd 5fb8 18bf 3430 c2bc
00000120: a630 ffbd 0689 9c3e b48a 46be 391b 163e
00000130: 1afb 82be deee 903e 7320 903d 185e 25be
00000140: ae23 c93d f1c6 aa3e 3633 8bbb 5c78 de3d
00000150: 3352 4b3e b871 79be 8181 5cbe a303 433e
00000160: cfcf f03e 80ba 1a3e 807c 6abd 6f5e 083f
00000170: be76 883e d447 85bd b492 413e 60ec 613e
-0.29004207 0.34173355 -0.04517538 0.2737065 0.13104947 0.5031219 -0.13454983 -0.037867952
0.11649203 0.13652648 0.16307454 -0.040003195 -0.29901886 0.11516435 0.15275164 -0.07149495
0.2704051 0.4122551 -0.3560952 0.313781 0.31966466 -0.15767533 -0.25269184 0.18991975
-0.53770727 -0.01755203 0.1793271 0.10534069 0.5499526 -0.08878275 -0.22011724 -0.04389772
0.39341772 0.075123906 -0.34035143 0.37748522 0.22747044 -0.108219616 -0.12587883 -0.21593787
-0.28916222 -0.2625906 -0.12618959 -0.27321607 -0.22416522 -0.13178462 0.22221047 -0.08880687
-0.3816375 -0.21893497 -0.45291305 0.3648149 -0.4886899 0.40086344 0.12881567 -0.20483544
0.16796392 -0.24884072 0.41887495 -0.07833137 0.41021067 -0.43126607 -0.47569677 -0.47707918
0.08166088 -0.23751394 0.14032653 -0.14623734 0.61311114 -0.100221954 -0.5965633 -0.023704626
-0.12460451 0.3057329 -0.19388849 0.14658822 -0.255822 0.2830724 0.07037439 -0.16149175
0.098212585 0.33354905 -0.004248048 0.108628005 0.19855575 -0.24359787 -0.21533777 0.19044356
0.47033545 0.15110207 -0.05724764 0.53269094 0.26653093 -0.06507841 0.18903619 0.22062826

net.0.bias f4 [16]
00000000: 7cd3 fe3e f171 f7bd 3bff 2dbe efa8 8bbe
00000010: 2953 e8be 1550 0b3f 8db0 a5be 0ac3 bf3d
00000020: feeb d8bd df40 b1be 8d9d 043e 8cb4 583e
00000030: 2fd5 cf3e ba68 04be 4c39 0c3d 17c3 e43e
0.49770725 -0.120822795 -0.16991894 -0.27277324 -0.45375946 0.5441907 -0.3236126 0.093633726
-0.10591887 -0.34619805 0.12950726 0.21162623 0.40592334 -0.12930575 0.03423433 0.44680092

net.2.weight f4 [1, 16]
00000000: fc70 cfbe 6efe cbbd 9ecb 33bc 44dd a33c
00000010: 42d9 093e 4132 57be 1806 143d 70bd ccbc
00000020: cbf7 d7be 21cf 043e 84c3 1d3a 56e8 b6be
00000030: c7a3 13be 3314 e63d 7b29 883d b96f dbbe
-0.40515888 -0.09960638 -0.010973839 0.020002969 0.13461784 -0.21015264 0.036138624 -0.024992675
-0.4218124 0.12969638 0.0006018209 -0.35724133 -0.14417945 0.112343214 0.06648537 -0.42858675
