eval_runs/ml/ml_enhanced_20250901_112602/model.pt (torch, 23012 bytes, 19 tensors)

net.0.weight f4 [64, 16]
000000 c8 58 d5 bd 3e f2 27 bd ce 71 98 bd 7a 62 81 3e
       -0.10417324 -0.041002505 -0.074435815 0.25270444
000010 4f 80 63 3d 25 e1 b1 bc 97 3f a7 3d 03 04 41 be
       0.055542286 -0.021713803 0.08166426 -0.18849187
000020 b8 90 a3 3d b4 8e de 3d fe 59 41 3a c7 f9 6c be
       0.07986587 0.10867062 0.00073757756 -0.23142157
000030 18 94 09 3e 44 28 1f 3d 34 57 49 3e fa ac 0f be
       0.134354 0.03885676 0.19662172 -0.14030829
000040 c7 8b 61 bd d0 2c f5 3d 01 39 33 3e e0 a5 52 3e
       -0.055064943 0.11971438 0.17502214 0.20571089
000050 e7 24 67 bd 07 a5 0b be 22 81 17 3e fe 3a 52 3d
       -0.056431677 -0.13637172 0.14795354 0.05132579
000060 0c 4f 37 3e ac 9a c2 3d c1 83 68 3d bd c5 c1 bd
       0.17901248 0.095021576 0.056766275 -0.09461544
000070 7e 63 3e bd 28 77 46 bd 76 d3 b9 bc 3a 4d e3 bb
       -0.046481602 -0.04845348 -0.02268384 -0.0069366964
000080 cf 94 16 be a8 c5 22 be fb 63 8a 3d 93 d0 73 3e
       -0.14705203 -0.15895712 0.06757351 0.23810034
000090 50 95 47 bc 16 68 03 be 8b 85 68 be 3c 2b 88 bc
       -0.012181595 -0.12832674 -0.22707193 -0.016622178
0000a0 81 0f ba bd 0b 81 59 be df bf 96 bd 8a dc cd bd
       -0.090849884 -0.21240632 -0.07360815 -0.1005183
0000b0 06 91 75 be dc 80 a0 bc 81 72 f6 3c 6d 53 5c bd
       -0.23981103 -0.019592695 0.030083897 -0.0537905
0000c0 30 db 70 be 0d fe 23 bd 50 ae b8 bd bf 50 86 3d
       -0.23521113 -0.040037204 -0.090176225 0.0655837
0000d0 ba 14 ac bd 67 75 74 be 6b 5b 02 be e9 58 6c 3d
       -0.08402391 -0.2387291 -0.12730186 0.05770198
0000e0 52 bc 62 3d 16 31 68 be 40 42 0b be d2 d3 72 be
       0.055355377 -0.22674975 -0.13599491 -0.23713616
0000f0 93 39 1a be d5 38 34 bd e4 d1 42 3e 53 77 b6 bc
       -0.15061025 -0.04399951 0.1902538 -0.022273695
000100 d3 eb c9 bd 8e 06 33 bd 42 c0 40 3e 9e 39 61 3e
       -0.09859433 -0.043707423 0.1882334 0.21994635
000110 36 13 76 be 0c a6 72 be 22 8b ae bd 33 9c 90 3d
       -0.24030766 -0.23696154 -0.08522631 0.07061043
000120 70 54 25 3e fc ce 6a be c4 80 80 3e 36 7f 53 be
       0.16145492 -0.22930521 0.2509824 -0.20653996
000130 b6 28 ed bd 4d 85 e2 3d d0 6d 58 be 31 b7 68 3e
       -0.115800306 0.11060581 -0.2113564 0.22726132
000140 25 5e 46 be f7 04 60 3e 69 19 91 bd a6 00 12 3e
       -0.19371851 0.21876894 -0.07084925 0.1425806
000150 2a b3 bf bd 28 83 3b be 8e 28 2e 3e 65 bb 45 bd
       -0.09360345 -0.18311751 0.17007658 -0.048274416
000160 04 72 86 bc 3a 07 6c be a5 ce f0 bd 88 ac 7f be
       -0.016411789 -0.23049632 -0.11758164 -0.24968159
000170 96 d0 18 be 08 ce 17 3e f2 66 79 3e dc c6 0e be
       -0.14923319 0.14824688 0.24355677 -0.13943046
000180 fd 49 4c be 08 ec e4 bb 03 b5 45 be 60 bf 49 3e
       -0.199501 -0.006986145 -0.19307332 0.1970191
000190 47 82 fa 3d 6f b9 14 be 61 86 86 be 58 42 3d 3e
       0.1223188 -0.14523862 -0.26274398 0.1848234
0001a0 8c 39 4c 3d 08 08 b8 bd 0f 4f 97 3b 22 f9 55 3e
       0.04985957 -0.08985907 0.004617579 0.20895818
0001b0 43 28 7e be 77 30 c0 3d 1e cb 1a 3e 22 19 fc bd
       -0.24820046 0.09384244 0.15116546 -0.12309481
0001c0 77 3b 18 3e dc 6b 21 3e bd 24 73 3e 6a 32 25 bb
       0.14866434 0.15763801 0.23744483 -0.002520705
0001d0 08 38 36 bd 2e c4 ce 3d 97 0d 4f be cd 24 06 3e
       -0.04448703 0.10096012 -0.20220028 0.13099976
0001e0 b4 28 39 3e 1f c0 5e be e4 62 7e 3e 3e d3 a8 3c
       0.18081933 -0.21752976 0.24842411 0.02060854
0001f0 42 c0 88 3d b7 ec a9 bc fd bc 1d 3d c0 c8 0a 3e
       0.06677295 -0.020742757 0.03851031 0.13553143
000200 1b 07 79 3e 81 b9 5e 3d 43 2f e3 bd a7 22 7a 3d
       0.24319117 0.05437613 -0.11092999 0.061068203
000210 41 cf 5f 3e 2d 9c 3e 3d 62 57 86 bd cf e6 3f be
       0.21856405 0.04653566 -0.06559636 -0.1874039
000220 8f cc bb 3d 7d 59 07 3e 36 2c 02 3e 10 e6 f5 3d
       0.09169876 0.13217731 0.12712178 0.120067716
000230 6d 6e 3b 3e 50 14 97 3d ab b3 d2 3d bc fc 14 be
       0.18303843 0.07376921 0.10288175 -0.14549536
000240 ce 53 31 3e 5e 21 41 be 2c 08 41 be 44 ac 53 be
       0.17317125 -0.18860385 -0.18850774 -0.20671183
000250 e3 c2 d1 3c 5e 40 30 3e 31 e1 91 bb 9f b6 b7 bd
       0.025605625 0.17212054 -0.0044518937 -0.08970379
000260 c4 f3 09 3e 73 53 96 bd ed 68 f4 3d f1 04 5a 3e
       0.13471895 -0.073401354 0.119340755 0.21290947
000270 ee 0a 05 3e 9d de 5b 3d 16 ca 77 be 1e 80 5e be
       0.1299245 0.053679097 -0.24198183 -0.2172856
000280 1f 58 92 3d 6c 5e d1 bd 65 b6 46 bc 29 ed ef 3d
       0.07145714 -0.10223088 -0.012128447 0.117151566
000290 96 99 51 be a5 1d 26 3e f1 10 40 be e3 ca 58 3e
       -0.20468745 0.16222246 -0.18756463 0.21171145
0002a0 2a ba 00 3e 0b e1 2d be 8a 56 6c 3e 3d ab 57 be
       0.12571016 -0.16980378 0.23079887 -0.21061416
0002b0 f2 26 7c 3d 3d 40 da bd a8 c9 c3 3d c3 0e 1b 3d
       0.06156058 -0.10656784 0.09559947 0.037855875
0002c0 2c 0d 23 be 5c a0 6d be f8 48 7b be cf 88 10 3d
       -0.15922993 -0.23205703 -0.24539554 0.03528672
0002d0 c4 f9 00 3e c6 d4 8a bd 99 00 a3 3d 0e 67 85 be
       0.12595278 -0.067788646 0.07959098 -0.26055187
0002e0 dd 22 87 bd f8 72 d5 bd 0a c0 29 3e ee c5 64 be
       -0.065984465 -0.10422319 0.16577163 -0.22341129
0002f0 6e 51 54 be ab 2d 79 be 5e 83 1f bd cf 3a da 3d
       -0.20734188 -0.24333827 -0.03894364 0.10655748
000300 cd 0b 6c 3e 0f 56 a6 3c 64 c3 fb 3d 89 c8 fc bd
       0.23051377 0.020304708 0.12293127 -0.123429365
000310 57 d7 66 3e 4b 06 79 3d 0a e9 36 be b5 1e db 3d
       0.22543083 0.060797017 -0.17862335 0.10699216
000320 ab e3 6c bd eb 9c 45 3e f3 ef 8b bd d4 43 a4 bd
       -0.05783431 0.1929814 -0.06832876 -0.0802075
000330 20 7c 17 be 3d 2c 71 3e 58 78 de 3d 23 5c 81 3e
       -0.14793444 0.23552032 0.108627975 0.25265607
000340 15 05 ad 3d e6 ca 61 be 2c 3f 02 be 66 d3 29 3e
       0.08448235 -0.22050056 -0.1271941 0.16584548
000350 7d 55 58 3e 1a 3f 91 3c bf 3f 0a 3e 13 22 34 be
       0.21126361 0.017730284 0.1350088 -0.17591123
000360 7e e2 dc 3d a1 f3 2b 3e d3 ac f0 3a 5f 9d 14 3e
       0.107853875 0.16792156 0.0018362053 0.14513157
000370 5f f0 59 3e ee e0 0f 3e 1b 3c 45 be 1b 18 85 3e
       0.212831 0.14050648 -0.1926121 0.25994954
000380 59 f2 09 be d1 34 82 3e ea f5 e4 bd 36 f0 6b be
       -0.13471355 0.2543092 -0.11179717 -0.23040852
000390 04 ba 11 bd 85 67 60 3e 1b 5e 71 bd 5f 8b dd bd
       -0.03557779 0.2191449 -0.058927637 -0.108175986
0003a0 53 29 56 3d 58 04 40 3e a2 55 ab 3b 96 31 64 be
       0.052285504 0.18751657 0.005228714 -0.2228454
0003b0 90 76 f2 bd b1 cd 1f be 48 2d 50 be 8a ca 43 3e
       -0.1183902 -0.15605809 -0.20329773 0.19120231
0003c0 de 10 c4 3d 3f d8 3f 3e 18 dc e8 bd ab ba 59 bd
       0.0957353 0.18734835 -0.113701046 -0.053156536
0003d0 ea f3 1e be ac 27 38 be 7c a2 67 3e ec f1 ac 3d
       -0.15522733 -0.17983884 0.22620577 0.084445804
0003e0 4d dc 92 bd e9 f2 e7 bd 23 41 ab 3d 1e b9 9c bc
       -0.07170925 -0.11325628 0.08362033 -0.01913124
0003f0 08 2d 2a be e0 e0 a8 bc ad 7a 2f be 02 ce 43 be
       -0.1661874 -0.020615041 -0.17136641 -0.19121554

net.0.bias f4 [64]
000000 8b 1a d0 bd e7 2c 35 3d 35 ae 93 3b 64 fa 15 bd
       -0.10161313 0.044232275 0.004506851 -0.036615744
000010 ab d9 e0 bd 18 98 4c be fd 55 54 3d c7 73 22 3e
       -0.10979017 -0.19979894 0.051839817 0.15864478
000020 90 22 72 3e 7c b5 7a be de 62 b2 bd cd e8 0e bd
       0.23645997 -0.24483293 -0.08710264 -0.034889985
000030 3d e6 f7 3d 7c 8b 9a bd a4 f4 4a bd 90 15 d8 3d
       0.12104461 -0.07546136 -0.049549714 0.10550988
000040 11 37 bf bd 6a 32 7c 3e fb 7e 55 3d 0a 65 0a 3e
       -0.09336675 0.24628606 0.05212305 0.13515106
000050 06 fb 7d 3e e9 d9 ec 3d ab 5f 75 3e 70 0c 58 3e
       0.24802789 0.115650006 0.23962276 0.21098495
000060 bb b7 23 3e be ad 34 be 2b 7b 52 3e 8a 65 0b 3e
       0.15988056 -0.17644402 0.20554797 0.13612953
000070 43 bd 48 be a8 53 dd bd 85 e1 ef bd 6c 74 e6 3d
       -0.19603448 -0.10806972 -0.11712936 0.112526745
000080 86 b3 2a bc d0 6d 4c be 5f b4 6e be 48 da b4 3b
       -0.010418778 -0.19963765 -0.23310994 0.005519185
000090 ee 0b 39 bd a7 df e4 3d 19 01 6b 3e 00 3d 24 3c
       -0.045177393 0.11175471 0.22949637 0.010024309
0000a0 d7 56 95 3d b6 09 54 3e a7 3c 8d 3d 8f cd 10 be
       0.07291954 0.2070683 0.06896334 -0.14140914
0000b0 86 b7 73 3d b7 f0 2c be 4f a2 a6 bd 0f b3 ce bd
       0.059501193 -0.168887 -0.08136427 -0.100927465
0000c0 06 a4 ff bd 31 14 f8 bc fb be 3c bd e6 ba 6c 3e
       -0.12482457 -0.030283066 -0.04608057 0.23118171
0000d0 cd 5e ec bd 0b 3a 3b be 16 2b 13 be f0 7e 26 be
       -0.11541519 -0.1828386 -0.14371905 -0.1625936
0000e0 3f 42 7b be 15 f5 99 3c 8a 06 5f be 53 5a de 3d
       -0.2453699 0.018793622 -0.21779838 0.10857072
0000f0 c4 eb 4a 3e 61 8e a3 3b 8a 85 7b 3d c7 3d 75 3e
       0.198165 0.004991338 0.06140665 0.23949347

net.1.weight f4 [64]
000000 57 ad 80 3f 6a 60 7d 3f ab bf 81 3f d2 09 82 3f
       1.0052899 0.9897524 1.0136617 1.0159247
000010 f7 e0 80 3f c0 e7 7e 3f 47 92 81 3f 96 fa 80 3f
       1.0068654 0.9957237 1.0122765 1.0076473
000020 c0 1d 82 3f d3 85 7e 3f 4e bb 7d 3f 0a cc 7d 3f
       1.0165329 0.9942295 0.9911393 0.99139464
000030 2f 1f 80 3f 35 fb 7c 3f 46 b8 80 3f 77 a4 7c 3f
       1.0009516 0.9882081 1.0056236 0.98688453
000040 da 37 7e 3f d1 75 80 3f a4 f9 7c 3f 7c de 81 3f
       0.9930397 1.0035955 0.9881842 1.0146022
000050 7a 14 80 3f 9f 3c 81 3f cf 09 81 3f ef 8d 7e 3f
       1.0006249 1.0096625 1.0081118 0.99435323
000060 f3 76 7e 3f 5d ae 7b 3f 03 4c 81 3f ed dc 7d 3f
       0.9940025 0.9831293 1.0101322 0.9916523
000070 74 d5 81 3f 63 7a 7d 3f b7 46 7d 3f e6 84 7e 3f
       1.0143266 0.9901487 0.9893603 0.99421537
000080 ee cd 7e 3f 34 3f 80 3f fa 08 80 3f 59 3b 80 3f
       0.99532974 1.0019288 1.000274 1.0018111
000090 3d a6 81 3f 78 19 7d 3f 54 7e 7f 3f c8 d9 81 3f
       1.0128857 0.9886699 0.99802136 1.0144587
0000a0 ab 35 80 3f 53 57 80 3f 94 4a 7d 3f 80 4f 7e 3f
       1.0016378 1.0026649 0.9894192 0.9934006
0000b0 7d 0f 80 3f 7b a1 7c 3f 3b 36 7d 3f 31 dc 7f 3f
       1.0004727 0.986839 0.98910874 0.9994536
0000c0 f1 cb 7c 3f 8e 42 80 3f b3 1b 7c 3f 72 20 82 3f
       0.9874869 1.0020311 0.98479766 1.0166152
0000d0 1a bb 7d 3f b6 b6 7d 3f 47 44 80 3f 91 05 82 3f
       0.9911362 0.9910692 1.0020837 1.0157949
0000e0 b4 17 7d 3f 60 a8 7c 3f 79 31 82 3f 2d 31 7d 3f
       0.98864293 0.9869442 1.0171348 0.9890316
0000f0 6e 36 82 3f 63 7f 7d 3f 8e 4c 81 3f 1b 6e 80 3f
       1.0172861 0.990225 1.0101488 1.0033602

net.1.bias f4 [64]
000000 aa 3f 02 3b ec ff 20 bc aa 6d 89 3c 7f 9c 46 3c
       0.0019874373 -0.0098266415 0.016775925 0.0121222725
000010 fe 5e 03 bc a6 ce 93 bb f6 f3 87 3c c4 2b bf ba
       -0.008018253 -0.0045107184 0.016595822 -0.0014585187
000020 a7 31 36 3c 40 e8 f7 b9 6c aa dc ba 14 67 ba bb
       0.0111202365 -0.0004728455 -0.0016835458 -0.0056885574
000030 b3 81 00 bc 2e a7 5f bc 19 0b 09 bb 4d 1f 58 bc
       -0.007843423 -0.013650699 -0.0020911156 -0.013191056
000040 bc 4a 6b bb 10 40 04 3c 8e 20 11 bc d6 bc 97 3c
       -0.00359027 0.008071914 -0.008857859 0.018522661
000050 e4 12 33 bc 4c 76 ed 3b 1e 10 e3 3b 52 8a e6 bb
       -0.010929797 0.007246768 0.0069294116 -0.007035532
000060 8b 2a 89 3c 0b 19 93 bc 0c 86 de 3b e3 dd 29 bc
       0.016743919 -0.017956277 0.006790882 -0.010367843
000070 6d 68 ea bb a3 bf e7 3b 39 61 cd ba 59 3a 2b bc
       -0.007153562 0.0070724054 -0.0015669233 -0.010450923
000080 f3 c2 0c bc 8b e6 33 3c d3 fc 2e 3b cc 84 03 3c
       -0.008591401 0.010980259 0.0026700988 0.008027267
000090 98 4f 66 bc c8 cd bf bb fd e7 fa 3a b8 b8 5d 3c
       -0.014057063 -0.0058533885 0.0019142624 0.01353281
0000a0 e0 33 08 bc d5 2b 8d 3c e4 54 9f 3b 2a 54 5c bc
       -0.008313149 0.017232815 0.0048624147 -0.013447801
0000b0 af 5a be 3b 93 cc 50 bc 7e 07 cb bb 41 8a 98 bb
       0.00580915 -0.012744087 -0.0061959615 -0.004655153
0000c0 f9 3c 59 bc 0b 7e dc bb 3b a9 f5 bb 1c 4a 25 3c
       -0.013259166 -0.0067288927 -0.0074969805 0.01008847
0000d0 25 8f e8 3a cf c5 1d bc 8a 48 14 3c 93 50 f1 3b
       0.0017742856 -0.009629681 0.009050498 0.0073643415
0000e0 21 b4 10 3c 0f 09 7e bc ab 92 76 3c 23 af 81 ba
       0.008832009 -0.015505089 0.015049617 -0.0009894114
0000f0 a4 1d 2f 3b ed c3 4c 3c 6d c8 7a 3c 6e 5f 18 bb
       0.0026720548 0.012497884 0.015306574 -0.002325024

net.1.running_mean f4 [64]
000000 c5 fa 55 40 92 ea d0 40 89 47 20 c1 65 94 b7 c0
       3.3434308 6.528634 -10.017465 -5.7368646
000010 34 a8 60 c0 40 c8 df 40 58 2e 38 c1 3f bd 07 c1
       -3.5102663 6.9931946 -11.511314 -8.483703
000020 81 61 2b c0 4d 16 14 bf 47 da 01 c1 83 1b 6f 40
       -2.6778262 -0.5784653 -8.11579 3.7360542
000030 25 1f f0 c0 fa bd c7 40 72 7b 15 c0 7e 7d 1b 41
       -7.503802 6.2419405 -2.3356595 9.718138
000040 aa b2 15 c1 b4 0d e1 c0 7a 5d 13 c1 b6 ed 17 41
       -9.356119 -7.0329227 -9.210321 9.495535
000050 a5 c4 14 40 d8 21 d7 be fd 04 bf 40 90 29 06 40
       2.3245022 -0.42018008 5.969359 2.0962868
000060 78 ef 03 41 2c 56 06 41 7f 54 be 3f d5 70 33 41
       8.245964 8.396038 1.4869536 11.215047
000070 78 36 fa 40 72 d6 16 c1 b1 85 a4 c0 07 48 9f c0
       7.819149 -9.427355 -5.1413198 -4.9775424
000080 e6 b6 4c c0 c7 03 9e c0 01 be 9d 40 e1 1e fa c0
       -3.1986632 -4.937961 4.929444 -7.8162694
000090 c3 97 00 c1 98 26 f2 c0 62 1f 00 40 3e 34 0c 41
       -8.037051 -7.567211 2.0019155 8.762754
0000a0 17 75 22 c0 eb 6b 2a c1 b8 11 9a 40 87 34 6e c0
       -2.5383966 -10.651347 4.814663 -3.721956
0000b0 67 51 bf 40 0b 29 f3 40 8c 73 6d 3f 84 93 15 41
       5.978687 7.59876 0.92754436 9.348515
0000c0 19 5c 41 3f 90 51 0a c0 f2 1a 93 40 95 a7 0b c0
       0.75531155 -2.1612282 4.597039 -2.1821034
0000d0 42 7a 97 c0 71 d6 c4 bf d7 53 dd 40 70 20 1f 41
       -4.733674 -1.5377942 6.9164844 9.945419
0000e0 09 5a 02 41 31 96 ab 40 e5 12 26 c1 3b 80 84 c0
       8.146981 5.362084 -10.379613 -4.140653
0000f0 a3 77 08 c1 1e 51 aa c0 32 25 cb bf 2f 5e e3 c0
       -8.529208 -5.322402 -1.5870726 -7.105247

net.1.running_var f4 [64]
000000 a2 48 e4 40 bc 48 89 42 52 be cd 42 4c 2e cd 41
       7.1338663 68.64206 102.87172 25.647606
000010 92 d0 99 41 8b fa dd 41 e0 ee 99 42 27 f3 5f 42
       19.226841 27.747335 76.96655 55.987453
000020 21 82 62 41 6e e1 e4 3f ef d7 3e 42 fe c2 c1 41
       14.15677 1.7881296 47.710873 24.220211
000030 d0 b7 05 42 92 2a cf 41 5f 2e ce 40 9a 7a 8f 42
       33.429504 25.895786 6.4431605 71.739456
000040 05 07 8d 42 de 37 06 43 82 48 6a 42 b3 30 ab 42
       70.51371 134.21823 58.57081 85.595116
000050 fe fb d1 40 3c e4 64 42 cc ed 57 42 73 14 72 40
       6.562011 57.222885 53.982224 3.7824981
000060 c7 b3 18 42 1b d2 2f 42 2a 54 0f 40 36 d3 9d 42
       38.175564 43.95518 2.239512 78.91252
000070 fb 28 2d 42 a6 2a 81 42 2e 2c 98 41 21 11 df 41
       43.29002 64.5833 19.021572 27.883364
000080 56 f9 aa 41 78 80 8c 42 3e 40 87 41 82 3c 8a 42
       21.371746 70.250916 16.906368 69.11818
000090 b3 93 90 42 a1 9a 14 42 24 01 11 42 fd 08 9c 42
       72.288475 37.151005 36.251114 78.017555
0000a0 d5 f5 d0 40 c2 fc 92 42 d5 90 c8 41 6f c7 04 42
       6.530009 73.49367 25.070719 33.19476
0000b0 2f d4 a0 41 eb f4 bf 42 99 e3 19 41 c2 cf be 42
       20.103605 95.978355 9.618066 95.40578
0000c0 39 ef c3 40 af f6 43 41 47 fe 89 41 36 16 80 40
       6.122952 12.2477255 17.249159 4.0027113
0000d0 75 ea 6d 42 31 d3 cf 41 5a 3a 62 42 b4 02 81 42
       59.478962 25.97812 56.556984 64.50528
0000e0 82 49 42 42 af 64 24 42 ed b2 8f 42 56 33 a0 42
       48.571785 41.098324 71.849464 80.100266
0000f0 a8 ca 90 42 ba d5 52 42 f3 08 ec 41 c8 11 16 42
       72.39581 52.708717 29.50437 37.517365

net.4.weight f4 [32, 64]
000000 aa 7d b2 bc c5 70 95 3b 1e 98 5e 3c 35 04 ac bd
       -0.021788437 0.0045605623 0.013586072 -0.0839924
000010 6f fc ed bd 56 69 49 3c fc 4b b4 bb 0c 5b 2a 3d
       -0.116204135 0.01229318 -0.005502222 0.041590735
000020 87 7f 7a bd 79 b3 96 bd ba a5 1e 3d e5 da 2c bd
       -0.061156776 -0.073584504 0.038732268 -0.04220094
000030 d6 a0 71 3c da b5 ce 3d c9 cc 03 be da 6a 8e 3d
       0.014747819 0.10093279 -0.12871088 0.06953974
000040 8f e3 81 3d 80 22 03 be 1b c7 b7 bd 1b 07 91 3d
       0.063422315 -0.1280613 -0.08973523 0.070814334
000050 e8 c1 cf 3c b2 1a 40 3d 8d 1e a6 3d 33 fe f7 bd
       0.025361016 0.04690046 0.08111296 -0.121090315
000060 5a f5 e8 bc 49 8e d6 bd e9 f4 d8 3d d8 bd 3d bd
       -0.028437305 -0.104763575 0.10593588 -0.046323627
000070 1b 70 da bd 70 39 e6 bd 4b a0 29 3d de 1c d1 3d
       -0.10665914 -0.11241424 0.041412633 0.10210584
000080 9f 80 85 bd 11 83 9e bd e4 45 4b 3d 92 23 b9 3d
       -0.06518673 -0.07739843 0.0496272 0.090399876
000090 6d 10 f6 bd e2 6b c5 3d 9d 56 31 bd 4d e7 60 bd
       -0.12014852 0.09639718 -0.04329549 -0.054908086
0000a0 50 ba eb bc 45 92 45 3d 11 6b fc bd 27 24 9b 3d
       -0.028775364 0.048235197 -0.12325109 0.07575255
0000b0 9b a0 5b bd 4e 91 b6 3d 02 1e e7 bc 93 93 ac bd
       -0.053619962 0.089144334 -0.028212551 -0.08426585
0000c0 74 66 bf bd b7 6e 02 be a9 cd ca 3d ef cc 8a 3d
       -0.09345713 -0.12737547 0.09902508 0.06777369
0000d0 b4 ef a2 3c b0 68 85 3d 9e 0a f5 bd fd f5 ac bd
       0.01988969 0.06514108 -0.11964916 -0.08445356
0000e0 e8 44 c8 bd e5 b9 19 3d 3a 5e d3 3c 45 82 90 bc
       -0.09778768 0.0375308 0.025801767 -0.017640242
0000f0 32 7c ab bd 55 f4 bb 3d 82 ec bc 3d 08 ac 61 3b
       -0.08373298 0.09177462 0.09224798 0.0034434814
000100 1d 3e 13 3c a7 5e 7e bd df fd 87 bc b9 e2 f8 bd
       0.008986977 -0.062101986 -0.016600547 -0.12152619
000110 88 52 54 bb 94 68 82 bc d4 55 85 bd 55 16 87 3c
       -0.0032397825 -0.015919007 -0.06510511 0.01649014
000120 bc 32 a9 3b bb c5 54 bc bb 5c fe bd b0 85 9d bd
       0.0051635187 -0.012986596 -0.12420031 -0.076915145
000130 fe 82 97 bc 7f bf a1 bd d3 8d ba bc b5 27 f1 bd
       -0.01849508 -0.07897853 -0.022772705 -0.11775152
000140 50 23 96 bc 0d 7a bd 3c 84 af f5 bd e1 91 99 3d
       -0.018327385 0.023129487 -0.119963676 0.07498527
000150 6b 79 10 bc d2 e0 e8 bd 9f 0d 26 bc 90 f0 bc 3d
       -0.008818011 -0.11371006 -0.010135083 0.09225571
000160 a6 a4 0b bc 8d f7 08 be f8 de d9 bd 1f dc d9 3d
       -0.008523142 -0.13375683 -0.10638231 0.10637688
000170 53 6f 7d bd 8b cd a0 3d 3b ed d0 3d f4 c3 bd 3d
       -0.061873745 0.07851704 0.10201498 0.09265891
000180 c7 7d 75 ba 36 15 e7 3d 4d 80 b1 bd 8e db e6 3d
       -0.00093647506 0.112833425 -0.086670496 0.112723455
000190 c0 f7 f7 bd d2 d4 cb bd 58 71 d1 3d 91 36 d7 bd
       -0.121078014 -0.09952702 0.10226697 -0.105084546
0001a0 f0 29 b7 bd 60 12 82 3d 3c ee b4 bd 3c 69 99 bd
       -0.08943546 0.06351161 -0.08834502 -0.07490775
0001b0 3f f8 df 3d e1 db ae bd 5a 56 43 bd dd e6 ab bd
       0.10936021 -0.08538032 -0.047689773 -0.08393643
0001c0 1a e0 eb bd 39 9f 16 3d 9e 8c 7b 3d a6 de 5b bd
       -0.11517353 0.03677294 0.0614134 -0.05367913
0001d0 36 c2 fe 3c 0c f4 03 bd 99 77 d9 3d 0d 7a d6 bd
       0.031098466 -0.032215163 0.106185146 -0.10472498
0001e0 36 a8 bf 3d d5 80 4c 3d 3e 28 ab bd b4 d2 e0 3d
       0.093582556 0.04992755 -0.08357285 0.109776884
0001f0 73 e3 9b 3d 51 d1 ed 3d 4d 63 e2 3d 54 9c cd bd
       0.07611742 0.116121896 0.11054096 -0.10039583
000200 60 fa 0f 3c 6e 44 e9 3d 68 ed b3 bd 73 57 9e bb
       0.008787721 0.11390005 -0.08785516 -0.004832202
000210 df f5 23 bd 09 29 28 3d a9 b9 b6 3d 1f 9f c4 3c
       -0.040029403 0.04105476 0.089221306 0.024001656
000220 ee db 86 bd 2c 3f 81 3d 4e c0 c8 3d e2 06 4b 3d
       -0.06584917 0.06310877 0.09802304 0.04956711
000230 bd 9a 8a bc 4d 2e 4d 3d 46 59 25 bd ec b8 36 3d
       -0.016919488 0.050092984 -0.04036834 0.04460995
000240 81 02 2f 3c 4c c3 52 bb ba 40 da 3b 7b 63 20 bd
       0.010681749 -0.0032159863 0.006660548 -0.039157372
000250 25 fd a6 bd 2d b1 d3 bd f0 bf 41 bd 6d b4 5f bd
       -0.08153752 -0.10336528 -0.047302186 -0.054615427
000260 af e0 7d 3d a7 68 87 bc ee 52 e7 3c 03 3a 8b bd
       0.061981853 -0.016529394 0.028237786 -0.06798174
000270 5c c3 e2 3d 3c a9 b3 bd 9d e7 db bc 2e 1b 3d bd
       0.11072418 -0.08772513 -0.02684384 -0.0461685
000280 a7 c4 07 bd 82 99 e1 bd e0 0b 5b bc c6 c0 30 3d
       -0.033146527 -0.110156074 -0.01336953 0.043152593
000290 b7 49 af 3d 58 a6 e2 bc a0 ea f7 bd dc 89 d3 3d
       0.08558982 -0.02766721 -0.12105298 0.10329029
0002a0 e7 09 f6 bd 8e 0c fb bd c7 1b d5 3d b1 ab 7e bd
       -0.120136075 -0.12258254 0.10405689 -0.062175456
0002b0 a6 d9 9f bc 1e 01 af bc 17 46 3a bb 98 3d bc 3d
       -0.019512963 -0.021362837 -0.0028423124 0.091914356
0002c0 f9 18 5a 3d 95 58 07 be a2 99 cb bb 4c de cb bd
       0.053246472 -0.13217385 -0.006213383 -0.09954509
0002d0 a2 ff 10 bd af 28 91 3c 54 61 f3 3d cf f9 bb 3d
       -0.03540004 0.017719595 0.11883798 0.091785066
0002e0 46 1d 8a bd 59 8d fe bb 47 4c 3d 3d 04 38 98 3c
       -0.06743865 -0.007768315 0.046215322 0.018581398
0002f0 76 09 fb bc a9 51 b5 bd fd 3d a7 3d ab 23 e1 bd
       -0.03064416 -0.08853466 0.0816612 -0.10993131
000300 e2 a5 06 be 4f a4 f5 bd 4e cc 1a 3b 64 7f f3 bc
       -0.13149217 -0.1199423 0.002362031 -0.02972383
000310 36 32 c8 bc 9b ca a6 3d 96 e4 b7 3d b5 66 cc bd
       -0.024438005 0.08144113 0.08979146 -0.09980527
000320 b6 3b e8 bd 64 de d4 bc a5 2d ed 3c fd bd 5c 3d
       -0.11339514 -0.02598495 0.02895243 0.053892124
000330 ce 33 e7 bc b6 27 d6 3c 47 c7 74 3d 51 c3 55 3d
       -0.028222945 0.026141983 0.05976036 0.05218822
000340 cc 7f 65 3d 16 70 e7 3c a4 d7 68 bd 8d a8 84 3d
       0.05603008 0.028251689 -0.056846276 0.06477461
000350 c9 4c 15 3d bc b4 88 3b 8c fb 61 3d 21 fd 28 bc
       0.03645018 0.004171936 0.055171534 -0.010314257
000360 45 b3 82 bd 9c 7b e2 bd af d6 76 3d 15 8e 31 bd
       -0.06381849 -0.11058733 0.060263332 -0.04334839
000370 29 1e d3 3d 31 5b d6 3d c8 7e fb bd 63 b4 69 bd
       0.10308487 0.10466612 -0.12280041 -0.057056796
000380 04 0b 0e bd 10 ea be bc a2 a3 c0 3c 43 21 ab bd
       -0.034678474 -0.02330497 0.023515526 -0.083559535
000390 3b 17 7d bd 8a e6 98 3d c7 fd be bd 7f f5 57 3b
       -0.061789732 0.07465847 -0.09325748 0.0032952724
0003a0 40 54 b1 bd 23 e4 46 bd 36 23 04 be 06 a5 0a be
       -0.086586475 -0.048557412 -0.12904057 -0.13539514
0003b0 10 54 ac bd 66 79 f1 bd 68 c2 82 3d 23 26 87 3c
       -0.08414471 -0.11790733 0.06384736 0.016497677
0003c0 f0 84 eb bd 7f 46 10 3d f0 30 87 bd 75 0a c1 bb
       -0.11499965 0.03522348 -0.06601131 -0.005891139
0003d0 34 a3 b8 bd 10 d0 c1 3d 7f f1 84 bd 01 90 53 bd
       -0.090155035 0.09463513 -0.06491374 -0.051651005
0003e0 a8 9c 66 bd 90 50 4e 3d 9f bf 91 3d 96 b3 75 bd
       -0.056301743 0.0503698 0.07116627 -0.05998572
0003f0 88 c4 71 bd e2 ea 8a bd 91 4e 4a bc 67 cb 91 3d
       -0.059025317 -0.067830816 -0.012347833 0.07118874

net.4.bias f4 [32]
000000 fb 47 3a bd 49 55 8a bc 32 b7 95 3d a6 91 a4 3d
       -0.045478802 -0.01688637 0.07310332 0.08035593
000010 3c bf ae 3b b8 df a4 3d 40 d5 29 3d 98 a3 33 3d
       0.0053328555 0.080504835 0.041463137 0.043857187
000020 b1 5c 3e bc 9d f8 8b bd 92 9c c6 3d e6 63 9f 3d
       -0.011618779 -0.068345286 0.09697832 0.07782726
000030 93 d3 85 bd 32 3a b0 3d dc bd a8 3d c2 87 0b 3d
       -0.06534495 0.0860485 0.08239338 0.034065016
000040 fd 31 e1 ba 1d da 27 3d 87 7c a0 3d db fc ef bc
       -0.0017181035 0.040979493 0.07836252 -0.029295376
000050 1a 92 f7 3d a2 7c 92 bd 46 76 7c 3d 59 5c d7 3d
       0.120884135 -0.07152678 0.06163623 0.10515661
000060 2a e7 41 3d 75 a6 fe 3d 50 e7 cd 3b 9b 84 ec 3d
       0.047339596 0.12434093 0.006283678 0.1154873
000070 30 97 0b bc f2 c2 85 bc a0 6d d6 bd f9 80 b7 bd
       -0.008519933 -0.016328309 -0.10470128 -0.089601465

net.5.weight f4 [32]
000000 c3 48 7f 3f 60 33 7f 3f 9f c0 80 3f 82 b8 7c 3f
       0.997204 0.9968777 1.0058783 0.98719037
000010 02 a5 7e 3f a4 a4 80 3f ef 1d 7e 3f 09 80 7f 3f
       0.9947053 1.0050244 0.99264425 0.9980474
000020 19 c4 7f 3f 68 64 7f 3f 5c b6 7d 3f 93 fb 7f 3f
       0.99908596 0.9976258 0.99106383 0.99993247
000030 29 1d 82 3f b8 05 82 3f a5 c7 7c 3f 73 ac 81 3f
       1.0165149 1.0157995 0.98742133 1.0130752
000040 e4 ab 7d 3f e8 b1 7e 3f 0a 8f 7c 3f 14 22 80 3f
       0.9909041 0.99490213 0.9865576 1.00104
000050 97 d5 81 3f e8 e9 80 3f 35 f9 7b 3f be 9f 81 3f
       1.0143307 1.0071383 0.98427135 1.0126874
000060 46 c9 81 3f d0 06 82 3f c7 82 80 3f 1d 3e 7f 3f
       1.0139549 1.0158329 1.003991 0.9970415
000070 c0 a5 7d 3f e3 03 82 3f 17 96 81 3f 68 2f 7c 3f
       0.9908104 1.0157436 1.0123929 0.98509836

net.5.bias f4 [32]
000000 a3 5c 30 3b 3b 63 6d 3c 50 a1 7a 3c f3 67 7f bc
       0.0026910685 0.01448899 0.015297249 -0.015588748
000010 b7 ed a9 bb 98 e0 1c bc 1e 99 0a bc 46 6a cb ba
       -0.0051858085 -0.009575032 -0.008459358 -0.0015519343
000020 1c 59 12 3c b7 16 af bb bf 9a 01 bc df c9 02 bb
       0.008932378 -0.005343284 -0.0079104295 -0.001995675
000030 64 fe 9b 3c 2e 26 68 3c df 24 33 bc e5 37 18 3c
       0.019042201 0.014169259 -0.010934084 0.00929067
000040 02 67 03 bc e3 a6 cb 3b 7f b4 da bb dc 06 7d 3c
       -0.008020164 0.006214963 -0.006674349 0.01544353
000050 38 77 fb 3b cd 3f 16 3c 1d 5a 1b bc 25 44 88 3c
       0.007674124 0.009170485 -0.009481934 0.016634056
000060 f3 26 83 3c 13 01 88 3c a7 41 bf bb 6b 7a 84 3b
       0.016009783 0.016602075 -0.005836684 0.0040429137
000070 ee cb fc 39 30 97 28 3c 1f ae ae 3b c6 4e 08 ba
       0.00048217125 0.010289952 0.0053308154 -0.00051997264

net.5.running_mean f4 [32]
000000 68 11 b0 be 94 f0 a0 be 70 28 29 bd 77 48 c3 be
       -0.3438828 -0.31433547 -0.04129833 -0.38141224
000010 61 6a da 3d cf 44 af 3d 3e e2 c3 be e5 22 2f 3e
       0.106648214 0.08558046 -0.38258547 0.17103155
000020 83 61 1b be 18 13 2b be 14 d8 ce be 09 d1 1e bd
       -0.15173917 -0.16706502 -0.4039923 -0.03877357
000030 e1 dd 7b 3e 64 3a e6 3e 36 8e 2d 3f 39 d5 75 3d
       0.24596359 0.44966424 0.6779512 0.060017798
000040 e5 b1 9d be 2c ff f0 bc 7f c7 74 bd 85 e3 82 3e
       -0.30799785 -0.02941855 -0.059760567 0.2556421
000050 18 00 a2 3e b9 50 b7 3e b7 ff 80 bd 34 7b 6e 3e
       0.31640697 0.35803774 -0.06298774 0.23289186
000060 6a 55 5a 3e 6c 77 90 3e 2f 7b 00 3e cf c0 0d 3f
       0.21321645 0.28216112 0.12546991 0.5537233
000070 ff a9 84 bd 25 dd 0e bf 01 e7 d6 be 84 fd 97 be
       -0.06477737 -0.5580619 -0.41973117 -0.29685605

net.5.running_var f4 [32]
000000 59 7c 02 3e 3f 38 3a 3e 29 77 f3 3e 63 e3 fc 3d
       0.12742747 0.18185519 0.4755185 0.12348058
000010 0b b1 e8 3d 0b d3 82 3e 7c 3c 25 3e 21 39 38 3e
       0.11361893 0.25551638 0.16136354 0.17990543
000020 38 0f 3e 3e f4 66 2b 3e 84 a0 04 3e 14 53 f6 3d
       0.18560493 0.16738492 0.12951857 0.12027565
000030 59 87 6d 3e 6b ab d6 3e 42 c4 5c 3e 3b 60 1a 3e
       0.23196162 0.41927657 0.21559241 0.15075772
000040 e6 51 1b 3e 7b 14 7a 3e e2 59 8b 3e 11 9e 25 3e
       0.1516796 0.24421875 0.27217013 0.16173579
000050 79 ab 5b 3e 1a 4c db 3e 85 fb ba 3e e7 40 9e 3e
       0.2145213 0.42831498 0.3652002 0.30908892
000060 2f 36 85 3e 4a 96 58 3e d2 8d 5f 3e 30 96 f2 3d
       0.260179 0.2115108 0.21831444 0.11845052
000070 75 ab 6b 3e 02 4b 3e 3e a2 6b 6b 3e 85 af 43 3e
       0.23014624 0.185833 0.22990277 0.19109924

net.8.weight f4 [16, 32]
000000 db d1 67 3d cb d0 0a 3e 38 61 0b 3d 4a 37 c7 bd
       0.05659662 0.1355621 0.034028262 -0.097273424
000010 04 96 cb bd a9 d0 25 be 9e 07 00 be 1d 27 bf bd
       -0.099407226 -0.16192879 -0.12502906 -0.09333632
000020 1b b9 04 be 19 67 d1 bd 48 fe e8 3b 6a f9 75 3c
       -0.12961237 -0.102247424 0.007110391 0.015013078
000030 a5 f8 9e bd 52 12 f3 3b 5d dd c2 bd 87 c8 89 ba
       -0.07762269 0.0074179554 -0.09514878 -0.0010512032
000040 1d 58 2b 3e cc bd 43 3d 58 fd b4 bd f1 f4 07 3e
       0.16732831 0.047788426 -0.08837384 0.13277031
000050 0f ce 35 be 04 d4 1e be ea e9 2c 3d 78 d6 1c bd
       -0.17754386 -0.15510565 0.042215265 -0.03829047
000060 b2 32 2b 3e 85 7a fe 3d 4b 2f dc bd be bd 02 be
       0.16718557 0.124257125 -0.10751208 -0.12767693
000070 da eb 20 bd a2 ae 5b bd 9b e7 38 bd 54 60 33 3c
       -0.039287426 -0.05363334 -0.04514275 0.010948259
000080 ba d0 9a bc b8 50 a3 3d 0e d5 9a bd 36 b9 85 3d
       -0.018898357 0.0797438 -0.07560168 0.06529467
000090 d8 eb f9 bd 10 50 21 3e c1 bc 31 3e 06 19 c8 bd
       -0.12203187 0.15753198 0.1735716 -0.09770398
0000a0 06 bc 7c 3c 45 6f 8c bd 6b 1a 0a be 8f 74 08 3e
       0.015425688 -0.068571605 -0.1348664 0.13325714
0000b0 0d 9c 16 be ab d4 57 bd 23 8c 05 3d a7 92 b9 3d
       -0.14707966 -0.05269305 0.032604348 0.09061175
0000c0 cf 55 e2 3d d1 6c c5 bc 12 72 e9 3d 52 60 4b 3c
       0.11051523 -0.02409974 0.1139871 0.012413101
0000d0 30 20 65 bd 24 41 d8 bd 0c 00 7e 3c 57 c9 0d 3e
       -0.0559389 -0.105592996 0.015502941 0.13846336
0000e0 21 06 2b 3e 77 31 84 3d f9 f9 e4 bc ee 0a 12 be
       0.16701557 0.06454747 -0.027951228 -0.14261982
0000f0 bc 28 f9 3d 58 c7 d5 bc f9 7d 1b be 12 eb 1f 3e
       0.121659726 -0.026096031 -0.15184774 0.15617016
000100 ed 21 43 3d 35 d3 35 bd 19 95 c2 bd 79 00 06 be
       0.047639776 -0.044390876 -0.09501094 -0.13086118
000110 05 21 12 be c0 93 a7 bd ab cb 15 be 01 31 93 3c
       -0.14270408 -0.08182478 -0.14628474 0.017967703
000120 78 d9 6d bd d9 a5 00 3e 23 b1 2a bc 57 f1 47 3d
       -0.058068722 0.12563266 -0.010418209 0.048814144
000130 aa 6f 18 bd b3 82 fe bd 0d a8 06 be 5b 2b 6f bb
       -0.037215866 -0.12427273 -0.13150044 -0.0036494348
000140 a3 74 b3 3c 8b 4d 23 3e 7b 31 38 3e b3 c8 f5 3d
       0.021906203 0.15947549 0.17987625 0.12001171
000150 4e 1f e5 3c 7e 07 c4 3d 9e f5 eb bd 9b ce e1 bd
       0.027969029 0.095717415 -0.11521457 -0.11025735
000160 e8 7c a7 bc 8f 19 d7 3c 8a c8 48 3d 0a 07 a0 3d
       -0.020445302 0.026257304 0.049019374 0.078138426
000170 4b 37 ce bd 22 b8 53 bd 29 8a 2b be 52 48 13 3d
       -0.1006914 -0.051689275 -0.16751923 0.035957642
000180 06 31 2e 3e 15 9a a7 3d 3f e5 5a bd 22 6a 9d 3d
       0.17010888 0.08183686 -0.053441282 0.07686259
000190 f1 fa a2 3c 2e 3b 88 bd a0 00 02 be b4 7a 7b bd
       0.019895049 -0.06651913 -0.12695551 -0.061396316
0001a0 61 d6 30 bc dd c0 0a be a8 c0 61 bd 0c 01 87 3c
       -0.010793299 -0.13550134 -0.055115372 0.016479991
0001b0 f4 de e7 3d 2e 6d d7 3d 63 84 eb bd 01 66 bd bd
       0.11321822 0.10518871 -0.1149986 -0.09247971
0001c0 ef 16 74 3d cc f6 86 3c 7b 95 98 3d 39 f1 f0 bd
       0.059592184 0.016475104 0.07450386 -0.117647596
0001d0 45 aa 02 3d d4 40 2d bc 00 2d d7 3d 14 4e b4 3c
       0.031900663 -0.010574538 0.1050663 0.022009887
0001e0 b9 ed cc 3d b0 95 30 be 7b 49 a7 3d 82 73 06 3e
       0.100062795 -0.17244601 0.08168312 0.1313
0001f0 c1 4b 9f bd 48 9c f1 3d be b8 e5 3c 8e 67 ca bd
       -0.07778121 0.117973864 0.028042194 -0.09883033
000200 5c cf ac 3c 1d 08 a4 bd 59 85 95 bd 49 b8 06 3e
       0.02109497 -0.0800936 -0.07300825 0.13156237
000210 73 d8 b5 3d b3 a7 78 3d d4 bb 0e bd 61 36 e3 bc
       0.08879175 0.060706805 -0.034847096 -0.02773589
000220 19 1b 84 3c 62 50 cf bd bd 82 30 be 69 e8 3a be
       0.016126202 -0.10122754 -0.17237373 -0.1825272
000230 63 7d 23 be ca 48 06 3e b6 40 b4 bd 9b 7f 12 3e
       -0.159658 0.13113704 -0.08801405 0.1430649
000240 d5 8a 20 be f8 90 0f be 6f 9c a0 bd 3c 44 0d 3e
       -0.1567796 -0.14020145 -0.07842337 0.1379556
000250 8b 6f d2 bc 1c fe 04 be 3c 97 bd 3d d5 48 79 3d
       -0.025687953 -0.1298756 0.09257361 0.060860474
000260 53 3d 4e 3d 4f 93 42 3e 76 69 26 3e f5 29 97 3d
       0.050351452 0.19001506 0.16251168 0.073810495
000270 15 db e9 bd 39 03 41 be d5 49 c0 3d df 14 12 3e
       -0.1141874 -0.18848886 0.09389082 0.14265774
000280 b0 25 02 be 5d 3a 84 bd 2f 23 fa 3d cd a3 8e 3c
       -0.12709689 -0.064564444 0.12213742 0.01741209
000290 e0 0d 1e 3e e8 aa 2b be e9 60 25 be f6 52 b1 bc
       0.1543498 -0.16764414 -0.1615025 -0.021646004
0002a0 84 82 2f be 85 72 e7 bd 6a 27 aa 3d 66 98 95 bb
       -0.17139632 -0.1130114 0.08308299 -0.0045652865
0002b0 37 53 00 be d4 12 36 3c 94 0c 15 bd bc cd e4 3d
       -0.12531744 0.011112887 -0.03638895 0.11172053
0002c0 a3 b6 05 bd 2c a0 ed bb 9e ab 81 3d 84 31 1d 3e
       -0.03264488 -0.00725176 0.063315615 0.1535092
0002d0 cf 99 03 be 3c 86 01 be d1 85 12 be 48 7e f2 3d
       -0.12851642 -0.12648863 -0.1430886 0.118404925
0002e0 4f 0d fb bc f3 6e 99 bd 0b e7 87 bd 45 41 ff 3d
       -0.030645994 -0.07491865 -0.06635865 0.12463621
0002f0 87 9f 62 bc 23 7f 0c be e9 a2 16 be ba 54 c7 3d
       -0.01383198 -0.13720374 -0.14710583 0.09732957
000300 75 2d 8f 3d 0f 8d 1c 3e 3d 5e b7 3c 67 56 ee 3d
       0.06991092 0.15288185 0.022383804 0.11637574
000310 02 5c 87 3d ff af bd bc c2 37 aa 3d 81 5f 34 bd
       0.06609346 -0.02315521 0.08311416 -0.044036392
000320 cc 36 10 bc 16 6a 0f be ae 8c d6 3d 98 0c 10 bd
       -0.008802127 -0.14005312 0.10476051 -0.03516826
000330 88 33 14 bc e3 18 c2 bd 97 9d 79 bd ec c8 0e be
       -0.009045489 -0.09477403 -0.060941305 -0.13943833
000340 12 f9 17 be 84 ff f4 3d 5f e6 06 bd 8e 0a 02 3d
       -0.14841107 0.11962798 -0.032934543 0.031748347
000350 a2 e3 89 3d a8 00 12 3e 9f 74 c7 bc 5b d8 0e be
       0.06732871 0.14258063 -0.024347601 -0.1394972
000360 68 0d 8b bd 57 cd e5 3a e5 24 c2 bd eb bf 2b be
       -0.067896664 0.001753251 -0.09479693 -0.1677243
000370 45 6f 12 3d 01 75 c6 bd 8b 96 c2 bc 3c 66 c0 3d
       0.035750646 -0.096902855 -0.023753425 0.093945
000380 7e c8 b7 3d 5b 1c 00 be e2 63 33 3c 02 02 1f be
       0.08973788 -0.12510817 0.010949107 -0.1552811
000390 17 c2 05 3d 40 ec df bc da 3e 33 3e 3e 2f ca 3d
       0.0326558 -0.027334332 0.17504445 0.09872292
0003a0 d2 3f f8 bd f0 bd 3a 3d 81 de 0b 3e 5f 02 93 bc
       -0.12121548 0.045591295 0.13659097 -0.017945467
0003b0 11 b8 20 be 79 9d 05 be a6 fb fd 3d a0 78 5b bc
       -0.15695216 -0.13048352 0.12401514 -0.013395458
0003c0 18 0f 2c 3e f7 7d 0e 3e 0b 30 10 be 2d e7 90 3d
       0.16802633 0.1391524 -0.14080827 0.07075343
0003d0 28 56 1e be d6 a9 c2 3c e5 05 3a 3e 7e 35 06 be
       -0.15462554 0.023762625 0.18166311 -0.13106343
0003e0 9d 28 1c be 1d c7 6c 3c 6a 4d 51 3c 26 8e 46 3d
       -0.15249868 0.014451769 0.012774805 0.048475407
0003f0 a3 ca ab bd f6 9f ea 3d 45 71 e6 3d 16 99 22 3e
       -0.08388259 0.114562914 0.11252073 0.1587871

net.8.bias f4 [16]
000000 8a 07 0b 3e 3f 8f 7b 3d 7b c2 6a bd 4a a9 23 be
       0.13577095 0.061415907 -0.057314377 -0.15982547
000010 c6 ee c1 bd 0f 78 2b 3d 09 7e 49 3c 1d a0 75 bc
       -0.094693705 0.041862544 0.0122981155 -0.014991787
000020 ed 08 bb bb 97 bc 13 3e 49 c9 34 3e a4 ff 92 bd
       -0.005707851 0.1442741 0.17654909 -0.07177666
000030 e3 72 a8 bb 52 f5 55 3d 51 fa 93 3d 46 ec 54 3d
       -0.0051406487 0.05223591 0.072254784 0.05198314

net.9.weight f4 [16]
000000 38 e9 7a 3f cf ec 7a 3f 93 a3 82 3f 17 88 7b 3f
       0.98012114 0.9801759 1.0206169 0.9825453
000010 79 a2 82 3f 06 99 82 3f 20 a3 82 3f 19 c0 82 3f
       1.0205833 1.0202949 1.0206032 1.0214874
000020 8f a5 82 3f 17 08 7b 3f 76 71 7f 3f f5 a4 82 3f
       1.0206774 0.9805922 0.997825 1.0206591
000030 d9 a4 7b 3f 12 e5 7a 3f fe a0 82 3f bb 02 7b 3f
       0.9829841 0.98005784 1.0205381 0.9805104

net.9.bias f4 [16]
000000 08 f8 a4 bc 4a c3 a3 bc 18 fb a5 3c 19 07 90 bc
       -0.020137802 -0.019990582 0.020261332 -0.01758151
000010 52 0c a8 3c 6e 2a a5 3c f1 88 a7 3c 05 0c b0 3c
       0.020513687 0.020161834 0.020451041 0.021490106
000020 17 16 a8 3c 21 ce a0 bc 82 2c 15 bb bd 9c a6 3c
       0.020518346 -0.01962954 -0.0022762124 0.02033841
000030 4f 93 8b bc 73 a1 a4 bc 3a 7f a6 3c dd 94 a0 bc
       -0.017038016 -0.020096516 0.020324338 -0.019602234

net.9.running_mean f4 [16]
000000 c6 ec 54 be 30 a6 56 3e 9d 85 8b be f8 a1 ad bd
       -0.20793447 0.20961833 -0.27250376 -0.08478159
000010 9f 29 22 be 83 e1 95 be a2 cf ac bd 86 62 d3 3d
       -0.1583619 -0.29273614 -0.0843804 0.10321526
000020 00 32 66 be 53 9b d4 3e f5 aa 67 3e de 3b 6c 3e
       -0.22480011 0.41524753 0.22623809 0.23069713
000030 b3 e9 a9 be e1 1a 08 be d0 5a ef be f1 50 04 3e
       -0.3318611 -0.13291503 -0.46748972 0.12921502

net.9.running_var f4 [16]
000000 c7 02 50 3e f7 5c 36 3e 57 48 92 3e 11 90 fd 3d
       0.2031356 0.17808901 0.28570816 0.12380994
000010 5d 04 3f 3e 47 36 c1 3e 22 49 27 3e bb ee 58 3e
       0.18654008 0.37736723 0.16336492 0.21184818
000020 ef 47 37 3e b6 a4 a0 3e 66 6d 39 3e 9e ee dc 3e
       0.17898534 0.31375664 0.18108138 0.431508
000030 b2 91 6c 3e ee 5e 65 3e 86 26 ac 3e 2b 98 22 3e
       0.23102453 0.22399494 0.3362314 0.1587836

net.12.weight f4 [1, 16]
000000 07 d1 4d 3e 36 ce f0 3d f9 1a 5a be 84 ac 34 3b
       0.20099269 0.117580816 -0.21299352 0.0027568648
000010 38 ac e5 bd c5 cf 74 be a6 70 48 be 69 21 f1 bc
       -0.11214489 -0.23907383 -0.19574222 -0.029434877
000020 56 cc 06 be 74 3d 00 3e 26 40 5a bc 18 12 49 be
       -0.13163885 0.12523443 -0.013320958 -0.19635808
000030 94 b6 e8 39 5f ef 16 3e 20 c3 78 be 75 12 56 3d
       0.0004438652 0.1473975 -0.24293184 0.052263696
