eval_runs/ml/ml_20250901_104811/model.pt (torch, 2825 bytes, 3 tensors)

net.0.weight f4 [16, 6]
-0.16544932 0.19960532 -0.49445918 -0.4980762 0.35801455 -0.34081376 -0.084590234 0.30532253
0.37733206 -0.020733695 -0.025280505 -0.13963109 -0.34738564 0.120804444 0.29292896 -0.0627653
-0.20355174 0.33667758 0.24887589 -0.3907892 -0.19825122 -0.23310046 -0.0022799307 -0.05314567
-0.07541094 -0.08463159 0.28795347 0.28696626 -0.44955418 -0.18783319 -0.4054965 -0.39251766
-0.091822766 0.16418947 0.08177256 0.12834692 -0.377468 0.5155848 -0.04095716 -0.061561238
-0.3294493 -0.13909917 0.47410485 0.21870007 -0.079681516 -0.3669852 -0.011705029 0.13514934
-0.2763726 -0.21225992 0.011494208 -0.06188403 -0.5741075 0.35549867 -0.20339395 -0.37723494
-0.34975308 0.009394853 0.108974144 0.0024725706 -0.18119237 -0.15687631 -0.05264952 0.5392252
-0.30123994 0.3204591 0.25223967 0.19154198 -0.028599681 -0.13078569 -0.34995186 0.20126191
-0.18564314 -0.18362015 0.14083864 0.55288935 0.28931823 -0.31625295 -0.22723454 -0.21952865
-0.083516926 0.24949366 -0.26701167 -0.062316895 0.04431349 0.022776207 0.24059217 -0.22342551
-0.2665168 -0.355117 -0.2547908 0.32716182 0.11931603 -0.06753978 -0.49452585 0.049379524
00000000: 8c6b 29be 5665 4c3e c129 fdbe d803 ffbe
00000010: af4d b73e 247f aebe a53d adbd 3c53 9c3e
00000020: ab31 c13e b6d9 a9bc 1019 cfbc 74fb 0ebe
00000030: 88dc b1be 5268 f73d c9fa 953e 188b 80bd
00000040: de6f 50be 0161 ac3e 52d9 7e3e 8615 c8be
00000050: 5e02 4bbe e3b1 6ebe e46a 15bb 46af 59bd
00000060: 0d71 9abd 5453 adbd a36e 933e 3eed 923e
00000070: f72b e6be 5857 40be 3d9d cfbe 13f8 c8be
00000080: 930d bcbd 4921 283e 5f78 a73d 606d 033e
00000090: 7c43 c1be 5efd 033f b2c2 27bd a327 7cbd
000000a0: 94ad a8be 0370 0ebe dfbd f23e e9f2 5f3e
000000b0: 1030 a3bd 7ce5 bbbe 73c6 3fbc 9764 0a3e
000000c0: b680 8dbe aa5a 59be 3452 3c3c 1c7a 7dbd
000000d0: b6f8 12bf ec03 b63e 8146 50be f024 c1be
000000e0: d612 b3be dfec 193c d62d df3d da0a 223b
000000f0: 7e8a 39be 2fa4 20be 06a7 57bd aa0a 0a3f
00000100: 1f3c 9abe 3713 a43e 8f25 813e 9523 443e
00000110: e149 eabc afec 05be e42c b3be 9a17 4e3e
00000120: 3c19 3ebe ec06 3cbe 0138 103e 288a 0d3f
00000130: 8521 943e e8eb a1be 2cb0 68be 1ecc 60be
00000140: ec0a abbd 447b 7f3e c1b5 88be 0040 7fbd
00000150: 1082 353d 2b95 ba3c cb5d 763e a8c9 64be
00000160: e474 88be e5d1 b5be f173 82be c181 a73e
00000170: f65b f43d 4c52 8abd 7e32 fdbe 2f42 4a3d

net.0.bias f4 [16]
0.08102502 -0.2008291 0.20056298 -0.009709121 0.5720116 -0.35373783 0.24866128 0.14616045
0.09680663 -0.006544195 0.23282923 0.2539657 0.38555428 -0.26638922 0.032016918 0.2842035
00000000: 72f0 a53d 25a6 4dbe 6260 4d3e 0113 1fbc
00000010: 5a6f 123f 201d b5be 10a1 7e3e 16ab 153e
00000020: 8e42 c63d b070 d6bb c96a 6e3e cb07 823e
00000030: 5f67 c53e 2b64 88be 2c24 033d 1f83 913e

net.2.weight f4 [1, 16]
0.082853936 -0.18289405 -0.13314615 0.20807281 -0.31914616 0.17591314 -0.31617782 -0.011200781
-0.29365614 0.09277529 -0.44307974 -0.114771575 -0.21150057 0.049554948 0.07354659 -0.29594988
00000000: 53af a93d 9448 3bbe 7757 08be 0a11 553e
00000010: 2067 a3be 9322 343e 0fe2 a1be 7b83 37bc
00000020: 195a 96be f900 be3d 59db e2be 5c0d ebbd
00000030: 9b93 58be 21fa 4a3d 989f 963d be86 97be
