eval_runs/ml/ml_20250901_093238/model.pt (torch, 2825 bytes, 3 tensors)

net.0.weight f4 [16, 6]
0	0x3da805ce	0.08204232
1	0x3dabfa83	0.08397391
2	0x3e085d23	0.13316779
3	0xbea4b971	-0.3217273
4	0xbe62a418	-0.2213291
5	0xbcc2b2ae	-0.023766842
6	0x3ec407b8	0.3828714
7	0x3e7c7bdc	0.24656624
8	0x3e90a641	0.28251842
9	0xbde9c5b9	-0.11414666
10	0xbe26e5a8	-0.16298544
11	0xbe0d41ad	-0.13794585
12	0xbe94704e	-0.28991932
13	0x3ede7a1a	0.4345253
14	0xbc687ceb	-0.014189939
15	0x3ecf1a7a	0.40449888
16	0x3dcdfe13	0.100582264
17	0x3e501eb0	0.20324206
18	0x3cd12e3d	0.025534743
19	0x3d895f2c	0.06707606
20	0xbeb09367	-0.3448746
21	0xbdab44ed	-0.08362756
22	0xbd6e89bb	-0.05823682
23	0x3cbf4e7d	0.023352856
24	0xbe6675b5	-0.22505839
25	0x3ef7ebfa	0.48422223
26	0x3d794f55	0.060866673
27	0x3e29ed0b	0.16594331
28	0xbec9187e	-0.392765
29	0x3e0557f3	0.13021831
30	0xbef7a7d6	-0.48370236
31	0xbd956456	-0.07294528
32	0x3dfa8a8e	0.122334585
33	0x3f188fdb	0.59594506
34	0xbe8fe8b6	-0.28107232
35	0x3ebaf627	0.36515924
36	0xbc069e7d	-0.0082164975
37	0xbe9b87b1	-0.30376962
38	0x3e9a11b0	0.3009162
39	0x3bce37a8	0.006293256
40	0xbf17a31c	-0.5923326
41	0x3ec1f81e	0.3788461
42	0xbe81b252	-0.2533136
43	0xbe9903a9	-0.29885605
44	0xbd1d79b0	-0.03844613
45	0xbee93298	-0.45546412
46	0x3dddecbf	0.10836171
47	0xbe8776b7	-0.2645776
48	0xbee7f71c	-0.45305717
49	0x3ed7b208	0.42128015
50	0x3f15ef88	0.5856862
51	0x3d2246f3	0.039618444
52	0xba6e1ef8	-0.0009083594
53	0x3e1af30c	0.15131778
54	0x3e7a71fc	0.24457544
55	0xbc62e02b	-0.013847391
56	0x3d24f81e	0.040275685
57	0xbebc0b20	-0.36727238
58	0xbdd0a24a	-0.10187204
59	0x3e694b13	0.22782545
60	0x3e74eb97	0.23917995
61	0xbe18ff76	-0.149412
62	0x3db09dcd	0.08623848
63	0x3c9848b4	0.018589355
64	0x3e24ffe3	0.16113238
65	0xbe9358a5	-0.28778568
66	0xbe865d10	-0.26242876
67	0xbd5cbcac	-0.05389087
68	0x3e3ae71a	0.18252221
69	0x3d37c47a	0.04486511
70	0xbe5c7dbe	-0.21532342
71	0x3f063e21	0.5243855
72	0x3ed54a3b	0.41658196
73	0xbdcbd38d	-0.099524595
74	0xbed75292	-0.42055184
75	0xbe557c77	-0.20848261
76	0xbe5489a3	-0.20755629
77	0xbe03506f	-0.12823652
78	0xbe36f568	-0.17867053
79	0x3f051e72	0.5199958
80	0xbe52e4c5	-0.20595081
81	0x3d71cf64	0.059035674
82	0xbef5a384	-0.47976315
83	0xbd2274eb	-0.039662283
84	0x3d4dd8a1	0.05025542
85	0x3e400190	0.18750596
86	0x3e2fc559	0.17165126
87	0x3ee76ac4	0.45198643
88	0xbd82ae56	-0.06380908
89	0x3d7800d1	0.060547654
90	0x3ed2ddb2	0.41184765
91	0x3b86567d	0.0040996657
92	0x3e244204	0.16040808
93	0x3e2d7bb7	0.16941725
94	0x3e252142	0.16125968
95	0x3e5dfe21	0.21678974

net.0.bias f4 [16]
0	0xbe7345bd	-0.23757072
1	0x3e19e705	0.15029533
2	0x3f050d98	0.5197387
3	0xbeb0184f	-0.34393546
4	0x3e3f4a9b	0.18680803
5	0x3e49d878	0.19711483
6	0xbe119a72	-0.14219072
7	0xbeddf35c	-0.4334973
8	0x3e803496	0.2504012
9	0xbeb698bb	-0.356634
10	0xbe3cae11	-0.18425776
11	0xbe649acc	-0.22324675
12	0x3e8131b4	0.25233233
13	0x3e9e91b2	0.30970532
14	0x3e859abe	0.2609462
15	0xbeb3aaab	-0.35091147

net.2.weight f4 [1, 16]
0	0x3e3195d0	0.17342305
1	0x3d77dfcb	0.06051616
2	0xbe6710da	-0.22565022
3	0xbe12996a	-0.14316335
4	0xbf065192	-0.52468216
5	0xbeb995ea	-0.36247188
6	0xbe84c8d8	-0.25934482
7	0x3d4e8f8e	0.050429873
8	0xbe85f5fa	-0.26164228
9	0x3e267037	0.16253744
10	0xbde4692c	-0.111528724
11	0xbed4db19	-0.41573408
12	0xbbbb0f2d	-0.005708596
13	0xbe87d758	-0.26531482
14	0xbeeaf760	-0.45891857
15	0x3e63943a	0.22224513
