eval_runs/ml/ml_20250901_000557/model.pt (torch, 2825 bytes, 3 tensors)

net.0.weight f4 [16, 6]
0	0xbe77c481	-0.24196054
1	0x3e994845	0.2993795
2	0xbddb2eeb	-0.10702308
3	0xbe6e5b03	-0.23276906
4	0xbe795c9a	-0.24351731
5	0x3ed37664	0.41301262
6	0x3d72c15e	0.05926644
7	0x3f0fb500	0.5613556
8	0x3e2b6657	0.16738258
9	0xbdd29d12	-0.10283865
10	0x3c9ec51e	0.019381102
11	0xbe53a393	-0.20667867
12	0x3e642210	0.22278619
13	0x3e869a65	0.2628967
14	0xbe884dbe	-0.26621813
15	0x3cae77dd	0.02129739
16	0x3ed2fb54	0.41207373
17	0x3e8fab9e	0.2806062
18	0xbec7e2e8	-0.39040303
19	0xbe3445ce	-0.17604753
20	0x3e55797c	0.20847124
21	0x3e9186ba	0.284231
22	0xbdeb4ccf	-0.114892595
23	0x3c47708e	0.012172831
24	0x3cf375f9	0.02971934
25	0xbe1d87ad	-0.15383787
26	0x3e634606	0.2219468
27	0x3ec65df3	0.38743553
28	0xbeb18462	-0.34671313
29	0x3ef7f2f2	0.4842754
30	0x3e53cf0c	0.20684451
31	0x3e466cc3	0.19377427
32	0xbe37eaba	-0.17960635
33	0xbcf028b6	-0.029316287
34	0xbee7a915	-0.45246187
35	0x3eae4a16	0.34040898
36	0xbe8509c2	-0.25984007
37	0xbdbfabb8	-0.093589246
38	0xbdd8112f	-0.105501525
39	0xbd653a27	-0.05596366
40	0xbed40666	-0.41411132
41	0xbe340e9e	-0.17583701
42	0xbe4418b8	-0.19150054
43	0xbddeac16	-0.108726665
44	0xbd389482	-0.045063503
45	0xbcddf789	-0.027095573
46	0xbe38b609	-0.18038191
47	0xb8a691a0	-7.9426216e-05
48	0xbf1a5539	-0.6028629
49	0x3de89cfe	0.11358069
50	0xbd9ddf66	-0.077086255
51	0x3e43dc63	0.1912704
52	0xbb893abc	-0.00418791
53	0xbdff6f7d	-0.124724366
54	0xbea1134c	-0.31460035
55	0x3dc4dc0e	0.096122846
56	0x3dc87570	0.097880244
57	0x3ead551e	0.33854002
58	0x3d932bbe	0.071860775
59	0x3ed0b529	0.40763214
60	0x3c53ac73	0.012919533
61	0xbea59db1	-0.32346871
62	0x3d9c8869	0.07643206
63	0xbe4a0b9d	-0.19730993
64	0xbf076672	-0.52890694
65	0x3eadd690	0.3395276
66	0x3ee8fdb3	0.45506057
67	0x3e207fd3	0.15673761
68	0xbe4bef90	-0.19915605
69	0xbedc2892	-0.42999703
70	0xbd91b5a7	-0.071147256
71	0x3dc7f62d	0.09763751
72	0x3e5c0dd7	0.21489654
73	0x3ebd5d44	0.3698522
74	0xbeb72f96	-0.35778493
75	0x3d076216	0.033052526
76	0xbe24a3f3	-0.16078167
77	0xbda5b2fd	-0.0809078
78	0xbea4b958	-0.32172656
79	0x3e0ffd91	0.14061572
80	0xbd606940	-0.054787874
81	0x3da4b229	0.08041794
82	0xbf119ec5	-0.5688289
83	0x3c07c9d5	0.008287867
84	0xbde5eda5	-0.11226968
85	0xbebb08df	-0.36530206
86	0xbf109713	-0.5648052
87	0xbed55bfe	-0.41671747
88	0x3eb28396	0.34866017
89	0xbe5eef23	-0.21770911
90	0x3cf2a674	0.029620387
91	0x3f039082	0.51392376
92	0x3ef254c2	0.4733029
93	0x3eaafb78	0.3339498
94	0x3e2e2c74	0.17009145
95	0xbc31e6d3	-0.010858255

net.0.bias f4 [16]
0	0x3ec50d6a	0.38486797
1	0x3e516f4b	0.20452611
2	0x3e5170da	0.20453206
3	0xbeccb8a2	-0.39984614
4	0x3e0fe360	0.1405158
5	0xbe359bc0	-0.17735195
6	0x3e41996f	0.18906187
7	0x3e942264	0.28932488
8	0x3f1d36f6	0.6141199
9	0x3e92568e	0.2858166
10	0x3ea10f37	0.3145692
11	0x3b975fd5	0.0046195784
12	0xbecb760b	-0.39738497
13	0x3f0349cc	0.5128448
14	0x3e0a0207	0.13477336
15	0x3ee6131b	0.4493645

net.2.weight f4 [1, 16]
0	0xbed64ef9	-0.41857126
1	0xbe805822	-0.2506724
2	0x3de7ec5d	0.113243796
3	0xbe737c12	-0.23777798
4	0xbeec26d4	-0.46123374
5	0xbe847fff	-0.25878903
6	0xbee3406e	-0.44385093
7	0xbe8c8d67	-0.2745163
8	0xbe410a61	-0.18851615
9	0xbe9531f7	-0.29139683
10	0xbe75ab25	-0.23991068
11	0x3db6f84f	0.0893408
12	0x3e26d0a4	0.16290528
13	0xbe40da55	-0.18833287
14	0x3dc35a58	0.09538716
15	0xbea9a456	-0.3313319
