eval_runs/ml/ml_enhanced_20250901_111226/model.pt (torch, 23012 bytes, 19 tensors)

net.0.weight f4 [64, 16]
0	0xbe47e7f4	-0.19522077
1	0x3d1f2ecd	0.038862992
2	0xbd0ca125	-0.034333367
3	0xbd64c339	-0.05585024
4	0xbda6c127	-0.0814231
5	0x3dfecdf5	0.12441627
6	0x3e2db56f	0.16963743
7	0xbe7004c9	-0.23439325
8	0xbc30bb57	-0.010786853
9	0xb6fa0e00	-7.4522104e-06
10	0x3e07a54b	0.13246648
11	0x3e27e0c5	0.16394337
12	0x3c6b925f	0.014378159
13	0xbd881a01	-0.06645585
14	0xbdc6a542	-0.09699489
15	0x3c6cb0f1	0.014446483
16	0x3d978945	0.07399229
17	0xbcc8b860	-0.02450198
18	0xbe4528db	-0.19253866
19	0x3e8357f6	0.25653046
20	0xbe828e9c	-0.25499427
21	0x3e6e6d63	0.23283915
22	0x3e64bbe0	0.22337294
23	0x3d8155cc	0.063151926
24	0xbc83750a	-0.01604702
25	0x3df3814b	0.11889895
26	0x3e4468f7	0.19180666
27	0x3df63c67	0.120232396
28	0x3e32b131	0.17450406
29	0x3db93b9c	0.09044573
30	0xbe7614dc	-0.24031395
31	0xbdd132a6	-0.102147385
32	0xbdb11bd5	-0.08647887
33	0xbe6bfabd	-0.23044868
34	0x3dd322e0	0.10309386
35	0xbc19d744	-0.009389702
36	0xbe18d952	-0.14926651
37	0x3e033fb4	0.1281727
38	0x3de5b884	0.11216834
39	0xbdc03405	-0.09384922
40	0xbd1b07b6	-0.03784915
41	0x3be0d483	0.006861271
42	0x3e63c6de	0.2224383
43	0xbe435ad1	-0.19077612
44	0x3e4896a5	0.19588716
45	0x3dcdeef1	0.1005534
46	0x3deab1b7	0.11459678
47	0x3c015556	0.007893881
48	0xbcdf76c5	-0.027278313
49	0xbc53f811	-0.012937562
50	0x3d9df3e3	0.07712533
51	0xbdc5c511	-0.09656728
52	0x3d968bb3	0.07350864
53	0x3d9788a7	0.07399111
54	0x3d43f9e3	0.047845732
55	0x3da9f73a	0.08299108
56	0xbe5b8b41	-0.2143984
57	0x3d0e5d19	0.034756754
58	0x3de10106	0.10986523
59	0xbd80f44d	-0.06296597
60	0x3dc50f46	0.09622054
61	0x3c65a881	0.014017225
62	0xbe0f3100	-0.13983536
63	0x3dfca8fa	0.12336917
64	0xbd7985f4	-0.060918763
65	0xbdadd6b3	-0.08488216
66	0xbe0cb1ae	-0.13739654
67	0x3e38cacd	0.18046112
68	0xbde1b76a	-0.110213116
69	0xbe53f84d	-0.20700188
70	0xbe626ba7	-0.22111379
71	0xbe5573d2	-0.20844963
72	0xbe364cb6	-0.178027
73	0xbe858529	-0.26078156
74	0x3e4abbd4	0.19798213
75	0xbdaa3bab	-0.08312162
76	0xbe3a1c56	-0.18174872
77	0xbe76c907	-0.24100123
78	0x3e000ce9	0.12504925
79	0xbe0bf63f	-0.13668154
80	0xbd96e8fc	-0.07368657
81	0xbdb2e87e	-0.087357506
82	0xbdb1a836	-0.08674662
83	0x3d7f8feb	0.06239311
84	0x3e232b4b	0.15934484
85	0x3e4cfef3	0.2001913
86	0xbe223171	-0.15839173
87	0xbe114dc7	-0.14189826
88	0x3ca316e3	0.019908374
89	0x3e1cc659	0.15310039
90	0x3cdfdd9a	0.027327348
91	0xbe2df915	-0.16989549
92	0x3e6c6757	0.23086296
93	0xbe550712	-0.20803478
94	0x3e1ab5bb	0.15108387
95	0xbe0cc435	-0.13746722
96	0x3dac5f85	0.084166564
97	0xbddbcc8b	-0.10732373
98	0x3d4b4868	0.0496296
99	0x3d2f5245	0.042803068
100	0xbd9c157c	-0.07621285
101	0xbe54d78d	-0.20785351
102	0xbe323926	-0.17404613
103	0xbe3ce12e	-0.18445274
104	0x3e2c0711	0.1679957
105	0x3e09d68e	0.13460752
106	0x3e7ede2a	0.24889436
107	0x3e80a959	0.25129202
108	0xbdc7cb78	-0.097556055
109	0x3c62be9f	0.013839393
110	0xbe788b1d	-0.24271818
111	0x3daeda86	0.08537774
112	0x3d85f1bb	0.06540247
113	0xbe16ddbf	-0.14733027
114	0xbe56accb	-0.20964353
115	0x3cba89af	0.02277073
116	0x3c1477e4	0.009061787
117	0x3d4867d6	0.04892715
118	0xbcf29281	-0.029610874
119	0xbe33321a	-0.17499581
120	0x3cb31bf8	0.021863922
121	0x3e3e1e3d	0.18566222
122	0xbd0ad9d0	-0.03389913
123	0xbe41b3bf	-0.18916224
124	0x3e725928	0.23666823
125	0xbe5dd95d	-0.21664949
126	0x3daa74ae	0.08323036
127	0x3e743d12	0.23851421
128	0xbca6c571	-0.02035782
129	0x3d770509	0.060307536
130	0x3e395d7f	0.18102072
131	0x3e64c6ce	0.22341463
132	0x3da6ce31	0.08144797
133	0x3d317f54	0.04333432
134	0x3dcca7c8	0.09992939
135	0x3e36161b	0.1778187
136	0xbe2f7388	-0.17133915
137	0xbe586e9f	-0.21135949
138	0xbe4764cb	-0.19472043
139	0x3e635e9c	0.2220406
140	0xbe20a6f9	-0.15688695
141	0xbe1ca29e	-0.15296409
142	0x3e1f9bf8	0.15586841
143	0x3df65051	0.12027038
144	0xbe32b0b1	-0.17450215
145	0x3d9ad23b	0.075596295
146	0xbe1a57b4	-0.15072519
147	0xbe7789d0	-0.24173665
148	0xbd9a954e	-0.07548009
149	0x3e0ee068	0.13952792
150	0xbc8ab789	-0.01693322
151	0x3c22b6bd	0.0099312635
152	0x3e831f9c	0.25610054
153	0x3d73169b	0.05934773
154	0x3e79d0e1	0.24396087
155	0xbcd46234	-0.025925733
156	0xbe52253b	-0.20522015
157	0x3e6e9050	0.23297238
158	0xbdc2e72b	-0.09516748
159	0x3d4bbfdf	0.04974353
160	0xbb2e04e2	-0.0026553203
161	0xbe3670da	-0.17816487
162	0x3dcb1c3d	0.099174954
163	0x3d23d008	0.039993316
164	0xbdf69044	-0.12039235
165	0x3ddbf433	0.10739937
166	0xbe424f5f	-0.1897559
167	0x3e19c269	0.15015568
168	0xbe176972	-0.14786318
169	0x3da1b73f	0.078962795
170	0xbc710f41	-0.0147131095
171	0x3c85fea2	0.01635677
172	0xbc6a47e0	-0.014299363
173	0x3e419918	0.18906057
174	0x3c96d508	0.018412128
175	0x3e4d971e	0.20077178
176	0x3e2fdccd	0.17174073
177	0xbe494a94	-0.19657356
178	0xbe45445d	-0.1926436
179	0x3e68bc0f	0.22727989
180	0x3ca8aaac	0.020589195
181	0x3d96f6fc	0.07371327
182	0x3d058dcc	0.03260593
183	0xbd0a1e87	-0.03372052
184	0x3e5df035	0.21673663
185	0xbe7bb2df	-0.24579953
186	0xba9537d3	-0.0011384435
187	0x3dd371d1	0.10324443
188	0xbe826730	-0.2546935
189	0x3e214ef5	0.15752776
190	0x3e444793	0.19167928
191	0x3e7af054	0.2450574
192	0xbdd49685	-0.10380272
193	0x3cd89260	0.026436985
194	0x3e35055a	0.17677823
195	0xbe49063c	-0.19631284
196	0xbdc746d2	-0.09730305
197	0x3e375218	0.1790241
198	0xbe3586f7	-0.17727266
199	0x3da3833b	0.079840146
200	0xbe12757c	-0.14302629
201	0xbe355cd4	-0.17711192
202	0x3e2244e6	0.15846595
203	0xbd875051	-0.06607116
204	0x3da6cb66	0.08144264
205	0x3d35bb0d	0.04436784
206	0x3e776d3b	0.24162762
207	0x3dba9110	0.091097
208	0xbe797cb6	-0.2436398
209	0x3ceac51a	0.028658438
210	0x3d2655d1	0.040609185
211	0x3d9c2794	0.076247364
212	0xbda13fab	-0.07873472
213	0x3e146562	0.144918
214	0xbc557324	-0.01302794
215	0xbcb323ae	-0.0218676
216	0x3e7cbac5	0.24680622
217	0x3d7dfe17	0.062009897
218	0x3d17fccd	0.037106324
219	0x3db945db	0.09046527
220	0xbdf3c09e	-0.11901973
221	0xbd949e86	-0.072567984
222	0x3be4a1e5	0.006977307
223	0xbd011f2b	-0.031523865
224	0x3dfe901d	0.12429831
225	0x3daef8c4	0.08543542
226	0xbe2ad10e	-0.1668131
227	0xbe46dbbd	-0.19419761
228	0xbd688b40	-0.056773424
229	0x3e0eda05	0.13950355
230	0xbe44a097	-0.19201885
231	0x3e2a60d3	0.16638498
232	0xbe4237d7	-0.18966614
233	0x3cb1094f	0.021610884
234	0x3dcb93bb	0.09940287
235	0xbe621211	-0.22077204
236	0xbda1fdf5	-0.079097666
237	0xbd488350	-0.048953354
238	0x3de7af54	0.11312738
239	0x3e0ebbc3	0.13938813
240	0xbb8f0eb0	-0.0043657646
241	0xbcc8409a	-0.024444867
242	0xbd1aa213	-0.037752222
243	0xbe39d54f	-0.18147777
244	0x3df0b3cb	0.11753043
245	0x3d225e5d	0.039640773
246	0xbcb6f4b5	-0.022333482
247	0xbe492979	-0.19644727
248	0xbe1a3824	-0.15060478
249	0x3df9f057	0.12204044
250	0x3ce1ad8a	0.02754857
251	0x3de36aa2	0.11104323
252	0x3e7bcc9a	0.24589768
253	0xbdc9e383	-0.098578475
254	0x3e1dbe8a	0.15404716
255	0x3e4aaaba	0.1979169

net.0.bias f4 [64]
0	0xbd1cca29	-0.038278732
1	0x3debf707	0.11521726
2	0xbd5e84a7	-0.054325726
3	0xbe64e616	-0.22353396
4	0xbe612558	-0.21986902
5	0x3e737164	0.23773724
6	0x3df05fa5	0.11736993
7	0x3e3fc693	0.18728094
8	0xbe6dc7fd	-0.2322082
9	0x3df0d106	0.11758618
10	0xbd03969b	-0.03212605
11	0xbdbf0b42	-0.09328319
12	0xbe20aa91	-0.15690066
13	0x3c805632	0.015666101
14	0x3e4a6569	0.19765247
15	0x3e3e3061	0.18573143
16	0xbdee528c	-0.11636838
17	0x3d98576f	0.07438552
18	0x3b95448e	0.0045552915
19	0x3e6f8f6e	0.23394558
20	0x3e353ee7	0.17699777
21	0xbe74cbe3	-0.23905902
22	0xbe4b1f75	-0.19836219
23	0xbe28bb40	-0.1647768
24	0x3e73c636	0.2380608
25	0xbe273d9a	-0.16332093
26	0xbcfd3aa7	-0.030911757
27	0xbe2f1238	-0.17096794
28	0x3da9f318	0.082983196
29	0xbe4e959a	-0.20174256
30	0xbe494d02	-0.19658282
31	0xbe73c969	-0.238073
32	0x3e3babdc	0.18327278
33	0xbd446504	-0.0479479
34	0x3e56e515	0.20985825
35	0x3d910c42	0.07082416
36	0x3e4bb2e7	0.19892465
37	0x3d7a2cf4	0.061078027
38	0x3e30612d	0.1722457
39	0x3e146540	0.14491749
40	0xbbf7a551	-0.007557549
41	0xbe49b677	-0.19698511
42	0xbe76fb77	-0.24119364
43	0x3e4e61e6	0.20154533
44	0xbd2876bb	-0.041128855
45	0xbe46f133	-0.19427948
46	0x3d43dde7	0.047819044
47	0xbd99545b	-0.07486793
48	0xbd17fc33	-0.03710575
49	0xbda3f907	-0.080064826
50	0x3e294156	0.1652883
51	0xbd569f07	-0.052397754
52	0xbd903db6	-0.070430204
53	0x3e428501	0.1899605
54	0xbe18bd62	-0.14915994
55	0x3e3e7a51	0.18601348
56	0x3e59a186	0.21253023
57	0x3c50e37c	0.012749549
58	0x3e110405	0.1416169
59	0x3e06729b	0.13129656
60	0xbdaf9fc9	-0.085753985
61	0xbdb30d55	-0.08742777
62	0x3d544fcb	0.05183391
63	0xbc33919f	-0.010960012

net.1.weight f4 [64]
0	0x3f7bf2b5	0.98417217
1	0x3f7e517c	0.99343085
2	0x3f810d8a	1.0082257
3	0x3f82aee9	1.0209628
4	0x3f7db98b	0.9911124
5	0x3f810b49	1.0081569
6	0x3f817933	1.0115112
7	0x3f7bf609	0.98422295
8	0x3f800b6f	1.0003489
9	0x3f814df7	1.0101918
10	0x3f80f82f	1.007574
11	0x3f7d290c	0.9889076
12	0x3f7ea819	0.99475247
13	0x3f806210	1.0029926
14	0x3f7d2335	0.98881847
15	0x3f7e6d54	0.9938557
16	0x3f7e0c52	0.9923755
17	0x3f80ffd8	1.0078077
18	0x3f7da781	0.99083716
19	0x3f81cf2e	1.0141351
20	0x3f812668	1.0089846
21	0x3f7cf8e1	0.9881726
22	0x3f800630	1.0001888
23	0x3f811ae3	1.008633
24	0x3f7db65c	0.99106383
25	0x3f81bf03	1.0136417
26	0x3f8243e6	1.0176971
27	0x3f827971	1.0193311
28	0x3f7c1525	0.98469764
29	0x3f7fa07d	0.9985426
30	0x3f80981d	1.0046421
31	0x3f80050a	1.0001538
32	0x3f8276d5	1.0192515
33	0x3f81a53f	1.0128554
34	0x3f813feb	1.0097631
35	0x3f7f6aae	0.99772155
36	0x3f7c96e0	0.98667717
37	0x3f80e572	1.0070021
38	0x3f814d06	1.0101631
39	0x3f7c17db	0.984739
40	0x3f7cdb6b	0.98772305
41	0x3f8053c9	1.0025569
42	0x3f7ac662	0.9795896
43	0x3f7c0027	0.9843773
44	0x3f82338e	1.0171983
45	0x3f7bc7af	0.9835157
46	0x3f803042	1.0014727
47	0x3f7e37e7	0.9930405
48	0x3f80009b	1.0000185
49	0x3f7eedc1	0.99581534
50	0x3f7d31cc	0.9890411
51	0x3f7f7691	0.9979029
52	0x3f7b2ada	0.9811226
53	0x3f7b3f72	0.98143685
54	0x3f7f15ea	0.99642813
55	0x3f827466	1.0191772
56	0x3f80cea1	1.0063058
57	0x3f824bbc	1.0179362
58	0x3f820148	1.0156641
59	0x3f7b7fd1	0.9824191
60	0x3f7b5351	0.98174006
61	0x3f7f3715	0.99693424
62	0x3f7bdac4	0.98380685
63	0x3f8043ea	1.0020726

net.1.bias f4 [64]
0	0xbc802908	-0.015644565
1	0x3a3ef7d1	0.00072848523
2	0x3c56b38e	0.013104333
3	0x3c488245	0.01223809
4	0xbb711f39	-0.0036792292
5	0x3c291bcb	0.010321568
6	0x3ba82113	0.005130896
7	0xbca3e8ad	-0.02000841
8	0x3bb06e0f	0.0053842138
9	0xbaeee803	-0.0018227104
10	0x3c463578	0.012097709
11	0xbb535bb1	-0.0032250697
12	0x3c37beb1	0.011214898
13	0x3b8213b2	0.003969633
14	0xbc250b7d	-0.01007354
15	0x3ba78604	0.0051124115
16	0x3c888446	0.016664635
17	0x3bde0320	0.006775275
18	0xbc355c60	-0.011069387
19	0x3c62c61a	0.013841176
20	0xbb5c28c0	-0.0033593625
21	0xbc8dbe6a	-0.01730271
22	0x3bdc7ffc	0.006729124
23	0x3bb98062	0.0056610564
24	0xbbfd1136	-0.007722999
25	0x3acb1267	0.0015493155
26	0x3bb58d56	0.00554053
27	0x3c92f48d	0.017938877
28	0xbc0c5fc8	-0.008567758
29	0x3bb80d7f	0.0056168432
30	0x3ba4cf85	0.005029621
31	0x3b3ab84d	0.00284912
32	0x3cb03034	0.02150736
33	0x3c850925	0.016239712
34	0xbaa98e08	-0.0012936005
35	0xbc416992	-0.011804955
36	0x3baff4c0	0.0053697526
37	0x3c114f60	0.008869022
38	0x3c3e1b3f	0.011603176
39	0xbb9811ed	-0.004640809
40	0xbc396403	-0.011315349
41	0x3c08cf27	0.00835017
42	0xbc8eb178	-0.017418608
43	0xbbc5bf04	-0.0060347337
44	0x3c8bd43e	0.017068978
45	0xbc396a0f	-0.01131679
46	0xbae2f0c5	-0.0017314187
47	0x3b9792c3	0.0046256497
48	0xbc7c7ee1	-0.01541111
49	0xbc83a8ab	-0.016071638
50	0xbc150f81	-0.009097935
51	0x3c20ab87	0.00980652
52	0xbca44e00	-0.020056725
53	0xbc514c59	-0.01277455
54	0xbc9bd3d4	-0.019021906
55	0x3ca7ff97	0.020507617
56	0xbc532932	-0.01288824
57	0x3c692cbb	0.014231856
58	0x3c0e8692	0.008699076
59	0x3b073dbc	0.0020636162
60	0xbc9c4053	-0.01907364
61	0xbc8a44cc	-0.016878508
62	0xbc374a00	-0.011187077
63	0x3b839090	0.004015036

net.1.running_mean f4 [64]
0	0x40f34ebf	7.6033626
1	0x411e48e9	9.8928
2	0x40a1b2c4	5.053072
3	0x400b0e1b	2.172736
4	0xc11ff79e	-9.997953
5	0xc0d990d1	-6.798928
6	0xc0ea1685	-7.315249
7	0xbf792b62	-0.9733182
8	0x40874876	4.2275953
9	0xbeefa794	-0.4680754
10	0xc102609b	-8.148585
11	0x3fd0ec07	1.632203
12	0xc0fa394d	-7.8194947
13	0xbf27ddd5	-0.65572864
14	0xc1018cdf	-8.096892
15	0xbee71215	-0.45130983
16	0x40fb5fd8	7.8554497
17	0x4055178c	3.3295622
18	0xc02073fb	-2.507079
19	0x401d0979	2.4537032
20	0x4128a360	10.539886
21	0x4049c479	3.1526167
22	0x40ddefa0	6.935501
23	0x41270b57	10.4402685
24	0xbfcd9734	-1.6061769
25	0x3e9b8fa2	0.3038302
26	0x3fdfa85e	1.7473257
27	0x411e4160	9.890961
28	0xbfa27b1d	-1.2693821
29	0x3fce635c	1.6124072
30	0x3faabd5a	1.3339036
31	0xc11ae3e6	-9.680639
32	0x407d1f82	3.955048
33	0x41168287	9.406867
34	0x412a6638	10.649956
35	0x40f7a8b5	7.739344
36	0x4037d58e	2.8724093
37	0x4006c8da	2.106009
38	0xc0abdef9	-5.3709683
39	0xc0a4427f	-5.133117
40	0xbede6f46	-0.4344427
41	0xc0e51318	-7.158581
42	0xc0cab26a	-6.334279
43	0x404ae26d	3.17007
44	0x408a948e	4.330634
45	0xc07fffaf	-3.9999807
46	0xc0faa83c	-7.8330364
47	0xc0389bf6	-2.884519
48	0x4085f684	4.1863422
49	0xc12cb3ab	-10.793864
50	0x41241f3b	10.257625
51	0x3e3a8b1a	0.18217126
52	0x4075f485	3.8430493
53	0xc0e77975	-7.2335763
54	0xc10d819f	-8.844146
55	0x408c3bbc	4.382292
56	0x3f8f347a	1.118789
57	0x405ed3f1	3.4816859
58	0x411a8437	9.657279
59	0xc02090ee	-2.5088458
60	0xc1135eba	-9.210627
61	0xc0e8ab76	-7.2709303
62	0x4073dbd3	3.810292
63	0xc0f8c443	-7.7739577

net.1.running_var f4 [64]
0	0x41f5e74a	30.737934
1	0x42b207a5	89.01493
2	0x4167c2ab	14.485026
3	0x40e53ec9	7.163914
4	0x4339230d	185.13692
5	0x424b27e0	50.78894
6	0x42343194	45.048416
7	0x4123acc8	10.229683
8	0x4165a9e1	14.353974
9	0x4192e35c	18.361015
10	0x42285b29	42.089024
11	0x4168816e	14.531599
12	0x425af25a	54.73667
13	0x4149a428	12.602577
14	0x423bd849	46.961216
15	0x421a1fda	38.531105
16	0x42215117	40.32919
17	0x41c22254	24.266762
18	0x41cae093	25.359655
19	0x4098eaeb	4.7786765
20	0x42dae5fb	109.44918
21	0x41a63884	20.777596
22	0x421fd03f	39.953365
23	0x42d1578a	104.670975
24	0x41dddcb6	27.732769
25	0x40556b23	3.334664
26	0x412ec911	10.9240885
27	0x42e949c4	116.64407
28	0x42126359	36.59702
29	0x4200bf8d	32.18706
30	0x3ff481c9	1.9102107
31	0x429f352e	79.60387
32	0x417fa53e	15.977842
33	0x428f6068	71.68829
34	0x4299acbe	76.83739
35	0x42d5dccb	106.93124
36	0x40fcfbd6	7.9057417
37	0x40af481e	5.4775534
38	0x42e916d5	116.54459
39	0x41fcb1b5	31.586771
40	0x4250bb82	52.183113
41	0x42f6158b	123.042076
42	0x421bb77e	38.92919
43	0x40a4622c	5.136984
44	0x4213f75a	36.991554
45	0x41d78570	26.940155
46	0x423fec4e	47.980766
47	0x40a85d1e	5.261367
48	0x41a5e4d3	20.73673
49	0x42ab2e96	85.59099
50	0x4310fe50	144.99341
51	0x413a7ed8	11.655968
52	0x41b03f6d	22.03097
53	0x42440e1d	49.013783
54	0x428105bf	64.51122
55	0x41208eba	10.034845
56	0x40a02518	5.004528
57	0x414a1b7c	12.63171
58	0x42881947	68.04937
59	0x41c16dc0	24.178589
60	0x422260dd	40.594593
61	0x42652c96	57.29354
62	0x4118a9ea	9.541483
63	0x4222519c	40.579697

net.4.weight f4 [32, 64]
0	0xbdb56b75	-0.088583864
1	0x3bbadbf8	0.005702492
2	0x3d15e739	0.036597464
3	0x3e05cbb3	0.13065986
4	0x3dc16071	0.09442223
5	0xbc8d7819	-0.017269181
6	0xbde1de84	-0.110287696
7	0x3d102fc9	0.03520182
8	0x3c344b7d	0.011004326
9	0x3cf8496e	0.030308452
10	0x3d89149a	0.066933826
11	0x3cb78fc9	0.02240743
12	0xbbadc46e	-0.0053029573
13	0xbd4f97dd	-0.050681937
14	0x3c74ff33	0.014953422
15	0x3d54f2ba	0.051989295
16	0x3ced3a66	0.02895851
17	0x3d5bf424	0.053699628
18	0xbde071e2	-0.109592214
19	0xbc898d41	-0.016790988
20	0xbbf293f0	-0.0074028894
21	0xbdd54c11	-0.10414899
22	0xbc6258d0	-0.01381512
23	0x3c052362	0.008126112
24	0xbd1f1f4a	-0.0388482
25	0x3cb5abde	0.02217668
26	0x3dfc9b4e	0.123343095
27	0x3dc5cf8c	0.09658727
28	0xbdc3fa0e	-0.095691785
29	0x3da7af79	0.08187766
30	0xbd8d17f8	-0.06889337
31	0xbdd53ad6	-0.10411613
32	0x3d83ec0f	0.06441509
33	0xbd451e71	-0.048124734
34	0xbda64c69	-0.08120043
35	0x3d911761	0.07084537
36	0xbd2e5fae	-0.042571716
37	0x3d7746e5	0.060370345
38	0x3dc12698	0.09431189
39	0x3dd291ba	0.102817014
40	0xbda21064	-0.079132825
41	0xbc82352c	-0.015894495
42	0x3d5a8e4c	0.05335836
43	0xbd8325a6	-0.06403665
44	0x3de822de	0.113347754
45	0x3d96e392	0.07367624
46	0xbdd593b6	-0.10428564
47	0xbdf21ff8	-0.11822504
48	0x3d229573	0.039693307
49	0xbd52324d	-0.0513175
50	0xbd068943	-0.032845747
51	0xbdd20eba	-0.10256715
52	0x3d1029c2	0.035196073
53	0x3da00a29	0.07814438
54	0xbdbfbf7c	-0.093626946
55	0x3da48b82	0.080344215
56	0x3a29d1bf	0.0006478093
57	0x3cfcc360	0.03085488
58	0x3db00275	0.08594219
59	0x3dac4238	0.08411068
60	0x3dcce60b	0.10004815
61	0x3d549d29	0.051907692
62	0x3c791003	0.015201571
63	0x3dd74b30	0.10512388
64	0xbb986c61	-0.0046515916
65	0xbccf8ddf	-0.025336204
66	0x3d7689a8	0.060189873
67	0x3d280e9c	0.041029558
68	0xba07b57c	-0.00051768846
69	0x3c571b13	0.013129014
70	0xbdddc28e	-0.10828124
71	0xbc8d4a94	-0.017247476
72	0xbe0322e1	-0.12806274
73	0x3d9dcb3f	0.07704782
74	0x3b61e309	0.00344676
75	0x3d48f25b	0.049059253
76	0x3ac35adf	0.0014904401
77	0xbd4563a1	-0.048190717
78	0xbbdcfa90	-0.0067437366
79	0xbd5e0183	-0.05420066
80	0x3db8febb	0.09032961
81	0xbe02bda5	-0.12767656
82	0x3d7e9188	0.06215051
83	0x3d8c91cc	0.06863746
84	0xbc0c4e57	-0.0085636
85	0x3d9c622d	0.07635913
86	0x3dfe9903	0.124315284
87	0x3d5737f8	0.05254361
88	0x3dd7ed56	0.10543315
89	0x3cdb7196	0.02678756
90	0xbdcfdfd8	-0.10150117
91	0xbdf3f384	-0.11911681
92	0x3d40d405	0.047077198
93	0xbdd8a725	-0.10578755
94	0x3e029171	0.12750794
95	0x3d032c69	0.032024775
96	0xbdeb195b	-0.114794455
97	0x3d66f73e	0.056388132
98	0xbdf9462d	-0.12171588
99	0xbe09af55	-0.1344579
100	0x3dd87e0b	0.10570916
101	0x3c7814ab	0.015141646
102	0x3c9b2362	0.01893777
103	0x3d0fc0ec	0.035096094
104	0xbde762ea	-0.11298163
105	0xbd5a57e7	-0.053306486
106	0x3c0d4f4b	0.008624862
107	0x3d001daf	0.03127831
108	0x3d94eeab	0.07272085
109	0x3d65e956	0.05613073
110	0xbe0c3f73	-0.13696079
111	0x3d0f3db8	0.03497097
112	0xbd0ae88e	-0.033913188
113	0xbdcaf611	-0.09910215
114	0x3da815e0	0.08207297
115	0x3d78b3ee	0.06071847
116	0xbd955c4d	-0.072929956
117	0x3da5c3b2	0.080939665
118	0xbd880f17	-0.06643503
119	0x3d398983	0.045297157
120	0xbb07ff36	-0.0020751483
121	0x3e035af3	0.12827663
122	0xbc496883	-0.012292984
123	0xbd8aebfb	-0.06783291
124	0x3da67205	0.08127216
125	0xbd42f46c	-0.04759638
126	0xbdba8d4e	-0.09108983
127	0xbdfc74d3	-0.1232697
128	0xbdc9cf2e	-0.098539695
129	0xbd948d68	-0.072535336
130	0xbd2b82f9	-0.041872952
131	0x3dc81bcc	0.09770927
132	0xbdd42180	-0.10357952
133	0x3df4248e	0.11921035
134	0x3d9ce7fd	0.07661436
135	0x3d8e4cfc	0.06948277
136	0x3d74a54a	0.059727944
137	0x3cda2865	0.02663059
138	0x3d1fe490	0.039036334
139	0x3dc02e29	0.09383804
140	0x3b8969f5	0.0041935393
141	0xbb88823a	-0.004165915
142	0xbca1381c	-0.019680075
143	0xbd9a47b3	-0.07533207
144	0x3a6b3fc5	0.0008974041
145	0xbdef8bf5	-0.116966166
146	0x3de283b3	0.11060276
147	0x3d3eb41b	0.04655848
148	0x3d439b10	0.0477553
149	0xbd10bed5	-0.03533824
150	0xbd76c48f	-0.060246047
151	0xbdd3de68	-0.10345155
152	0x3d837dc1	0.0642047
153	0x3bb47bd4	0.0055079255
154	0x3c962470	0.018327922
155	0x3bdbbed8	0.0067061
156	0x3de26dd2	0.11056103
157	0xbd1b0c41	-0.037853483
158	0x3de1d6d5	0.11027304
159	0xbd2f65f6	-0.042821847
160	0x3c1e53bb	0.009663518
161	0xbdf54405	-0.11975864
162	0x3b9b3a65	0.004737186
163	0x3dd58b50	0.104269624
164	0x3ddf76c6	0.10911326
165	0x3d909522	0.07059695
166	0x3cdbf1b8	0.026848659
167	0x3d8801e0	0.06640983
168	0x3dd57501	0.10422707
169	0x3be5c1a1	0.0070116078
170	0x3de17653	0.11008897
171	0x3d8514ee	0.06498133
172	0x3a1f3340	0.00060730055
173	0xbdf73de6	-0.12072353
174	0x3a741e59	0.00093123835
175	0xbd811adf	-0.063039534
176	0x3d7c1009	0.06153873
177	0x3d5c465d	0.05377804
178	0x3d804b96	0.06264417
179	0x3d5b7b45	0.053584356
180	0x3dbb0590	0.0913192
181	0xbddcae78	-0.10775465
182	0x3dba63b3	0.09101047
183	0xbc62b085	-0.013836031
184	0x3daffbd0	0.08592951
185	0x3d17ceb5	0.037062366
186	0x3de36e14	0.1110498
187	0x3d0ac11a	0.033875562
188	0xbcb4f142	-0.022087697
189	0xbc93b369	-0.018029885
190	0x3c816dfd	0.015799517
191	0x3d3efc8d	0.04662757
192	0x3dcbe63f	0.09956025
193	0x3d95af51	0.073088296
194	0xbbc2d2ef	-0.0059455554
195	0x3de80f5e	0.11331056
196	0xbdb4e7f1	-0.08833302
197	0xbdd0203e	-0.101624
198	0x3dd777d9	0.10520906
199	0x3dbb9b68	0.09160501
200	0x3de019d6	0.10942428
201	0x3daa518c	0.08316335
202	0xbd4d3791	-0.05010182
203	0x3dc4b3a2	0.09604575
204	0xbdfdba40	-0.1238904
205	0xbd0e021e	-0.034669988
206	0x3d8b5cb0	0.06804788
207	0x3de4f3ad	0.1117929
208	0x3db14a4d	0.0865675
209	0xbde0d835	-0.10978738
210	0x3d5c3795	0.053763945
211	0x3dafee3f	0.08590364
212	0xbc874af7	-0.016515238
213	0x3c56fa80	0.013121247
214	0x3d71529f	0.058916684
215	0xbb79c1ab	-0.003810982
216	0x3aa8a99a	0.0012867928
217	0xbd6c08c6	-0.057625555
218	0x3cd90154	0.026489891
219	0x3d339422	0.043842442
220	0xbd2cf2a9	-0.042223606
221	0x3df28512	0.118417874
222	0x3c866731	0.016406627
223	0xbd1683b9	-0.036746714
224	0x3d9b8ad9	0.075948425
225	0x3b7b23cc	0.0038320897
226	0x3e06c6e5	0.1316181
227	0x3de261fa	0.11053844
228	0x3df969ce	0.12178384
229	0x3dba1382	0.09085752
230	0x3dbee9f7	0.09321969
231	0x3d89f191	0.06735528
232	0xbd482999	-0.048867796
233	0x3dc4c40f	0.09607708
234	0xbdd78381	-0.10523129
235	0x3db91e76	0.09039013
236	0xbd7164d6	-0.058934055
237	0x3d88bba2	0.06676413
238	0xbd7057e5	-0.058677573
239	0xbd2fc312	-0.042910643
240	0x3dde2775	0.108473696
241	0x3d8dc74e	0.0692278
242	0x3d9cbf16	0.07653634
243	0x3dd5e37b	0.10443779
244	0xbd4a8d47	-0.04945114
245	0x3daa9250	0.08328688
246	0xbcf918dc	-0.030407362
247	0x3d228b69	0.039683733
248	0x3daea262	0.08527066
249	0x3a0ae86f	0.00052989175
250	0xbc48d4b9	-0.012257748
251	0x3d1cfad5	0.03832515
252	0xbc4e72ed	-0.012600643
253	0xbdcf28a0	-0.101151705
254	0xbc728917	-0.014803193
255	0xbd7d50bc	-0.061844572

net.4.bias f4 [32]
0	0xbdaded6d	-0.08492551
1	0xbda58591	-0.080821164
2	0xbdb2e264	-0.08734587
3	0xbd522caf	-0.051312145
4	0x3dcce45c	0.100044936
5	0x3df0e196	0.11761777
6	0x3b232dc6	0.002489911
7	0xbdff803d	-0.124756314
8	0xbcc6b372	-0.024255488
9	0x3d1b811f	0.037964936
10	0xbd43d700	-0.04781246
11	0x3c0d15b5	0.008611132
12	0x3d8e6a50	0.06953871
13	0x3d987eb0	0.07446039
14	0xbc945904	-0.018108852
15	0xbda791b1	-0.08182085
16	0xbda8b4a5	-0.0823758
17	0xbc9c2050	-0.019058377
18	0x3dee7b35	0.116445936
19	0xbd354cf2	-0.044262834
20	0xbd2c785b	-0.042106967
21	0x3dd58ae0	0.10426879
22	0xbdce658d	-0.10077963
23	0x3c73f18e	0.014889134
24	0x3d8c3183	0.06845381
25	0xbd270c8a	-0.040783443
26	0xbd7063f5	-0.058689076
27	0x3dd96226	0.106144235
28	0x3c1099cd	0.008825731
29	0x3df98afd	0.12184713
30	0xbd91cf2d	-0.07119594
31	0xbdbaf470	-0.09128654

net.5.weight f4 [32]
0	0x3f813b38	1.0096197
1	0x3f7be5bd	0.9839743
2	0x3f82c54c	1.021646
3	0x3f7bf159	0.9841514
4	0x3f7f8dea	0.9982592
5	0x3f815c60	1.0106316
6	0x3f7d748a	0.9900595
7	0x3f8209a4	1.0159192
8	0x3f825f60	1.0185356
9	0x3f7cfd55	0.98824054
10	0x3f80a8e7	1.0051545
11	0x3f81161c	1.0084872
12	0x3f7a7505	0.9783481
13	0x3f7ef007	0.99585
14	0x3f810b32	1.0081542
15	0x3f7d9337	0.9905276
16	0x3f7bfa5c	0.98428893
17	0x3f8077e3	1.0036587
18	0x3f80cd75	1.00627
19	0x3f7be9ba	0.98403513
20	0x3f7d9b79	0.9906536
21	0x3f81a174	1.0127397
22	0x3f7f56ae	0.9974164
23	0x3f7d46cd	0.9893616
24	0x3f81a6e6	1.0129058
25	0x3f7fcba6	0.9992012
26	0x3f7cbff2	0.98730385
27	0x3f82a1cb	1.0205625
28	0x3f7f3b3e	0.9969977
29	0x3f81a5d0	1.0128727
30	0x3f8125c3	1.0089649
31	0x3f821a63	1.0164303

net.5.bias f4 [32]
0	0xbc5c09bf	-0.013430058
1	0xbc6939af	-0.014234944
2	0xbc0ed3fc	-0.008717533
3	0xbc576a9b	-0.013147975
4	0xbc7d4de8	-0.015460469
5	0xbc457e20	-0.012053996
6	0x3b07fdd7	0.0020750666
7	0x3c27075c	0.010194626
8	0x3c8e77e0	0.017391145
9	0x3b23140b	0.0024883773
10	0x3ca2b305	0.019860754
11	0x3c618f4b	0.013767074
12	0xbc925b19	-0.017865704
13	0xbbe74e78	-0.0070589148
14	0x3c00d82d	0.00786404
15	0xbc0cf6b7	-0.008603743
16	0xbbd19e81	-0.006397069
17	0xbac42401	-0.0014964343
18	0xbbb3cc48	-0.0054869987
19	0xbc93d052	-0.01804367
20	0xbb3f2947	-0.002916889
21	0x3c340f51	0.01098998
22	0xbc2eac21	-0.010661156
23	0x3bad0624	0.005280273
24	0x3c7f0883	0.015565994
25	0xbc8ac0c5	-0.016937623
26	0xbca3db2d	-0.020001972
27	0x3ca1931f	0.019723473
28	0x3c1f577e	0.00972545
29	0xba8c97d5	-0.0010726402
30	0x3c9d0b47	0.019170417
31	0x3c678cd9	0.014132702

net.5.running_mean f4 [32]
0	0x3e1b6e5a	0.15178815
1	0xbe21e1ad	-0.15808745
2	0x3ecccf9c	0.40002143
3	0x3f257a92	0.6464015
4	0x3e35f8c8	0.17770684
5	0x3eff4e93	0.49864635
6	0x3e072ad0	0.13199925
7	0x3d2687cb	0.040656846
8	0xbe9caa1f	-0.30598542
9	0xbdbe5d93	-0.092951916
10	0xbec99a34	-0.3937546
11	0x3dce14aa	0.10062535
12	0xbe265c77	-0.1624621
13	0x3d958163	0.07300069
14	0x3e6c6883	0.23086743
15	0xbd5035d9	-0.050832603
16	0xbecf96cb	-0.40544733
17	0xbe6d75fb	-0.23189537
18	0x3e5e309a	0.21698228
19	0xbd9831a9	-0.07431347
20	0xbecd03b7	-0.40041897
21	0x3ac7e635	0.0015251102
22	0x3e626f94	0.22112876
23	0xbe19688b	-0.14981286
24	0x3eea6a14	0.45784056
25	0x3d517259	0.05113444
26	0xbee0f57d	-0.43937293
27	0x3e9430d9	0.28943518
28	0x3e80c3a8	0.25149274
29	0x3ec2f44e	0.38077015
30	0x3d4699ef	0.048486646
31	0xbea2c527	-0.3179104

net.5.running_var f4 [32]
0	0x3dfc087f	0.12306308
1	0x3e3c4b28	0.18388045
2	0x3e1e4680	0.15456581
3	0x3f132750	0.5748186
4	0x3e500441	0.20314123
5	0x3e3e6138	0.18591774
6	0x3e853589	0.26017407
7	0x3e241ea9	0.16027321
8	0x3e873a9c	0.26411903
9	0x3e29a0a2	0.16565183
10	0x3e8f8485	0.28030792
11	0x3e4bbadc	0.198955
12	0x3f044cfa	0.51679957
13	0x3e1de13b	0.1541795
14	0x3e544e2f	0.2073295
15	0x3dfd83bd	0.12378643
16	0x3dd6c617	0.104870014
17	0x3e10cc6f	0.14140485
18	0x3de544ac	0.11194739
19	0x3e72e73b	0.2372102
20	0x3e4907c7	0.19631873
21	0x3df07055	0.11740176
22	0x3e61fc83	0.22068982
23	0x3e6175bc	0.22017568
24	0x3ef748da	0.4829777
25	0x3dbdc7d7	0.09266632
26	0x3f06dfd6	0.52685297
27	0x3eaf8f84	0.3428918
28	0x3ed515eb	0.41618285
29	0x3e466ec4	0.19378191
30	0x3e412b5a	0.18864194
31	0x3e4b14b7	0.19832121

net.8.weight f4 [16, 32]
0	0x3e22732f	0.15864252
1	0x3d8a4add	0.0675256
2	0x3dadcb4e	0.08486043
3	0x3e2b290b	0.16714875
4	0xbd6f2f07	-0.05839446
5	0x3e289a1e	0.16465041
6	0xbdb2973c	-0.08720252
7	0xbc320b75	-0.010866989
8	0x3d53a7a4	0.051673546
9	0x3e274add	0.16337152
10	0x3e1aa261	0.15101005
11	0x3dfb3e97	0.122677974
12	0xbd48b4af	-0.04900044
13	0xbb951cc3	-0.004550548
14	0x3df18206	0.11792378
15	0x3d1d09ff	0.03833961
16	0xbdfa014d	-0.12207279
17	0x3ddf2a71	0.10896767
18	0x3e0015a3	0.12508254
19	0xbcebb5ee	-0.028773274
20	0x3dcaebf5	0.099082865
21	0x3da20e49	0.07912881
22	0x3cb358cc	0.021892928
23	0x3e03fb39	0.12888803
24	0xbe3d1db6	-0.18468365
25	0x3d5d910c	0.054093406
26	0xbe17549f	-0.14778374
27	0x3e31c4ed	0.17360277
28	0x3d27ee8e	0.040998988
29	0x3c91e71b	0.017810395
30	0x3b484703	0.0030559904
31	0xbd1781a2	-0.03698886
32	0x3dc90725	0.09815816
33	0xbe0dfa36	-0.13864979
34	0x3da3fd26	0.080072686
35	0xbcdf617a	-0.02726816
36	0xbd5cab35	-0.053874213
37	0xbd7706ad	-0.0603091
38	0x3d11e47d	0.035618294
39	0x3dc1d2e0	0.09464049
40	0xbcd5c43e	-0.026094552
41	0x3da3d068	0.07998735
42	0x3e063a0f	0.13108085
43	0x3d0bed65	0.034161944
44	0xbcb427b0	-0.02199158
45	0xbdd7ab61	-0.10530735
46	0xbd112e39	-0.035444472
47	0xbde7e12f	-0.11322247
48	0x3e24fbb5	0.16111644
49	0xbd90bdcc	-0.07067451
50	0x3da1518c	0.07876882
51	0x3e34767c	0.17623323
52	0xbde0e675	-0.10981456
53	0x3dd3954c	0.103312105
54	0x3d2b91a9	0.04188696
55	0xbddf578e	-0.109053716
56	0xbe115623	-0.14193015
57	0xbde08183	-0.109622024
58	0xbc184944	-0.009294812
59	0xbda96518	-0.08271235
60	0xbe26d4c9	-0.16292109
61	0x3e30877a	0.1723918
62	0x3d02946e	0.031879835
63	0x3dc3baf2	0.09557141
64	0xbdd68922	-0.10475375
65	0xbe0714ff	-0.13191603
66	0x3d9a36b2	0.075299636
67	0xbe2ddbf5	-0.16978438
68	0x3d88de71	0.06683052
69	0x3d4a17ee	0.049339227
70	0xbd676622	-0.056493886
71	0xbe03e1be	-0.12879083
72	0x3e45fa42	0.19333747
73	0xbdc2c78d	-0.095107175
74	0x3dfa008d	0.12207136
75	0x3df2503a	0.11831708
76	0xbd039832	-0.032127567
77	0xb99d192f	-0.00029964137
78	0x3de7e820	0.11323571
79	0xbde14678	-0.10999769
80	0xbd5afe8f	-0.053465422
81	0xbdb09cb0	-0.08623636
82	0x3e03033a	0.127942
83	0x3d3e2a2c	0.046426937
84	0x3ad60e76	0.0016331214
85	0xbe1f101d	-0.1553349
86	0xbda42536	-0.0801491
87	0x3d19d5ce	0.037557416
88	0x3c0ec4ea	0.00871394
89	0xbd54f022	-0.05198682
90	0xbba34551	-0.0049826284
91	0xbdbb681f	-0.09150719
92	0xbc11f38a	-0.008908162
93	0xbda7c747	-0.08192306
94	0x3d7fb031	0.06242389
95	0x3e02e415	0.12782319
96	0xbb802c05	-0.0039114975
97	0xbce3a7ef	-0.027790038
98	0x3de67f2d	0.112547256
99	0x3d48a481	0.04898501
100	0x3e162c1f	0.14665268
101	0xbc48b459	-0.0122500295
102	0xbde06c9a	-0.10958214
103	0xbe295174	-0.16534978
104	0x3d8e3360	0.06943393
105	0xbe0b8b76	-0.13627419
106	0xbdfc44e0	-0.12317824
107	0x3e416460	0.18885946
108	0xbca25947	-0.019817961
109	0xbc877937	-0.016537292
110	0xbddf8fb9	-0.10916085
111	0xbd2d7e00	-0.04235649
112	0xbdc1a30e	-0.09454928
113	0xbd6249c0	-0.055246115
114	0x3d060df4	0.03272815
115	0x3d9580c7	0.07299953
116	0xbd5ae90c	-0.053444907
117	0x3a3a99c7	0.00071182515
118	0x3e109e12	0.14122799
119	0xbdf8e7d4	-0.12153593
120	0xbdf62747	-0.1201921
121	0xbdeed7e6	-0.11662273
122	0x3d7d34ff	0.06181812
123	0xbdbe387d	-0.09288118
124	0xbd32986f	-0.043602403
125	0x3cce3570	0.025171965
126	0xbe30c901	-0.17264177
127	0xbd539a72	-0.051660962
128	0xbe0fa274	-0.14026815
129	0xbdbbb340	-0.091650486
130	0x3dcda6f8	0.100416124
131	0x3d8ad001	0.06777955
132	0xbd5c524c	-0.053789422
133	0x3db66688	0.08906275
134	0x3d9c1efa	0.07623096
135	0xbe0890b4	-0.1333645
136	0xbdd0e621	-0.102001436
137	0xbd9cb0f5	-0.076509394
138	0x3e038772	0.12844637
139	0xbb8cec45	-0.0043006265
140	0xbddefe44	-0.10888341
141	0x3d99d70f	0.07511722
142	0x3e15236a	0.1456429
143	0xbdff75b1	-0.1247362
144	0xbd48040a	-0.048831977
145	0x3d9143b8	0.070929945
146	0xbdda19e4	-0.106494695
147	0x3df53dee	0.11974703
148	0x3e38ea47	0.1805812
149	0xbe05286b	-0.130037
150	0x3db4e818	0.08833331
151	0xbe0cac6a	-0.13737646
152	0xbdaeace2	-0.085290685
153	0xbda3c382	-0.079962745
154	0x3d60916d	0.05482619
155	0xbe0d499a	-0.13797608
156	0x3ddcbf32	0.10778655
157	0xba3ad6f8	-0.000712737
158	0x3e222e62	0.15838006
159	0xbc229316	-0.009922763
160	0x3e02a0f6	0.12756714
161	0xbdade01f	-0.08490013
162	0xbde0ad3e	-0.10970543
163	0xbde37973	-0.11107149
164	0x3e0e62a6	0.13904819
165	0x3dca7725	0.09886006
166	0x3dc73bd2	0.09728207
167	0xbcadc8c1	-0.021213891
168	0xbcc1c6b7	-0.023654325
169	0xbda32f39	-0.079679914
170	0xbdd58908	-0.10426527
171	0xbdc1ab6a	-0.09456523
172	0x3de97f8f	0.11401283
173	0x3d0aa1a2	0.03384555
174	0x3db532e9	0.08847601
175	0x3d5335a4	0.051564828
176	0x3ddf30e0	0.10897994
177	0x3e043113	0.12909345
178	0xbd3bbc9b	-0.045834165
179	0xbe2d0677	-0.16896997
180	0x3c0f6899	0.008752965
181	0x3d70209a	0.05862484
182	0x3e1ee915	0.15518601
183	0xbdd0778e	-0.10179053
184	0x3e2ae581	0.16689111
185	0xbdee26ee	-0.11628519
186	0xbdaba823	-0.08381679
187	0x3ddffb0d	0.10936556
188	0xbc8d802f	-0.017273037
189	0x3e18676f	0.14883207
190	0x3dca312d	0.09872661
191	0x3e2937c3	0.16525178
192	0xbd9f9596	-0.07792203
193	0xbd6ce0d5	-0.057831604
194	0xbe1bbc77	-0.15208612
195	0xbe28ac2a	-0.16471925
196	0x3d9e84b8	0.07740158
197	0xbccf97ad	-0.02534088
198	0x3d83b024	0.064300805
199	0x3e1f002a	0.15527406
200	0xbdea1b3b	-0.11430975
201	0xbe0a4c07	-0.13505565
202	0x3dc4ec85	0.09615425
203	0x3e244aca	0.16044155
204	0xbda26534	-0.07929459
205	0xbe09f4fd	-0.13472362
206	0xbb8eba2c	-0.0043556895
207	0x3de1b4aa	0.11020787
208	0x3e3ec643	0.18630318
209	0x3d9997bb	0.074996434
210	0x3e33542f	0.17512582
211	0x3e1b13df	0.15144299
212	0x37dca84a	2.630441e-05
213	0x3e392434	0.18080217
214	0x3d86aa04	0.06575397
215	0x3d8b5645	0.06803564
216	0x3e06930f	0.13142036
217	0xbe1f68c4	-0.15567309
218	0x3dc7c7d1	0.09754909
219	0xbd84e362	-0.06488682
220	0x3dc8eb77	0.09810536
221	0x3b83e79e	0.0040254137
222	0xbd853ae2	-0.06505372
223	0xbdb1a5d6	-0.08674209
224	0x3bef6a42	0.007306368
225	0xbdbceb3a	-0.092245534
226	0xbe34a1dc	-0.1763987
227	0x3e26ee26	0.16301784
228	0xbdc76a4d	-0.09737072
229	0xbe2c6db5	-0.16838725
230	0x3e1f4522	0.15553716
231	0xbd0c5588	-0.034261256
232	0xbe044e87	-0.12920581
233	0x3d91d802	0.07121278
234	0xbd473374	-0.048633054
235	0x3df6d626	0.12052564
236	0x3baf2e01	0.0053460603
237	0x3e0a349e	0.13496634
238	0x3d187eab	0.037230175
239	0xbd25dbd2	-0.04049284
240	0x3e1e44a1	0.15455867
241	0xbda1f429	-0.07907898
242	0x3ddbe1ee	0.10736452
243	0xbddd6c88	-0.10811716
244	0x3ceba76e	0.02876636
245	0xbdaf0df2	-0.08547582
246	0xbe03ba96	-0.12864146
247	0xbe18b9a2	-0.14914563
248	0xbe010ce1	-0.12602569
249	0xbe19c6d5	-0.15017255
250	0x3c940d08	0.01807262
251	0xbe3051ec	-0.1721875
252	0x3d11ee24	0.0356275
253	0x3bf73d3f	0.007545143
254	0x3c58cd67	0.0132325655
255	0xbe1376f9	-0.14400853

net.8.bias f4 [16]
0	0xbd07a7bc	-0.03311895
1	0xbe170ac3	-0.14750199
2	0x3d77116a	0.06031934
3	0x3ddd5930	0.10808027
4	0x3dbb3d14	0.09142509
5	0x3e102c49	0.14079393
6	0x3e19984d	0.14999504
7	0x3db71f7d	0.08941553
8	0xbd25a7e6	-0.040443324
9	0xbce98f74	-0.028510787
10	0x3e11820d	0.14209767
11	0x3d91d767	0.07121163
12	0xbe0f4db0	-0.13994479
13	0xbe0ccd80	-0.13750267
14	0xbd31b34b	-0.043383878
15	0xbe04799a	-0.12937012

net.9.weight f4 [16]
0	0x3f7a5ac1	0.9779473
1	0x3f830ca3	1.0238231
2	0x3f82fd64	1.0233579
3	0x3f7a3457	0.97736114
4	0x3f830203	1.0234989
5	0x3f830aac	1.0237632
6	0x3f7aa251	0.97903925
7	0x3f7e6f85	0.99388915
8	0x3f7a471f	0.9776477
9	0x3f82f3d3	1.0230659
10	0x3f82fe01	1.0233766
11	0x3f832eec	1.0248694
12	0x3f7a3365	0.9773467
13	0x3f7a662b	0.97812146
14	0x3f8305e6	1.0236175
15	0x3f7a3516	0.9773725

net.9.bias f4 [16]
0	0xbcb305e7	-0.0218534
1	0x3cc06fdb	0.023490837
2	0x3cbf2294	0.023331918
3	0xbcb99ee4	-0.022658773
4	0x3cc2104c	0.023689412
5	0x3cc147fc	0.023593895
6	0xbcaf2094	-0.02137784
7	0xbbbe7830	-0.0058126673
8	0xbcb8d774	-0.022563674
9	0x3cbabd61	0.022795381
10	0x3cbf731c	0.023370318
11	0x3ccbeaff	0.024892328
12	0xbcba6e02	-0.022757534
13	0xbcbbfb61	-0.022947015
14	0x3cc0ed72	0.023550723
15	0xbcbaf914	-0.022823848

net.9.running_mean f4 [16]
0	0x3eff9cb1	0.49924234
1	0xbe049a4c	-0.12949485
2	0xbd2d9767	-0.042380717
3	0xbe5b77ed	-0.21432467
4	0x3d187ea3	0.037230145
5	0x3edbe467	0.42947695
6	0x3ebd4f43	0.36974534
7	0xbe75d45b	-0.24006788
8	0x3da3bb91	0.0799476
9	0x3db47440	0.088112354
10	0xbd94f25f	-0.07272791
11	0xbd40e63f	-0.04709458
12	0xbe099378	-0.13435161
13	0xbe643eb1	-0.2228954
14	0xbd9e7deb	-0.07738861
15	0xbe26557d	-0.16243549

net.9.running_var f4 [16]
0	0x3ea7953a	0.32731038
1	0x3e2357ee	0.15951511
2	0x3e662322	0.2247434
3	0x3e3d6593	0.18495779
4	0x3e321853	0.17392091
5	0x3ef30748	0.47466493
6	0x3e194613	0.14968137
7	0x3e4b71a2	0.19867566
8	0x3e377558	0.17915857
9	0x3e513a61	0.20432426
10	0x3eaa1c23	0.33224592
11	0x3e27c861	0.16385032
12	0x3e8588e0	0.2608099
13	0x3e4d30a0	0.2003808
14	0x3e96f7d0	0.2948594
15	0x3e703734	0.23458558

net.12.weight f4 [1, 16]
0	0x3da63d5e	0.081171736
1	0xbdc981de	-0.09839223
2	0xbe84d023	-0.25940046
3	0x3e3db93f	0.18527697
4	0xbd837fd6	-0.06420867
5	0xbd8b8683	-0.068127654
6	0x3c56a830	0.013101622
7	0xbc599ed6	-0.013282498
8	0x3d5d61ea	0.054048456
9	0xbe42b101	-0.19012834
10	0xbe57cf79	-0.21075238
11	0xbcd9cb0e	-0.026586082
12	0x3e4ad2aa	0.19806924
13	0x3e0879d7	0.13327728
14	0xbe607e2d	-0.21923132
15	0x3e4eb580	0.20186424
