eval_runs/ml/ml_20250831_203135/model.pt (torch, 2825 bytes, 3 tensors)

net.0.weight f4 [16, 6]
0	0xbe33fde9	-0.17577328
1	0x3eda0307	0.42580435
2	0x3cf99acf	0.030469326
3	0x3e179679	0.14803495
4	0x3e1a2a87	0.15055285
5	0x3e6a357d	0.22871967
6	0xbe1f12a6	-0.15534458
7	0xbc96d691	-0.01841286
8	0x3d158e81	0.036512855
9	0x3dd36699	0.10322303
10	0xbe40d04d	-0.1882946
11	0x3e20964c	0.15682334
12	0x3e2b950a	0.16756073
13	0x3df667cb	0.12031516
14	0xbeb97733	-0.36223754
15	0xbe4b4df6	-0.19853958
16	0x3ebefcad	0.3730215
17	0x3ddb9a72	0.107228175
18	0x3d9ee74d	0.07758961
19	0x3ea3a3f1	0.31961015
20	0x3e00eec7	0.12591086
21	0x3f220087	0.63282055
22	0xbb884c90	-0.0041595176
23	0x3cfb16eb	0.030650577
24	0xbecbcce9	-0.39804772
25	0x3f021c41	0.5082436
26	0x3f0b9f65	0.5454009
27	0x3c03fa2e	0.008055253
28	0x3d191105	0.037369747
29	0xbe4f1de4	-0.20226246
30	0xbed70608	-0.4199679
31	0x3eb1edfc	0.3475188
32	0xbe705945	-0.23471554
33	0x3ede0325	0.43361774
34	0xbe908114	-0.2822348
35	0x3ead21b6	0.33814782
36	0xbee85f92	-0.45385414
37	0x3eda61c0	0.42652702
38	0x3e84c7f1	0.25933793
39	0x3eb55be1	0.3542166
40	0xbb3cc47a	-0.0028803633
41	0x3e2cc329	0.16871323
42	0x3e1cf873	0.15329151
43	0xbea3c7f1	-0.3198848
44	0xbb6808ed	-0.003540571
45	0xbe65bed1	-0.22436072
46	0x3ef335ee	0.47502083
47	0xbd0aa0bd	-0.0338447
48	0x3d05bb08	0.03264907
49	0x3d0332da	0.032030918
50	0xbe1ab136	-0.15106663
51	0xbd82d1d6	-0.06387679
52	0xbb21f424	-0.002471217
53	0x3ebf944e	0.37417835
54	0x3e42fa9b	0.19040911
55	0xbd49acf8	-0.04923722
56	0x3d84d07e	0.06485079
57	0x3ecc1b2d	0.39864483
58	0x3e9420f0	0.2893138
59	0x3d7c6968	0.06162396
60	0x3e330bd2	0.17484978
61	0x3e100356	0.14063773
62	0xbd8edb07	-0.0697537
63	0xbea7d8b7	-0.32782528
64	0x3e4b14da	0.19832173
65	0x3de56d04	0.11202434
66	0x3dc4ebef	0.09615313
67	0xbe5b534c	-0.21418494
68	0x3d734440	0.05939126
69	0x3ea07b6c	0.31344163
70	0xbaaab8e7	-0.0013025076
71	0x3e9255e5	0.28581157
72	0xbc92e14b	-0.017929694
73	0x3e2df0d5	0.16986401
74	0x3e8c9adc	0.27461898
75	0x3e9ed5a4	0.3102237
76	0x3d8aa159	0.06769056
77	0x3d7f4f19	0.062331293
78	0xbe1882fa	-0.14893714
79	0x3c3fc0ed	0.011703712
80	0xbda15ea7	-0.078793816
81	0xbe2ff081	-0.17181589
82	0xbe20dcd8	-0.15709245
83	0x3e1f8115	0.15576585
84	0x3ef7fef5	0.48436704
85	0xbd9e042f	-0.07715642
86	0xbe4beec3	-0.19915299
87	0xbe3af40c	-0.18257159
88	0xbc88a13e	-0.016678449
89	0xbe8c86c5	-0.2744657
90	0xbb3f0a6b	-0.0029150497
91	0x3de7ed8f	0.113246076
92	0x3e541339	0.20710458
93	0x3e4d843c	0.20069975
94	0xbed412d1	-0.41420606
95	0xbe2c1296	-0.16803965

net.0.bias f4 [16]
0	0x3f05fa30	0.5233488
1	0xbc81dfd6	-0.015853804
2	0xbf2cc58c	-0.6748893
3	0x3f1b438a	0.6064993
4	0x3eb4899c	0.35261238
5	0x3eda8e37	0.42686626
6	0x3ee2aaf6	0.44271058
7	0x3dd8ccf9	0.105859704
8	0x3ed5d9cf	0.41767737
9	0x3e0a6adb	0.13517325
10	0x3d329f56	0.043608986
11	0x3e9af402	0.30264288
12	0x3eb00466	0.34378356
13	0xbe2b47b4	-0.16726571
14	0x3e4f9995	0.2027343
15	0x3e3dbe01	0.18529512

net.2.weight f4 [1, 16]
0	0xbec0739e	-0.3758821
1	0x3d4fdf85	0.050750274
2	0x3e422980	0.18961143
3	0xbe49a620	-0.19692278
4	0xbea77852	-0.32708985
5	0xbe02d1b3	-0.12775306
6	0xbe90d9d8	-0.28291202
7	0x3db843aa	0.08997281
8	0xbecf4e4d	-0.40489426
9	0xbdb6b20c	-0.089206785
10	0x3d76d769	0.060264025
11	0xbee26454	-0.4421717
12	0xbedf5472	-0.43619114
13	0x3d5d0a3e	0.053964846
14	0x3d6f4517	0.0584155
15	0xbee10822	-0.43951517
