eval_runs/ml/ml_20250901_094226/model.pt (torch, 2825 bytes, 3 tensors)

net.0.weight f4 [16, 6]
000000 c4 51 f2 be 44 29 91 3e af 8d f6 3e c1 56 07 3f
       -0.47328007 0.28351796 0.4815497 0.5286675
000010 d1 e6 e9 3d 25 d5 f3 3d d7 44 4b 3e 77 91 90 bc
       0.11420978 0.119058885 0.19850479 -0.017647488
000020 b9 0d 10 3e 86 16 f7 be 28 63 2a 3e 38 50 a9 be
       0.14067735 -0.48259372 0.16639388 -0.33069015
000030 b2 34 a5 be 7f af 0a 3f ed 5f 13 3f d2 a6 eb 3d
       -0.32266766 0.54174036 0.57568246 0.11506428
000040 58 cd 19 bb 8e 5c df bd 01 b2 0d be 30 57 fc bd
       -0.0023468342 -0.10906325 -0.13837434 -0.12321317
000050 39 4b df be 41 0b ae be bc 5f a4 3e e8 3d 59 be
       -0.43612078 -0.3399296 0.3210429 -0.21215022
000060 fd 0a 76 be 31 48 31 bc 80 15 8e be 4d bf fe be
       -0.24027629 -0.010820434 -0.27750778 -0.49755326
000070 bf 58 d6 bc 77 7a 86 be 2f 48 b9 3c 70 c1 37 be
       -0.026165364 -0.26265308 0.022617428 -0.17944884
000080 2d e1 29 bd f9 ba 17 3d 8a c4 5a be e5 43 d1 be
       -0.04147451 0.037043545 -0.21364036 -0.40872112
000090 0b 5e 55 bd 51 af 50 3e c1 3c 94 3e 50 ee 6f 3e
       -0.05209164 0.20379378 0.28952602 0.23430753
0000a0 51 2e 44 3e 03 d5 88 3d 48 14 d7 be 4c 41 f4 3b
       0.19158293 0.06681254 -0.4200766 0.007454073
0000b0 c0 a9 03 bf c6 26 ce 3c 49 d4 9e 3e 3d b8 8c be
       -0.5143089 0.025164973 0.31021336 -0.27484313
0000c0 9a 93 1f bd c8 9d c5 bd 57 99 e6 bc 31 3c 10 3f
       -0.038959123 -0.09649235 -0.02814929 0.56341845
0000d0 95 cc 02 bf 01 f8 4d bd 0e 36 a3 3e 5b cc b0 be
       -0.5109342 -0.050285343 0.31877178 -0.3453091
0000e0 47 e7 af 3e ec aa fc be b0 87 33 3e 1d 6e 41 3e
       0.34356138 -0.49349153 0.1753223 0.18889661
0000f0 27 21 ed be 56 66 4f be fd bf 17 3e 3c ea 9c be
       -0.46314356 -0.20253882 0.14819331 -0.30647457
000100 c2 42 a2 3e bf a4 27 bd 19 22 41 be 32 4e 33 3c
       0.31691557 -0.0409286 -0.18860663 0.010943936
000110 0f a2 27 be 30 29 f6 3e e4 16 d0 be 6f 1d 50 3e
       -0.16370414 0.480783 -0.40642464 0.20323728
000120 17 e4 11 bf 65 4b a8 3e fd b6 f7 3e 0f 8d 8b 3c
       -0.5698866 0.3287002 0.48381796 0.017035035
000130 d2 f0 c1 be c3 42 a2 3e ec cc 99 bd 17 55 4c be
       -0.37879044 0.3169156 -0.07509789 -0.19954334
000140 1a 55 42 3e 2d 95 1f 3b 6e e9 9e 3e 47 91 88 3e
       0.18977776 0.002435039 0.31037468 0.26673338
000150 9e c1 c9 3d 0d fc 6a 3e 9a b2 20 3a 40 c1 4c 3b
       0.09851383 0.22947712 0.00061301293 0.0031243116
000160 21 bb 97 be 41 7b 44 3e e5 ef 20 bf de a2 26 3e
       -0.29634956 0.19187643 -0.6286605 0.16273066
000170 92 64 60 be 36 b2 8e 3e a2 e7 0e bf 34 a9 6e 3e
       -0.21913365 0.2787034 -0.55822194 0.23306733

net.0.bias f4 [16]
000000 9f b9 e1 3e b0 23 f3 bb cd d8 c8 3e 45 cf db be
       0.4408693 -0.0074200258 0.39227906 -0.42931572
000010 ba de 73 3d 1e f9 f0 3c 10 32 d8 3d ee 24 e9 bb
       0.05953858 0.029415663 0.10556424 -0.007114998
000020 40 26 18 bd 42 5c a3 be ce 53 3d be a0 fb 78 3e
       -0.037145853 -0.31906325 -0.18489 0.24314737
000030 36 b8 dd 3e ec a3 47 3e 08 67 82 3e 83 42 e4 bc
       0.43304604 0.19496125 0.25469232 -0.027863747

net.2.weight f4 [1, 16]
000000 94 63 a0 be 59 76 bd 3d 5f ab 97 be 98 16 31 3e
       -0.31325972 0.09251089 -0.29622933 0.17293775
000010 1c 0e 68 3c aa 69 1f bc 87 10 28 be 74 80 05 3e
       0.01416352 -0.009729782 -0.16412555 0.13037282
000020 b3 5a 9f be 8b 11 66 3e 57 f2 dd 3d 9c d6 ea be
       -0.31123886 0.2246763 0.10837238 -0.4586686
000030 35 ff 25 be 29 06 c3 be 71 44 df bb 36 ef 90 be
       -0.16210635 -0.38090637 -0.006813579 -0.28307503
