eval_runs/ml/ml_20250831_004955/model.pt (torch, 2825 bytes, 3 tensors)

net.0.weight f4 [16, 6]
0	0x3d3285ef	0.04358476
1	0xbe1eac48	-0.15495408
2	0xbe91f6fe	-0.28508753
3	0x3ea043f6	0.3130185
4	0x3e8afdcd	0.2714676
5	0xbe8accf6	-0.27109498
6	0xbeabd33c	-0.33559597
7	0x3ccc1fd8	0.024917528
8	0x3e09ebbb	0.1346883
9	0x3e03ec6d	0.12883158
10	0x3e611bbd	0.21983238
11	0x3eb0616a	0.3444932
12	0x3e933b86	0.2875635
13	0xbe24cb66	-0.16093215
14	0xbecaf3d3	-0.39639148
15	0xbe9a1254	-0.30092108
16	0xbd34b7f9	-0.044120762
17	0xbec71398	-0.38882136
18	0xbed24e56	-0.4107539
19	0x3e5b4787	0.21414004
20	0x3f13cdf2	0.5773612
21	0x3e0a0680	0.13479042
22	0x3c8be905	0.017078886
23	0x3e192601	0.14955904
24	0xbf01a11d	-0.50636464
25	0xbed8931f	-0.42299744
26	0xbe1b700d	-0.15179463
27	0xbc78fbab	-0.015196721
28	0x3ee592a0	0.44838428
29	0xbe9a76c9	-0.3016875
30	0xbee620a0	-0.44946766
31	0xbef7dd22	-0.48410898
32	0xbea3e28b	-0.32008776
33	0xbeb2561b	-0.34831318
34	0xbefb0f43	-0.4903508
35	0x3ec00ba7	0.3750889
36	0x3e1d0af1	0.15336205
37	0x3ec60216	0.38673466
38	0x3e608f1a	0.21929589
39	0xbea5b309	-0.32363155
40	0xbd226e2f	-0.03965586
41	0xbe06e4be	-0.13173196
42	0xbedbd79f	-0.42937943
43	0x3eb4f6a7	0.3534443
44	0x3e312553	0.17299394
45	0x3d855111	0.06509603
46	0xbee90f73	-0.455196
47	0x3ef1ae92	0.472035
48	0xbeb545f3	-0.3540493
49	0x3e34c0ae	0.17651626
50	0x3dc56d45	0.09639982
51	0x3f08b736	0.5340456
52	0xbedea915	-0.43488374
53	0x3e84c221	0.2592936
54	0x3e0310ee	0.12799427
55	0x3e849f4d	0.25902787
56	0x3f04147b	0.5159375
57	0x3e8062f8	0.25075507
58	0x3d594c44	0.05305125
59	0x3eba9599	0.3644226
60	0x3df4a582	0.119456306
61	0xbe88e8d6	-0.2674014
62	0xbe319de4	-0.17345387
63	0xbe9638b9	-0.2934015
64	0x3ee9623f	0.45582768
65	0xbe9f9c0b	-0.3117374
66	0x3da3ca17	0.0799753
67	0x3de2f091	0.11081041
68	0xbe13c86d	-0.14431925
69	0xbe870019	-0.26367262
70	0xbe895493	-0.26822338
71	0xbe84d813	-0.25946102
72	0x3e18e38b	0.14930551
73	0x3e96af06	0.29430407
74	0xbeadd483	-0.33951196
75	0xbe7fe867	-0.24990998
76	0x3e30e647	0.17275344
77	0x3e960dca	0.29307395
78	0x3d205960	0.039147735
79	0xbe32232e	-0.17396232
80	0xbd52752b	-0.05138127
81	0x3ea38bdc	0.31942642
82	0x3e1aedda	0.15129796
83	0xbe8d3702	-0.2758103
84	0xbf219fe5	-0.63134605
85	0x3e6a0b30	0.2285583
86	0x3f09b689	0.5379415
87	0x3e7653f5	0.24055465
88	0x3df8652d	0.12128673
89	0x3e5e3421	0.21699573
90	0xbf18b361	-0.5964871
91	0xbdcfef32	-0.10153045
92	0x3e677b10	0.22605538
93	0xbdc16e64	-0.094448835
94	0x3ea497b7	0.32147
95	0x3e74d861	0.23910667

net.0.bias f4 [16]
0	0x3eb52663	0.3538085
1	0x3f0073fc	0.5017698
2	0xbeb0b4b5	-0.3451287
3	0x3eee4dd3	0.4654375
4	0xbf10084a	-0.5626265
5	0xbd33697e	-0.043801777
6	0xbe7e3baf	-0.24827455
7	0x3f01d646	0.5071758
8	0x3efd42ae	0.49464935
9	0x3ee7bb9d	0.45260325
10	0xbe5a39fb	-0.2131118
11	0xbe8cda71	-0.27510408
12	0x3e1e348d	0.15449734
13	0x3e8aa013	0.27075252
14	0x3f148434	0.58014226
15	0x3dd1a6c9	0.1023689

net.2.weight f4 [1, 16]
0	0xbd837c46	-0.06420188
1	0xbe7d6828	-0.24746764
2	0x3e7f9812	0.24960354
3	0xbe5ab3da	-0.2135767
4	0x3ea8cee7	0.32970354
5	0xbeb372d3	-0.3504854
6	0xbe490cc2	-0.19633773
7	0xbe7686b5	-0.24074824
8	0xbe8f6ab8	-0.28011107
9	0xbec476fa	-0.38372022
10	0x3e3fa483	0.187151
11	0x3e053a9d	0.1301064
12	0xbdea2b3e	-0.11434029
13	0xbe5321a6	-0.20618305
14	0xbe7a4dc6	-0.2444373
15	0xbe26ad18	-0.16276968
