eval_runs/ml/ml_20250901_072030/model 2.pt (torch, 2825 bytes, 3 tensors)

net.0.weight f4 [16, 6]
00000000: db26 2fbe ff44 cd3d c0ac 8f3e 3908 88be
00000010: dc2a 263e 03ae c13d 280c 06be 407c ad3e
00000020: f396 e73d 87bd 80bb b615 1ebf fc29 203f
00000030: cf43 3b3e 23e4 773e 9f7f ae3d 5387 103e
00000040: 7d25 ebbe 52c1 a8bc 92e4 bfbe 1429 11be
00000050: 4fcf 013f 7d36 833e 8e59 0fbf 25e9 03be
00000060: 9321 793d 946f 6dbe 9f8a d2be 1d96 7b3e
00000070: 6ace afbd 5d23 b2be 68e3 4c3e 6fd4 573e
00000080: 2e08 9fbe 73b0 f33d 7f44 a7be 2cb6 523d
00000090: 95a4 babe b500 e4bd 36a8 95be 5847 b1be
000000a0: f220 0bbd 5bf0 93be ea06 1abf a27b ff3e
000000b0: 1a02 e73e f340 78bc 903b 6abe 82f1 263e
000000c0: 4360 a7be 958f 223d d24c 4e3e 6e4c b7be
000000d0: e80a 443e 99dd 9abe 2fcc 7dbe b339 95bd
000000e0: b9e0 8d3d 894f abbb a830 31be 4d86 293e
000000f0: 2301 a9be 09bc 6e3e 860b 85be 5081 b63e
00000100: 562c 36be f3ec 44bc 3725 fb3e 3673 6c3d
00000110: c0b8 06bd e619 823e f43a 67be 7f68 b23b
00000120: 89f0 42be d49c 47be 6e3c 6a3e cdfb c5bd
00000130: 1a04 a3be 79c4 5abd b424 dd3c 1333 8e3d
00000140: 4e46 9abc dcbe de3d d6ec 0bbd 9b7c 9d3e
00000150: 7c47 28bf afa7 983b 6a87 423d de3c 87bb
00000160: 254e 043e 74e5 ea3e dbc2 cebe 3c3f 18bf
00000170: f483 2b3e 0f13 a63e 5b8c 12bf 06c0 f93e
-0.17104666 0.100229256 0.28061485 -0.26568773 0.16227287 0.09457018 -0.13090575 0.33883858
0.11308088 -0.0039288434 -0.6175188 0.62564063 0.18287586 0.24208121 0.085204355 0.14114122
-0.4592704 -0.020599995 -0.37479073 -0.14175826 0.5070695 0.2562751 -0.55996025 -0.12881906
0.060823034 -0.23187095 -0.41121385 0.24568982 -0.08584292 -0.34792605 0.20008624 0.2107713
-0.31060928 0.118988894 -0.32669446 0.051443264 -0.3645369 -0.11132947 -0.29229897 -0.34624743
-0.033966966 -0.28894314 -0.601668 0.49899012 0.4511879 -0.015152204 -0.22874284 0.16303065
-0.3269063 0.03968771 0.20146492 -0.358005 0.19144785 -0.3024719 -0.24784921 -0.07286396
0.06927628 -0.005227987 -0.17303717 0.16555138 -0.3300868 0.23313917 -0.25985354 0.35645533
-0.1779035 -0.012019384 0.4905183 0.05772706 -0.032891035 0.25410384 -0.22581083 0.005444586
-0.1903707 -0.19493419 0.22874615 -0.09667168 -0.31839067 -0.053410027 0.02699504 0.069433354
-0.018832352 0.10876247 -0.03416141 0.3075913 -0.65734076 0.0046586613 0.047492422 -0.004127129
0.12920435 0.45878184 -0.40383038 -0.5947149 0.16749555 0.32436416 -0.57245415 0.48779315

net.0.bias f4 [16]
00000000: c5f9 c8be 0520 623e 364f b5bc 503f ba3e
00000010: bffd deb9 a4ea acbe 5561 353e 3f3e fb3e
00000020: 6004 213e bdb4 42be f46c 9abe f00e 713e
00000030: f080 5c3e 9777 b5be d339 9f3e 9a2b 263d
-0.3925306 0.22082527 -0.022132497 0.3637643 -0.00042532195 -0.33772767 0.1771291 0.49070928
0.15724325 -0.19014259 -0.3016125 0.23540854 0.21533561 -0.35442802 0.31098804 0.040568925

net.2.weight f4 [1, 16]
00000000: 8b15 6f3e f0a7 91be 38fa d4be 376f 8dbe
00000010: 600e 143d ed1b 283d 3043 823d 5904 b4be
00000020: 7f37 123d d44b 123e 2839 093e 5e54 82bc
00000030: 91ce 97be 2d27 be3d 5911 afbe 21b8 2ebe
0.23348062 -0.2844844 -0.41597152 -0.27623913 0.03614652 0.041042257 0.06360471 -0.35159567
0.035697456 0.14286739 0.1340071 -0.01590937 -0.29649785 0.09284816 -0.34192923 -0.17062427
