eval_runs/ml/ml_20250831_202148/model.pt (torch, 2825 bytes, 3 tensors)

net.0.weight f4 [16, 6]
0	0xbec45572	-0.3834644
1	0xbe2d2312	-0.1690791
2	0xbe25e756	-0.16201529
3	0x3ecf36c5	0.40471473
4	0x3e9fdc94	0.31222975
5	0x3f0813f8	0.5315547
6	0x3dc0af85	0.09408478
7	0x3eac8c8d	0.33700982
8	0x3e4abeb3	0.19799308
9	0xbeb5d784	-0.35515988
10	0xbc0cff46	-0.008605784
11	0xbe9c5f81	-0.30541614
12	0x3e19ec4f	0.15031551
13	0x3c4fb36e	0.012677057
14	0xbee0720b	-0.43837008
15	0xbcfe4e08	-0.031043068
16	0x3df0b894	0.117539555
17	0x3e4c8501	0.19972612
18	0xbdb8830f	-0.090093724
19	0x3ed978d7	0.42475006
20	0xbd143473	-0.036182832
21	0x3e3c0baf	0.18363832
22	0x3d1e6174	0.038667157
23	0x3eb643e2	0.35598665
24	0xbe0865dd	-0.13320108
25	0x3ecc5292	0.39906746
26	0x3d5586c2	0.05213047
27	0xbdf3b88a	-0.119004324
28	0xbedb3751	-0.4281564
29	0xbe2fac33	-0.17155533
30	0x3eb5f522	0.35538584
31	0x3eefb363	0.4681655
32	0x3ab7f716	0.0014035429
33	0x3e193048	0.14959824
34	0x3e0e015a	0.13867703
35	0xbeae8511	-0.34085897
36	0x3e392465	0.1808029
37	0xbea0c011	-0.31396535
38	0xbe16a19f	-0.14710091
39	0xbee31fbb	-0.44360146
40	0x3e8ebf9d	0.27880564
41	0x3e91fe01	0.28514102
42	0xbca334e6	-0.019922685
43	0xbe0fed6c	-0.14055413
44	0xbe5a1ea2	-0.21300748
45	0xbee26e44	-0.4422475
46	0x3e25e2c2	0.16199782
47	0xbdca6cf9	-0.09884066
48	0xbe819e12	-0.2531591
49	0x3f0e3b65	0.5555938
50	0x3db7ca87	0.08974176
51	0x3e7b0749	0.24514498
52	0xbf10ea55	-0.5660756
53	0x3e152a66	0.14566955
54	0xbf0f618d	-0.56008226
55	0x3e60b847	0.21945296
56	0x3de0b6eb	0.10972389
57	0x3e657674	0.22408468
58	0xbece0c11	-0.4024358
59	0xbe100f3d	-0.14068313
60	0x3e4a5f38	0.19762886
61	0x3da97a47	0.08275276
62	0xbe7e9ef2	-0.2486532
63	0x3f1478c8	0.579968
64	0x3a736314	0.0009284478
65	0x3e8429fe	0.25813287
66	0xbd973c1c	-0.07384512
67	0xbd718b54	-0.058970764
68	0xbe35a1d3	-0.17737512
69	0x3ea06453	0.3132654
70	0xbeadc933	-0.33942565
71	0x3ed0ebdf	0.40804955
72	0x3e69b7b3	0.22823982
73	0x3e36e47b	0.17860596
74	0xbecdf664	-0.40227044
75	0xbea5432b	-0.32277808
76	0xbe8d8aff	-0.27645108
77	0xbdc47f49	-0.0959459
78	0x3d80b6cd	0.062848665
79	0x3dab8f60	0.08376956
80	0x3b2f1514	0.0026715444
81	0xbe094be4	-0.13407856
82	0xbc48878b	-0.012239347
83	0x3d79e3be	0.061008207
84	0xbda74348	-0.0816713
85	0x3e3b4ebf	0.18291758
86	0x3e40841d	0.18800397
87	0x3d2fdbb3	0.04293413
88	0xbe4250e7	-0.18976174
89	0x3f0b4cb8	0.5441394
90	0xbdf893a0	-0.12137532
91	0xbe03cbfb	-0.12870781
92	0xbe822bf6	-0.25424165
93	0xbea3fb1f	-0.32027528
94	0x3e5c3216	0.21503481
95	0x3e797220	0.24359941

net.0.bias f4 [16]
0	0x3e51bad6	0.20481429
1	0xbdbe0485	-0.09278206
2	0xbf1ca1ed	-0.6118458
3	0x3f07bd36	0.5302309
4	0x3cd526ae	0.02601942
5	0x3eab0212	0.33400017
6	0xbee7eab2	-0.45296246
7	0xbc37d727	-0.01122073
8	0x3e48f81c	0.19625896
9	0x3eb8b50e	0.36075634
10	0x3ea527b8	0.32256866
11	0x3f0a49c5	0.54018813
12	0xbeb40fc0	-0.35168266
13	0xbd80cec3	-0.06289437
14	0x3e1fb828	0.15597594
15	0xbeb8fac6	-0.36128825

net.2.weight f4 [1, 16]
0	0xbe2887e8	-0.16458094
1	0x3de722b0	0.11285913
2	0x3e5ba684	0.2145024
3	0xbe59f980	-0.21286583
4	0xbee1afc9	-0.44079426
5	0xbea21619	-0.31657484
6	0x3e2699c5	0.16269596
7	0x3e20f8ac	0.15719861
8	0xbef2225f	-0.47291848
9	0xbee5066a	-0.44731456
10	0xbe35edf6	-0.17766556
11	0xbe89b223	-0.2689372
12	0xbe257f2a	-0.1616179
13	0x3ca07639	0.019587623
14	0xbe7008be	-0.23440835
15	0x3d00e973	0.031472635
