eval_runs/ml/ml_20250831_083518/model.pt (torch, 2825 bytes, 3 tensors)

net.0.weight f4 [16, 6]
0	0x3e1c0c47	0.15239058
1	0x3ea0100c	0.31262243
2	0x3e626afb	0.22111122
3	0x3e8d6ce8	0.2762215
4	0xbeb3cafe	-0.35115808
5	0xbd7e5765	-0.062095065
6	0xbde6800c	-0.11254892
7	0x3ebcc145	0.36866203
8	0x3e3b6fa1	0.18304302
9	0x3edff64c	0.43742597
10	0x3e0343e1	0.12818862
11	0x3e581a45	0.21103771
12	0x3e4f8619	0.20265998
13	0x3eb01513	0.34391078
14	0xbc5d163e	-0.0134940725
15	0xbebaa318	-0.36452556
16	0xbe81d283	-0.2535592
17	0xbe4c8083	-0.19970898
18	0xbeba93ca	-0.3644088
19	0xbd746f3f	-0.059676405
20	0x3de5ff0e	0.112302884
21	0x3e03d9f7	0.12876116
22	0xbf055167	-0.52077335
23	0x3ee46765	0.44610134
24	0xbe73c43a	-0.23805323
25	0xbe69e88d	-0.22842617
26	0x3e28cb36	0.16483769
27	0x3e540f8a	0.20709053
28	0x3e1fb650	0.1559689
29	0xbe7bcb3d	-0.24589248
30	0xbed84498	-0.42239833
31	0xbd0d04ef	-0.034428533
32	0x3eb7eaf5	0.35921445
33	0x3e6736e9	0.2257954
34	0x3e013e4b	0.12621419
35	0xbe375676	-0.17904076
36	0xbed41d12	-0.4142843
37	0xbec18d57	-0.37803146
38	0xbe357134	-0.17718965
39	0x3d605c02	0.054775245
40	0x3e9af465	0.30264583
41	0xbe9d150c	-0.3068012
42	0xbef8f321	-0.48622993
43	0x3dbcea50	0.09224379
44	0xbf056f7c	-0.52123237
45	0x3ee0a2ad	0.43874112
46	0xbeac87f0	-0.33697462
47	0x3f01d267	0.50711673
48	0xbef8c428	-0.48587155
49	0xbe088a8a	-0.13334098
50	0x3afa1ae0	0.0019081496
51	0xbdb27502	-0.08713724
52	0xbf088a85	-0.53336364
53	0xbd9f46f6	-0.077772066
54	0xbcdaef6f	-0.026725499
55	0x3e3c3013	0.18377714
56	0x3d4132eb	0.0471677
57	0x3f15d772	0.5853187
58	0xbf0931f3	-0.5359184
59	0x3f0b78ce	0.5448121
60	0xbe834b22	-0.2564326
61	0xbe01a796	-0.12661585
62	0x3eef9fe8	0.46801686
63	0x3e163b08	0.14670956
64	0xbebfee41	-0.3748646
65	0x3d3161b6	0.043306075
66	0x3cd2deca	0.025741
67	0x3ede41bb	0.43409523
68	0x3e58e04b	0.21179311
69	0x3f2970dd	0.6618784
70	0x3d2d9282	0.04237605
71	0xbea1e146	-0.31617182
72	0x3e0b2360	0.13587713
73	0x3efba8f6	0.49152344
74	0x3e5719cf	0.21005939
75	0xbd529b96	-0.05141791
76	0x3dc7bd82	0.097529426
77	0x3ec50179	0.38477686
78	0xbeb25689	-0.34831646
79	0x3e373fc8	0.17895424
80	0xbe11c1c1	-0.14234067
81	0x3e61ea1e	0.22061965
82	0xbc80f98b	-0.015743991
83	0x3df1dac6	0.11809306
84	0x3e1853e1	0.14875747
85	0xbe543e7b	-0.2072696
86	0x3e8829ff	0.2659454
87	0xbe32a37a	-0.17445174
88	0xbe38fbf9	-0.1806487
89	0xbe18ee22	-0.1493459
90	0x3e0c4245	0.13697155
91	0xbcdd777c	-0.027034514
92	0x3e821d4b	0.25412974
93	0x3dba6bbe	0.091025814
94	0xbd6f519e	-0.058427446
95	0x3d8dbdd9	0.06920976

net.0.bias f4 [16]
0	0x3e002308	0.12513363
1	0xbe72f296	-0.23725352
2	0xbe8a386b	-0.26996168
3	0x3e113d78	0.14183605
4	0x3e6e4af4	0.2327078
5	0x3f02cd1b	0.51094216
6	0xbea0f531	-0.31437066
7	0x3d975fbc	0.07391307
8	0xbe401998	-0.18759763
9	0x3ede2d67	0.43394014
10	0x3e26378e	0.1623213
11	0x3e9ffa18	0.31245494
12	0x3ebcf53f	0.36905858
13	0xbe107b03	-0.14109425
14	0xbeb0346d	-0.34414998
15	0xbe659145	-0.22418697

net.2.weight f4 [1, 16]
0	0xbec0a051	-0.37622312
1	0x3e17a891	0.14810397
2	0x3e1aa863	0.15103297
3	0xbe8e9c7e	-0.2785377
4	0x3d9519c5	0.07280306
5	0xbea49803	-0.32147226
6	0x3e3ade3d	0.1824884
7	0xbeb58c01	-0.35458377
8	0xbed60ffb	-0.41809067
9	0xbecf97dc	-0.40545547
10	0xbea5a0d4	-0.32349265
11	0xbe73f2fd	-0.23823161
12	0xbeb4d487	-0.35318395
13	0x3cf8e5c5	0.030383
14	0xbe45f77c	-0.19332689
15	0x3dd534b8	0.10410446
