eval_runs/ml/ml_20250831_083845/model.pt (torch, 2825 bytes, 3 tensors)

net.0.weight f4 [16, 6]
00000000: e66c 053f 470e 96be 55ca c7bd 3c32 333d
00000010: 49e8 8a3e 8d1e 39be de55 e0be 1782 94bd
00000020: beb3 0d3f 2a44 ad3e 1f13 393e 9630 41be
00000030: 34f7 113f 5ee7 8c3e d0aa d23e b0f6 f5bc
00000040: b7c2 323d 8b1b 233d ba30 9c3e 9a9a ddbd
00000050: f317 4c3e 6122 023d f074 5fbe 1610 b5be
00000060: 4115 81be 2037 9e3e 865d cabd 6c83 9bbc
00000070: 502a bebe b0b4 d83e 0a06 afbc 76bd cf3e
00000080: a795 833d 4e0e f93e c0d5 0bbf 014c 1c3d
00000090: 7495 0ebf 6b7e b43e e9e4 9e3e cb9b 883e
000000a0: bde2 403e c9e6 f33e b850 efbe 27ac a2be
000000b0: 39a1 9abe 441c 3ebe da4a 1b3f a226 76be
000000c0: 3fbc debe 9499 9a3e ea7b 2fbe 8d94 b23e
000000d0: dfd7 ee3d 4b6a af3e c113 50be aa9b afbe
000000e0: 8c04 19be 4a5c c9bd 6b5c 82be 45af d0be
000000f0: 2a23 8cbd 6766 bf3d 9ac9 d8be 2455 583d
00000100: da97 0fbc 7f8f c1bd eb71 8cbd 9b79 833e
00000110: c02f bc3d bf82 7ebd 90a9 99be 2f38 57be
00000120: d8b5 84be 1d97 6c3c b07b 04bd 2cba b53e
00000130: 5adc ee3c d4b5 f63e 9b2b 7bbe 8918 713e
00000140: bab2 a7be b9f2 a23e 9cd6 40bc 93ed 52bc
00000150: 6d67 5a3e 8de0 68be c6ae 003e 4bbe 8cbd
00000160: 5e09 5f3e 0537 82be bbd4 a3bd 72d0 a63e
00000170: 110e e13c 5378 4bbe 8cc4 62bb 55ec f7bd
0.5211929 -0.29307768 -0.09755389 0.04374908 0.27130345 -0.1807806 -0.4381551 -0.07251375
0.5535239 0.33841068 0.180737 -0.1886619 0.5701783 0.2752027 0.41145945 -0.030024856
0.043642726 0.03982119 0.30505925 -0.108205035 0.19931011 0.031771068 -0.21821952 -0.35363835
-0.25211528 0.30901432 -0.098811194 -0.018983565 -0.37141657 0.42325354 -0.021365184 0.40574235
0.06425028 0.48643726 -0.5462303 0.03815842 -0.556968 0.352527 0.3103402 0.2668136
0.18836494 0.47637013 -0.4674127 -0.31771967 -0.30201128 -0.1856547 0.6066109 -0.24038175
-0.43502995 0.30195296 -0.17137113 0.3487896 0.11662268 0.34260783 -0.20320036 -0.3429845
-0.14943141 -0.09832056 -0.25461134 -0.4075872 -0.068426445 0.093457036 -0.4234131 0.05281557
-0.008764232 -0.09451198 -0.06857666 0.25678715 0.09188795 -0.062136408 -0.30012178 -0.21017526
-0.25919986 0.014440325 -0.03234452 0.354936 0.029157806 0.481856 -0.24528353 0.23544516
-0.32753545 0.31825808 -0.011769917 -0.012874025 0.21328516 -0.2274191 0.12566671 -0.06872233
0.21780917 -0.25432602 -0.079995595 0.32580906 0.027472528 -0.19870119 -0.0034602014 -0.12105624

net.0.bias f4 [16]
00000000: dd0b 613e be22 243f 4019 62bc 8710 6abe
00000010: 4abe cc3e 0203 26bd 49f3 853e e9ac dcbc
00000020: f62d c03e e90d b5be 693d 4dbc 5b48 bfbe
00000030: 9469 b43e a16b 8ebe 8ca7 bcbe 950d fc3e
0.21977182 0.6411551 -0.013799965 -0.22857867 0.3998893 -0.040530212 0.26162174 -0.026937919
0.37535065 -0.35362175 -0.012526848 -0.3735989 0.352368 -0.2781649 -0.36846578 0.49229112

net.2.weight f4 [1, 16]
00000000: 4fe2 9d3d 0fc6 6cbe 6459 023e d826 cf3d
00000010: eb61 9abe 88e2 8cbe f032 d1be 2fef 303e
00000020: 7990 8ebe f8ee f9bd dfdd 113c 4065 cf3b
00000030: e381 e9be 0484 923d 805b 2c3e 0541 8cbe
0.077091806 -0.23122428 0.12729412 0.10114831 -0.3015283 -0.2751658 -0.40859175 0.17278741
-0.278446 -0.12203783 0.008902996 0.0063292086 -0.45606908 0.07154086 0.1683178 -0.27393356
