eval_runs/ml/ml_20250831_192143/model.pt (torch, 2825 bytes, 3 tensors)

net.0.weight f4 [16, 6]
000000 38 5d 44 be 46 91 24 bf d3 77 1f be 69 8f 56 bc
       -0.19176185 -0.6428417 -0.15573053 -0.013095715
000010 92 b7 ec be a8 1e f8 3e 29 99 dc 3e d5 44 46 3e
       -0.46233803 0.4846089 0.43085602 0.19362195
000020 fa 17 74 be 79 7d 94 bd ee 1c 06 3e e4 d8 42 be
       -0.23837271 -0.072504945 0.13096973 -0.1902805
000030 9e 16 eb 3c e4 f7 ad 3e 1a 5a 8b be 47 99 f8 3e
       0.028697308 0.33978188 -0.2721718 0.4855444
000040 80 15 86 3d c9 f4 48 be ce 89 ca 3d cb 57 cf 3e
       0.065470695 -0.19624628 0.098895654 0.40496668
000050 c1 35 66 3c 99 91 e3 be 7b b6 e0 3e e1 08 d4 3d
       0.014050902 -0.4444702 0.43889222 0.10353256
000060 b0 3e 93 3d a6 f4 db 3d e6 b5 79 be 26 a8 82 bd
       0.07189691 0.10740022 -0.24385795 -0.06379728
000070 e1 52 90 3e 4f 52 f7 3e d4 7d 12 be 07 09 e6 3e
       0.28188232 0.48304984 -0.14305812 0.44928762
000080 16 7e 8e 3e bc 87 dd 3e 83 6e bb be 0c 91 ba 3e
       0.2783057 0.4326762 -0.3660775 0.36438787
000090 1b 9b 91 3e 71 fb 7d 3e bc 24 7c 3e 4f 44 32 3e
       0.2843865 0.24802949 0.24623388 0.1740887
0000a0 cb 7a a0 be 3a 71 a6 be 42 f3 3c 3d c0 8c 17 3e
       -0.31343684 -0.3250826 0.046130426 0.14799786
0000b0 d0 4d 6b 3e 4f 27 c3 3e fa f4 1e bc 37 d1 a2 be
       0.22978902 0.38115928 -0.009701962 -0.31800243
0000c0 7d 9c 0f be 35 a8 00 be 28 92 24 be 3e 2d 99 3d
       -0.1402454 -0.12564166 -0.16071379 0.074793324
0000d0 17 ff 97 be d2 76 11 3f c4 8a 83 3e 87 a8 64 3e
       -0.29686806 0.5682193 0.25691807 0.22329913
0000e0 ce 52 83 3e 7d 38 a6 be 54 cf 63 3e 0a 4c 36 3d
       0.25649112 -0.32464972 0.22247058 0.04450611
0000f0 de 0f 67 be 49 d1 88 bd 2f 8f 98 3e 4f 83 53 3e
       -0.22564647 -0.06680543 0.2979674 0.20655559
000100 d4 c2 90 be 32 ce b5 3c 8d c9 a6 3c 64 2e 11 be
       -0.28273642 0.022193048 0.020359779 -0.14177853
000110 fc 16 a6 3e 03 4a 10 3f 6b 0d 58 bb 99 27 1a 3e
       0.3243941 0.5636293 -0.0032966982 0.15054168
000120 c5 bc 06 bf 51 07 ba 3e 9f 24 10 3d 4d ea 66 3e
       -0.5263179 0.36333707 0.035191175 0.22550316
000130 30 eb 29 3e b3 ab 2a be 90 0e fa be 34 f7 40 bd
       0.16593623 -0.1666706 -0.48839235 -0.04711075
000140 f4 54 1b 3e 14 c9 46 3e 9f 25 ca be 0c 1b 8d 3e
       0.15169126 0.19412643 -0.39481828 0.27559698
000150 62 0d 9c 3e ae c9 f6 be db bb b4 be 70 3d 05 bf
       0.3047896 -0.48200744 -0.35299572 -0.5204687
000160 ad f2 f2 bd 30 3a 52 bc 0a ad 9a be db dc 1a 3e
       -0.11862693 -0.012831256 -0.30210143 0.15123312
000170 45 b0 74 3e 17 00 cc 3e 42 f0 51 be 85 a3 6a 3e
       0.23895366 0.3984382 -0.20501807 0.2291394

net.0.bias f4 [16]
000000 41 24 f2 bd 21 05 89 3e 48 45 2a ba 6f d4 57 bc
       -0.11823321 0.26761726 -0.0006495309 -0.013173207
000010 15 56 8f bd 09 6f ce 3e e1 99 a9 be 11 4f f0 bd
       -0.06998841 0.40319088 -0.33125213 -0.11733831
000020 ad 62 79 3e 21 8f 9f be 18 3e 1c bc 09 89 04 3f
       0.24354048 -0.31163886 -0.009536289 0.517716
000030 be 9d 04 3f ba 92 91 3e c5 47 aa 3c 0e 8a c4 3e
       0.51803195 0.28432256 0.020786176 0.38386577

net.2.weight f4 [1, 16]
000000 08 03 ef be 1c 4d ef 3c c6 02 e0 bd 05 48 39 3e
       -0.46682 0.029211573 -0.10938029 0.1809388
000010 33 8f 20 be 6d 14 3d be 3c c3 f2 3d a5 c0 fe bd
       -0.15679626 -0.18464823 0.11853644 -0.12439088
000020 ec 17 a0 be bf 31 05 3d 91 e0 72 bb b5 2c 96 be
       -0.3126825 0.032518145 -0.0037060122 -0.29330984
000030 57 a0 7d be 06 7d b9 be a7 5e e2 3d 4b da b7 be
       -0.24768196 -0.36228198 0.1105321 -0.35908732
