eval_runs/ml/ml_20250831_084427/model.pt (torch, 2825 bytes, 3 tensors)

net.0.weight f4 [16, 6]
0	0xbebcb05a	-0.36853296
1	0xbf2791b1	-0.6545668
2	0xbe45e263	-0.19324641
3	0x3e9d9a9e	0.30782026
4	0xbf137f99	-0.57616574
5	0x3f0e9261	0.55692106
6	0x3f076be7	0.5289902
7	0xbe04f240	-0.12983036
8	0xbed09125	-0.40735736
9	0xbe0cbe14	-0.13744384
10	0xbe7fa065	-0.2496353
11	0x3d6e6e33	0.058210563
12	0xbee4be03	-0.44676217
13	0x3e1bc9d2	0.15213707
14	0x3d118eaf	0.035536464
15	0x3f04a39c	0.5181215
16	0x3e721532	0.23640898
17	0x3de5d2dd	0.112218596
18	0xbb35946e	-0.002770688
19	0x3ef7c9f6	0.4839627
20	0x3d476647	0.048681524
21	0xbdb97faf	-0.09057557
22	0xbe658f49	-0.2241794
23	0xbe152fa6	-0.14568958
24	0x3ec73973	0.38911018
25	0x3b949ae9	0.0045350683
26	0x3e519ee6	0.20470771
27	0xbd5caa70	-0.05387348
28	0x3aefc683	0.0018293414
29	0x3e8ee0b6	0.27905816
30	0xbeb26adf	-0.3484716
31	0x3ed76d88	0.42075753
32	0x3e3cf81d	0.18454023
33	0xbc938d9f	-0.018011866
34	0xbee45cea	-0.44602138
35	0x3e955d43	0.29172716
36	0xbd8fc89a	-0.070206836
37	0x3c6b72f9	0.014370673
38	0x3eba0137	0.36329052
39	0xbc9ed172	-0.01938698
40	0xbeaf8175	-0.34278455
41	0x3ef3b82d	0.47601452
42	0x3e6299eb	0.22129028
43	0x3e842027	0.2580578
44	0x3c47850a	0.012177715
45	0xbd7bf097	-0.06150874
46	0x3ee51456	0.44742078
47	0xbe84eb17	-0.2596061
48	0xbe5c9055	-0.21539433
49	0xbf00b14d	-0.5027054
50	0x3e225aee	0.15855
51	0x3e325699	0.17415847
52	0x3e74d13b	0.2390794
53	0xbe57d692	-0.21077946
54	0x3dbf2e06	0.0933495
55	0x3d941f1e	0.07232498
56	0x3e07f2b2	0.13276175
57	0xbdab36ec	-0.08360085
58	0x3eaec9a8	0.34138227
59	0xbe4c33d7	-0.1994165
60	0xbee0bbcd	-0.4389328
61	0xbecd562d	-0.4010481
62	0xbe416600	-0.18886566
63	0x3e9d197f	0.30683514
64	0xbf0252e4	-0.5090773
65	0x3eed2ec5	0.46324745
66	0x3f05a34d	0.522023
67	0xbb66c257	-0.003521105
68	0x3d897076	0.06710903
69	0xbedfbca5	-0.43698612
70	0xbe49ed86	-0.19719514
71	0xbd1e0ea2	-0.038588174
72	0xbe8e74ea	-0.27823573
73	0x3d8075ad	0.06272445
74	0x3edd0161	0.43165115
75	0xbdee2f8f	-0.11630165
76	0xbebbf241	-0.36708263
77	0x3de17134	0.1100792
78	0xbf041cb2	-0.51606286
79	0x3d23ecbc	0.04002069
80	0x3e5ea350	0.21741986
81	0xbeaa9229	-0.33314636
82	0x3ddad824	0.10685757
83	0x3d06c1d9	0.03289971
84	0xbe668a90	-0.22513795
85	0xbe1663e8	-0.14686549
86	0x3ed136a0	0.40861988
87	0x3ec5f790	0.38665438
88	0x3e174570	0.14772582
89	0x3ef90256	0.48634595
90	0xbec655a2	-0.38737208
91	0x3e824919	0.25446394
92	0x3eb16655	0.34648386
93	0x3d146c3e	0.03623604
94	0xbf02667c	-0.5093763
95	0x3dbf890f	0.09352314

net.0.bias f4 [16]
0	0xbe0f7726	-0.14010295
1	0x3e8cdc36	0.27511758
2	0x3e5d61ba	0.21619311
3	0x3eae32f1	0.3402324
4	0x3db3f7e4	0.08787516
5	0x3e9af494	0.30264723
6	0x3f1c1e3b	0.6098363
7	0xbf16a02e	-0.58838165
8	0xbeb8a577	-0.3606374
9	0x3e0edf15	0.13952287
10	0x3e34ab51	0.17643477
11	0x3df3435d	0.11878083
12	0x3ececc74	0.4039036
13	0xbedd7f44	-0.43261158
14	0x3e63be7e	0.22240636
15	0x3e55660a	0.20839706

net.2.weight f4 [1, 16]
0	0xbe7920f2	-0.24328974
1	0x3cce9534	0.02521763
2	0xbe998291	-0.29982427
3	0xbe8bbec3	-0.27293977
4	0xbcca6ce1	-0.02471012
5	0xbe84583a	-0.25848562
6	0xbe7ab7fe	-0.2448425
7	0x3e0d9dac	0.13829678
8	0x3e5cd402	0.2156525
9	0xbdb1d9d2	-0.08684124
10	0xbeae090f	-0.33991286
11	0xbbd7adb1	-0.006581985
12	0xbe41afcf	-0.18914722
13	0x3e938ab1	0.2881675
14	0xbe983e63	-0.29735097
15	0xbed8e1d6	-0.423598
