eval_runs/ml/ml_20250831_202427/model.pt (torch, 2825 bytes, 3 tensors)

net.0.weight f4 [16, 6]
0.4305833 0.06433349 0.20056532 -0.08389833 0.33404857 0.09772531 -0.007923896 0.4130257
-0.22494724 0.53331083 0.1875652 0.15822428 0.31542733 0.20456229 -0.27431 0.27380362
0.28816548 0.07571591 -0.36054713 -0.4660286 -0.263562 -0.44030875 -0.22773631 0.21760589
-0.21213327 -0.10854933 -0.2390008 0.09390305 -0.30046967 -0.23016237 -0.40749478 0.305208
0.3900534 0.32936507 -0.002119116 0.17338511 -0.2464303 0.43248376 -0.106011994 0.5669095
0.26350203 0.5056354 0.46783608 0.14108217 0.06377528 0.5501564 -0.0015236846 -0.29864556
0.20142873 0.12685484 -0.27314442 0.17579478 0.35204574 -0.093504764 -0.46810418 -0.20582336
-0.048677392 0.19158897 -0.26023954 0.25003275 -0.098965116 -0.4512089 -0.4528793 0.32242492
-0.32908583 0.25657317 -0.3992746 -0.057269562 0.23124233 -0.13836084 -0.15739843 -0.39624795
0.23645201 0.2700834 -0.3247456 -0.040188696 0.4295103 -0.31638 -0.65934026 0.34303954
0.37680554 -0.08477217 -0.54233134 0.35763103 -0.41365698 0.05537461 0.10728557 0.20773202
-0.35268185 0.110216804 -0.42310846 0.39087862 0.44088024 0.0597826 -0.47671834 -0.09755088
00000000: 6a75 dc3e 47c1 833d ff60 4d3e e3d2 abbd
00000010: 6a08 ab3e 3524 c83d 3bd3 01bc 1b78 d33e
00000020: 9258 66be 0f87 083f 1711 403e 8c05 223e
00000030: b17f a13e c778 513e 5c72 8cbe fd2f 8c3e
00000040: 6d8a 933e f110 9b3d a299 b8be 4d9b eebe
00000050: 99f1 86be 2670 e1be b533 69be 14d4 5e3e
00000060: 7739 59be 1c4f debd a0bc 74be 3e50 c03d
00000070: 29d7 99be afaf 6bbe 28a3 d0be 3944 9c3e
00000080: 14b5 c73e 8aa2 a83e dee0 0abb de8b 313e
00000090: 3958 7cbe 836e dd3e d11c d9bd fb20 113f
000000a0: bde9 863e 5271 013f 3688 ef3e d877 103e
000000b0: 9d9c 823d 0dd7 0c3f 5fb6 c7ba 12e8 98be
000000c0: 5543 4e3e 3ce6 013e 96d9 8bbe 8c03 343e
000000d0: 573f b43e 6d7f bfbd 5aab efbe 5cc3 52be
000000e0: f261 47bd e62f 443e 1e3e 85be 4b04 803e
000000f0: 39ae cabd da04 e7be ccdf e7be e114 a53e
00000100: f07d a8be 8f5d 833e b86d ccbe 7d93 6abd
00000110: caca 6c3e 77ae 0dbe 0e2d 21be 03e1 cabe
00000120: 7a20 723e 5f48 8a3e 0e45 a6be e79c 24bd
00000130: c6e8 db3e 8ffc a1be 86ca 28bf e1a2 af3e
00000140: a8ec c03e 089d adbd 3ad6 0abf 6a1b b73e
00000150: d9ca d3be 7dd0 623d 89b8 db3d b4b7 543e
00000160: b792 b4be 59b9 e13d aca1 d8be 3e21 c83e
00000170: 0ebb e13e 99de 743d 6d14 f4be c1c8 c7bd

net.0.bias f4 [16]
-0.32545003 0.20313768 -0.19080085 -0.037940614 0.25140482 0.37156266 0.5947107 0.23929963
-0.45815417 0.22302485 0.2502261 -0.36339924 0.30517024 0.44752884 0.5147208 0.39349627
00000000: 63a1 a6be 5303 503e 4c61 43be 9e67 1bbd
00000010: 22b8 803e 763d be3e f63e 183f f60a 753e
00000020: 2f93 eabe a060 643e a31d 803e 770f babe
00000030: 463f 9c3e 8022 e53e bec4 033f 5878 c93e

net.2.weight f4 [1, 16]
0.026760336 -0.4238408 0.11818005 -0.17984198 0.05127859 -0.42516196 -0.25492525 -0.3544687
0.311214 -0.33679312 -0.032624558 -0.20704621 -0.016008059 -0.3084203 -0.37668332 -0.43488857
00000000: 7e38 db3c a901 d9be 6208 f23d 7f28 38be
00000010: 8009 523d d4ae d9be 9085 82be ec7c b5be
00000020: 7157 9f3e 2670 acbe 54a1 05bd ec03 54be
00000030: 5523 83bc 44e9 9dbe a3dc c0be b7a9 debe
