eval_runs/ml/ml_20250831_084429/model.pt (torch, 2825 bytes, 3 tensors)

net.0.weight f4 [16, 6]
0	0x3d1d1f64	0.038360015
1	0x3eb2ea36	0.34944314
2	0x3eeaad73	0.45835456
3	0x3e8fff8c	0.28124654
4	0x3ec21d41	0.37912944
5	0xbe963168	-0.2933457
6	0xbe603c75	-0.21898063
7	0xbea8482f	-0.32867572
8	0xbd54a13e	-0.051911585
9	0xbed2338e	-0.41054958
10	0xbcce9a6a	-0.025220115
11	0xbdb1e2a5	-0.08685807
12	0x3db85777	0.090010576
13	0xbe5cbb45	-0.21555813
14	0x3e29acd5	0.16569836
15	0x3d918de8	0.071071446
16	0xbe2e0f65	-0.1699806
17	0x3db43091	0.08798326
18	0x3ea637b6	0.3246438
19	0xbe268a8b	-0.16263787
20	0xbcd6f86e	-0.026241507
21	0xbec8906e	-0.3917269
22	0x3d9f44af	0.07776772
23	0x3e1febed	0.15617342
24	0xbebc650f	-0.36795852
25	0x3e7190fb	0.23590462
26	0x3eb18cee	0.34677833
27	0x3e9aae5a	0.30211145
28	0xbe377f7d	-0.17919727
29	0xbe5ecdda	-0.21758214
30	0xbf14c2c0	-0.58109665
31	0xbc2ad051	-0.010425643
32	0x3e1af935	0.15134127
33	0x3e7895aa	0.24275842
34	0xbe884bcd	-0.2662033
35	0x3d224b5f	0.03962266
36	0xbd790c44	-0.060802713
37	0x3e9c5369	0.30532387
38	0x3e8fb93a	0.28071004
39	0xbe075396	-0.13215479
40	0xbe768202	-0.24073032
41	0xbd911f09	-0.070859976
42	0xbe65a6aa	-0.22426859
43	0xbe928e3b	-0.28624138
44	0xbda42afe	-0.080160126
45	0x3e2686d1	0.16262366
46	0x3e8e9177	0.27845356
47	0xbe2d8718	-0.16946065
48	0xbe60d6ff	-0.21957015
49	0xbec3f87b	-0.38275513
50	0x3dc9b32d	0.09848628
51	0xbea442b1	-0.32082132
52	0x3ea1983e	0.31561464
53	0x3eed6be6	0.46371382
54	0x3ea16ec9	0.31529835
55	0x3e554976	0.20828804
56	0x3e0c8a29	0.13724579
57	0xbe68ba03	-0.22727208
58	0x3e0e57a6	0.13900623
59	0xbe5a10de	-0.21295497
60	0xbef00236	-0.46876687
61	0x3c61b9e4	0.01377723
62	0x3ec92ded	0.3929285
63	0xbe2bdaf7	-0.16782747
64	0xbed058d6	-0.40692776
65	0x3e7d2ccf	0.24724124
66	0xbe92f531	-0.2870269
67	0x3dbb3049	0.09140069
68	0xbe3f7529	-0.18697037
69	0x3ea026d4	0.31279624
70	0x3e42117d	0.18951984
71	0xbea34be2	-0.31893831
72	0xbde6e3fb	-0.112739526
73	0xbe8e562a	-0.27800113
74	0xbe6b9e30	-0.23009562
75	0x3e1e751f	0.15474366
76	0xbe872e35	-0.2640244
77	0x3d454a4d	0.048166562
78	0xbd946577	-0.072459154
79	0xbe08221a	-0.13294259
80	0x3b945100	0.0045262575
81	0x3f0c34bc	0.54767966
82	0xbea25e2c	-0.31712472
83	0xbe660b61	-0.22465278
84	0xbea68345	-0.32522026
85	0xbe1f92c4	-0.1558333
86	0x3e839ba5	0.25704685
87	0x3ec37b7c	0.3818015
88	0xbe83066e	-0.25590843
89	0x3e4f4c83	0.2024403
90	0xbd9c0f77	-0.07620137
91	0xbf093f4d	-0.53612214
92	0xbeac6870	-0.3367343
93	0xbf11e7da	-0.569944
94	0x3ed096d0	0.4074006
95	0x3e00ddd8	0.12584627

net.0.bias f4 [16]
0	0xbe5ae649	-0.2137691
1	0x3e845894	0.2584883
2	0x3ea9d9f7	0.33174106
3	0x3e528943	0.20560174
4	0xbe838fb5	-0.25695577
5	0x3ecd1e74	0.40062296
6	0x3f215db5	0.6303361
7	0xbee28d84	-0.44248593
8	0xbbcaa970	-0.0061847493
9	0xbd027957	-0.031854
10	0x3e0c0550	0.13673902
11	0x3e953f3f	0.29149815
12	0x3e9cda61	0.3063536
13	0x3f1d527a	0.61453974
14	0x3f0bb005	0.5456546
15	0xbf0607ac	-0.52355456

net.2.weight f4 [1, 16]
0	0xbe4b214c	-0.1983692
1	0xbc9f57c4	-0.01945103
2	0xbddf117a	-0.10892005
3	0xbd5ad10d	-0.053422023
4	0x3e755226	0.23957118
5	0xbe7e0921	-0.2480817
6	0xbe7411b6	-0.23834881
7	0x3e86eee6	0.2635414
8	0xbe6fe1eb	-0.23426025
9	0xbdb635ba	-0.08896966
10	0xbed447ed	-0.41461125
11	0xbd27b638	-0.04094526
12	0xbde06894	-0.10957447
13	0xbe8d1668	-0.27556157
14	0xbe707443	-0.2348185
15	0x3e7bdbbb	0.2459554
