eval_runs/ml/ml_20250901_072309/model.pt (torch, 2825 bytes, 3 tensors)

net.0.weight f4 [16, 6]
-0.3162512 0.54003775 0.5560491 -0.17518064 0.04529485 0.22820392 0.19301501 -0.16727822
0.07217215 0.45540726 0.39302787 -0.34285533 -0.32027346 0.21685256 -0.02089381 -0.17964174
-0.052800667 -0.38174072 0.22208188 -0.24244846 0.22323503 0.07239567 0.33026776 -0.025878137
-0.48571703 -0.11167129 0.10395701 0.15414794 -0.4483131 0.08573364 0.35550174 0.33945075
-0.402294 -0.37898207 -0.24692838 -0.16235873 -0.09413138 0.60782367 0.5602928 0.23662886
0.3458709 -0.35043985 -0.014637818 0.1341431 0.123251796 0.4512951 -0.5758397 0.59873784
-0.016447864 -0.046323232 -0.18980691 -0.15471785 -0.087623194 0.2605429 -0.32747248 -0.31429458
-0.36077195 -0.35974494 -0.20892754 -0.29316553 0.12692395 -0.10432655 0.27709094 0.39904574
0.3005766 -0.21558596 -0.24763669 0.26269284 0.31328768 0.22476383 0.31573394 -0.028660819
-0.33084604 0.36376026 0.3323876 0.4198337 -0.5233373 -0.14361249 0.14862059 -0.2891341
0.13777614 -0.4698013 0.38205495 -0.1443059 0.3518365 -0.19759491 -0.51436734 0.14735559
0.35292083 0.09557908 -0.30687484 -0.065502696 -0.099412665 -0.4856969 0.3065663 0.21736202
00000000: adeb a1be ea3f 0a3f 3c59 0e3f 8e62 33be
00000010: 1887 393d 4aae 693e baa5 453e fb4a 2bbe
00000020: fece 933d 242b e93e f33a c93e bc8a afbe
00000030: e2fa a3be 990e 5e3e 7f29 abbc 01f4 37be
00000040: 8345 58bd 8573 c3be 6f69 633e 6944 78be
00000050: b997 643e 2e44 943d db18 a93e 63fe d3bc
00000060: e7af f8be ebb3 e4bd 6ae7 d43d f5d8 1d3e
00000070: 4b89 e5be 1e95 af3d 5304 b63e 7dcc ad3e
00000080: 7bf9 cdbe f009 c2be cbda 7cbe 5e41 26be
00000090: f4c7 c0bd 559a 1b3f 596f 0f3f d64e 723e
000000a0: fe15 b13e da6c b3be 75d3 6fbc cf5c 093e
000000b0: 706b fc3d 2710 e73e 3b6a 13bf e246 193f
000000c0: acbd 86bc 6ebd 3dbd be5c 42be 5b6e 1ebe
000000d0: ca73 b3bd e165 853e 79aa a7be 38eb a0be
000000e0: 1ab7 b8be 7d30 b8be 1af1 55be cb19 96be
000000f0: 5af8 013e 29a9 d5bd ddde 8d3e b94f cc3e
00000100: 2de5 993e 91c2 5cbe 7994 7dbe ad7f 863e
00000110: 3e67 a03e 7d28 663e e1a7 a13e 18ca eabc
00000120: a764 a9be c93e ba3e b52e aa3e 71f4 d63e
00000130: 6ff9 05bf 270f 13be ff2f 183e 6209 94be
00000140: 3015 0d3e cc89 f0be b59c c33e edc4 13be
00000150: ea23 b43e 5256 4abe 94ad 03bf 62e4 163e
00000160: 0ab2 b43e f7be c33d b31e 9dbe 4726 86bd
00000170: de98 cbbd 44ad f8be 42f6 9c3e 2694 5e3e

net.0.bias f4 [16]
0.47374845 -0.05039361 -0.19807932 -0.54972285 0.46334106 -0.32295892 0.17997961 0.46743685
0.36297315 -0.3384474 0.21036237 -0.20602444 0.54245186 -0.5270546 0.046122167 -0.55201167
00000000: 288f f23e 8869 4ebd 4ed5 4abe a3ba 0cbf
00000010: 0a3b ed3e df5a a5be 934c 383e e253 ef3e
00000020: 9ed7 b93e fa48 adbe 3c69 573e 12f8 52be
00000030: 20de 0a3f 0ded 06bf 99ea 3c3d a350 0dbf

net.2.weight f4 [1, 16]
-0.40258268 -0.15844673 -0.06479478 0.25156963 -0.3822986 0.032880753 -0.179065 -0.23766692
-0.07202285 -0.19724113 -0.19332774 -0.074499935 -0.42578536 0.08591805 0.13010605 0.2057657
00000000: 511f cebe dc3f 22be 20b3 84bd bccd 803e
00000010: a4bc c3be f8ad 063d d15c 37be f55e 73be
00000020: b780 93bd 94f9 49be b5f7 45be 6c93 98bd
00000030: 8a00 dabe cdf5 af3d 853a 053e 3eb4 523e
