eval_runs/ml/latest/model 3.pt (torch, 2825 bytes, 3 tensors)

net.0.weight f4 [16, 6]
0	0xbee75147	-0.45179197
1	0x3e322875	0.17398246
2	0x3d7a9471	0.06117672
3	0x3db916b4	0.090375334
4	0xbf162cfc	-0.5866239
5	0x3e39f8d6	0.1816133
6	0x3da12d50	0.07869971
7	0xbdf161e1	-0.11786247
8	0xbd4eee33	-0.050520133
9	0xbdfb5ac5	-0.12273172
10	0xbe820824	-0.25396836
11	0x3ee2cfdb	0.44299206
12	0xbe25d8c7	-0.16195975
13	0xbdc3fc81	-0.09569646
14	0x3e1e30aa	0.15448251
15	0xbe09e02b	-0.1346442
16	0x3e9eae61	0.30992416
17	0x3ddb2727	0.10700827
18	0x3e8c4b86	0.2740137
19	0x3ebefff3	0.3730465
20	0xbe4fd660	-0.20296621
21	0xbeb2de08	-0.3493502
22	0xbe162c69	-0.14665379
23	0xbeaf56e2	-0.34245974
24	0xbf12bc08	-0.5731816
25	0xbe702111	-0.23450114
26	0x3e37d00a	0.17950454
27	0xbdb3903b	-0.08767744
28	0xbed2c3b6	-0.4116494
29	0x3ebacc6f	0.36484095
30	0xbd7f2577	-0.06229159
31	0x3f101da5	0.56295234
32	0x3f047d80	0.51754
33	0x3e9561e7	0.29176256
34	0x3e8b4bdb	0.2720631
35	0x3ddf96e4	0.10917452
36	0x3c950161	0.018189134
37	0xbd9ebb49	-0.077505656
38	0x3ea69a9a	0.32539827
39	0x3edf2041	0.43579295
40	0xbef2216b	-0.4729112
41	0x3e9705fd	0.29496756
42	0x3e3ad1a2	0.18244031
43	0x3ed64ca0	0.41855335
44	0x3e37f47d	0.17964359
45	0x3d84fea4	0.06493881
46	0xbf093197	-0.53591293
47	0xbd9e8b7b	-0.077414475
48	0xbe90d7c5	-0.2828962
49	0xbee30955	-0.44343057
50	0x3e389a87	0.18027698
51	0xbe1539fc	-0.145729
52	0x3ec4dd4e	0.38450092
53	0xbe814349	-0.25246647
54	0xbed049c0	-0.40681267
55	0x3e10d4ce	0.14143679
56	0xbe512c35	-0.2042702
57	0xbe33d769	-0.17562641
58	0xbe952daf	-0.29136416
59	0xbdcf5c6d	-0.10125051
60	0xbf01db33	-0.50725096
61	0x3d1b92a8	0.03798166
62	0x3d5ad753	0.053428005
63	0xbd79c681	-0.060980324
64	0x3eb1cd06	0.34726733
65	0xbe975717	-0.29558632
66	0x3e83d009	0.25744656
67	0xbe40f5e5	-0.18843801
68	0x3e0b6ffa	0.13616934
69	0x3e47de8f	0.19518493
70	0x3edacd70	0.4273486
71	0x3dda9e48	0.10674721
72	0x3f028056	0.50977075
73	0x3cab8aab	0.020940145
74	0x3b443cbc	0.0029943427
75	0x3e9b210c	0.3029865
76	0xb90e79f6	-0.0001358761
77	0x3dd743b0	0.10510957
78	0xbc38b147	-0.011272735
79	0xbe4901bf	-0.19629572
80	0x3eb96b8a	0.36214858
81	0xbea23176	-0.3167836
82	0xbeab285e	-0.33429235
83	0xbec61322	-0.38686472
84	0xbef93ea9	-0.48680618
85	0x3e9cfe22	0.30662638
86	0x3e6fff68	0.23437274
87	0x3e80d52c	0.25162637
88	0x3ed40890	0.41412783
89	0x3d6a7745	0.05724265
90	0xbe9f1913	-0.31073818
91	0x3d491e49	0.049101148
92	0x3d70afe3	0.05876149
93	0xbee09c3f	-0.43869206
94	0x3e498d53	0.19682817
95	0x3da4eb55	0.080526985

net.0.bias f4 [16]
0	0x3f0d5e8a	0.5522238
1	0x3e4f3e20	0.20238543
2	0x3dafed6b	0.08590206
3	0xbe9c4b4a	-0.3052619
4	0x3de71d26	0.112848565
5	0x3ef5f3e6	0.48037642
6	0x3e71ad17	0.23601185
7	0x3e92e078	0.2868688
8	0x3e305e30	0.1722343
9	0xbecd0f1b	-0.40050587
10	0xbeb5b97b	-0.35493073
11	0xbe40fd07	-0.18846522
12	0xbc36d576	-0.0111592915
13	0xbeb3d226	-0.35121268
14	0xbf033315	-0.5124982
15	0x3c532e09	0.012889394

net.2.weight f4 [1, 16]
0	0xbe900d73	-0.2813526
1	0xbefa1f73	-0.4885212
2	0xbe6e21ec	-0.23255128
3	0x3df90988	0.12160021
4	0xbe916731	-0.2839904
5	0xbe981969	-0.29706886
6	0xbe9ce085	-0.30640045
7	0xbe8a19e3	-0.26972875
8	0x3ce012dd	0.027352745
9	0xbc7f71c0	-0.015591085
10	0x3dd6d30f	0.10489475
11	0x3e1cd738	0.15316474
12	0x3de81970	0.11332977
13	0x3d65cdb8	0.05610439
14	0x3dbb9b29	0.09160454
15	0xbb688512	-0.0035479707
