eval_runs/ml/ml_20250901_000317/model.pt (torch, 2825 bytes, 3 tensors)

net.0.weight f4 [16, 6]
00000000: 320a 0dbf 69dd 003f 6ef5 543e c2e7 fa3e
00000010: 55d3 adbe 6cde 8ebd 286b 4dbe f88d 713e
00000020: fbdb a93d 7efe 65bd a758 cabe b7a6 103f
00000030: d32c 5e3e 36b2 03be 21c6 813e fe9f 1e3f
00000040: 2c6c 073e 0589 27be 3ad9 5f3e 0304 cbbe
00000050: dc8a 963e aac0 51bd 5314 d4bd 84aa 2e3e
00000060: f2e2 dbbe cce4 f33e 64f7 113e 00a8 0e3f
00000070: 0a1d e8be cb19 1fbe 0340 e8bd a8d6 cf3e
00000080: aa20 debc 5967 613d 8629 863e 9dde 933e
00000090: 1bc7 22be ab56 4b3e bb55 9cbd 11d2 e5bd
000000a0: ed28 05be d6b0 7a3c 38e2 703d 6d50 90be
000000b0: d9ac 2f3e 1ada 0f3d a4cc a13e d44e 77be
000000c0: a80b 24bf 577e babd 084c 5c3e 473c da3e
000000d0: fa03 2fbe 6e85 a83e 72a1 673c 5943 433e
000000e0: 7ce3 0a3d 7c98 c8be 120e 913e 1d98 3a3c
000000f0: 7570 3cbd 346e 8f3e 1003 0b3e 6c81 313e
00000100: 4c5a 29bc 7c61 76be 219f 85be 0bcc 09bd
00000110: 15d2 5f3e 9598 993e 08c8 03bf cf6c 05bd
00000120: bb7e 003e 0a1d fbbe 41ad 3d3e 676f 83bd
00000130: 1149 b63e 91c4 8bbe b144 14bf 71ba 04be
00000140: ecfe 113f 02a7 d53e 2abb febe 2863 353d
00000150: f60c 26bd aff1 5f3e c4cc 87bc ba2d 95bc
00000160: 8d1c 53be 5dcb 1ebe c4fe 5bbe 6022 c0bc
00000170: 0dcd 1c3e f3d9 463e b044 e4bd d5fc e7bd
-0.5509368 0.50337845 0.20796749 0.49004942 -0.33950296 -0.06976017 -0.20060408 0.23589313
0.08293911 -0.056150906 -0.3952076 0.56504387 0.21696787 -0.12860951 0.25346473 0.6196288
0.13224858 -0.16360863 0.21860209 -0.39651498 0.29402816 -0.05120913 -0.10355439 0.17057234
-0.42946583 0.47635496 0.14254528 0.557251 -0.45334655 -0.15537183 -0.11340334 0.40593457
-0.027115185 0.0550302 0.26203555 0.28880778 -0.15896265 0.1985728 -0.07633539 -0.112217076
-0.13003893 0.01530095 0.05880949 -0.2818636 0.1715578 0.035120107 0.3160144 -0.24151164
-0.64080286 -0.09106129 0.21513379 0.42624113 -0.1709136 0.329143 0.014137613 0.1906866
0.033908352 -0.39178836 0.28331047 0.011388806 -0.046005685 0.28013766 0.13575387 0.17334527
-0.01033647 -0.24060625 -0.26097968 -0.033641856 0.21857484 0.29999223 -0.514771 -0.03257447
0.12548344 -0.49045593 0.18523122 -0.06417733 0.3560262 -0.27298406 -0.57917315 -0.12961747
0.57029605 0.4172898 -0.4975217 0.044284016 -0.040539704 0.21869539 -0.016577132 -0.01821028
-0.2061636 -0.15507264 -0.21483904 -0.023453891 0.15312596 0.19419079 -0.111459136 -0.11327521

net.0.bias f4 [16]
00000000: 7d60 e03e 4b13 a93e 168b 223e 45ec 793e
00000010: 10d9 093f a01f 933e e37e d0be 54af 4dbc
00000020: a325 933e a5a0 0dbf d6c9 75bd 16fe ae3e
00000030: 0270 cbbe 773d 193f 1ffe 8d3e edcf cc3d
0.43823615 0.33022532 0.1587337 0.24406536 0.53846836 0.28735065 -0.40721807 -0.0125540085
0.28739652 -0.5532325 -0.06000694 0.34178227 -0.39733893 0.5985941 0.27732942 0.10000596

net.2.weight f4 [1, 16]
00000000: 0c5c 8abe 31f6 95be d71d 79be 8136 7f3c
00000010: fdf2 35be df6a 04bf 4851 673e 9540 c4bd
00000020: 3138 e7be 03fb 9d3e b4df fabd 7de1 dcbe
00000030: d32e 9d3e afa3 45be 66d7 92be 9978 7fbc
-0.2702335 -0.29289392 -0.24327789 0.01557696 -0.17768474 -0.5172557 0.225896 -0.095826305
-0.45160058 0.3085557 -0.12249699 -0.43140784 0.30699787 -0.19300722 -0.2867996 -0.015592718
